checkpoint/metric_trace_model.pkl (torch, 808111 bytes, 114 tensors)

conv.conv.weight f4 [35, 35, 7]
000000 ec db f1 bc a4 c6 36 bd 1b 57 7c bd 69 7e 58 3d
       -0.029523812 -0.044623032 -0.061606508 0.05285493
000010 92 ac 97 bc b8 e2 13 3c 31 f6 35 3c a4 36 16 3a
       -0.018514905 0.009026222 0.01110606 0.0005730188
000020 c2 7f d7 3c cb b5 95 ba 64 cb 15 bd f2 a1 fd 3d
       0.026306037 -0.0011421976 -0.03657092 0.12384404
000030 d4 a3 67 3d 89 5e a2 3d 63 f0 bb bd 00 64 62 bc
       0.056552723 0.079281874 -0.091767095 -0.013817787
000040 cb ac 92 3c 68 bb 77 bc 8b 6d a3 bc 01 17 70 bc
       0.01790466 -0.015120365 -0.019949695 -0.014653922
000050 d8 b0 eb 3c 1b 18 35 3d 9a e5 88 3d 2a 7d 85 3d
       0.02877085 0.044212442 0.06684418 0.06518014
000060 53 12 ce 3c 56 db 46 3d a4 39 c2 3d 8a 67 4b 3d
       0.025155222 0.04854902 0.0948365 0.04965929
000070 60 f9 24 3d 73 2c 28 3d f6 44 c7 bd fc 68 67 be
       0.040276885 0.041058015 -0.0972995 -0.22598642
000080 3b e9 18 3d d6 4b 8d 3d 76 ec 44 3c 9b 01 8b bd
       0.0373318 0.0689923 0.012019267 -0.067874156
000090 ee 37 8d 3c 37 7b af bd eb 30 ac bc 91 1d 3a 3d
       0.017238583 -0.08568423 -0.02101942 0.045438353
0000a0 9f da c7 3c e3 08 23 bd db a7 f0 3d 33 ab 8c 3d
       0.024396239 -0.039803397 0.11750766 0.06868591
0000b0 78 67 fa 3d 4d 9c 23 3d d0 b1 2a bd 50 4d c2 bd
       0.12226766 0.039943982 -0.04167348 -0.094874024
0000c0 29 c4 8b bd 93 3e be 3c 45 fd 87 3d a1 fa 81 3d
       -0.06824524 0.023223197 0.06640104 0.06346632
0000d0 5c fe bb 3d 02 58 1a bd 83 7e 9b bc 6c 4b a1 3d
       0.091793746 -0.037681587 -0.018981224 0.07875714
0000e0 af fa 7b bd ca bc 98 bd 07 4f c8 bb 7d 4f 98 3c
       -0.061518367 -0.07457884 -0.0061129364 0.01859259
0000f0 5c c2 04 bd 9e 07 b7 bc 91 6a ef 3c 37 d8 3f 3c
       -0.032411918 -0.0223425 0.02922562 0.0117092645
000100 46 d7 4f bb 25 aa 6e 3c 3f 0b de 3d 89 89 4d 3d
       -0.0031714006 0.014566933 0.10841989 0.050179992
000110 1b 8f 89 3d 88 7c a0 3d 7d c7 0d 3d 55 c5 de 3b
       0.06716748 0.078362525 0.034614075 0.006798426
000120 80 50 74 bd 59 c5 f7 bd 7f a4 bb bc e9 8b 9b 3c
       -0.059647083 -0.12098188 -0.022905586 0.018987613
000130 ae 6e d1 3c 25 bc 2b bd c0 42 c7 bc 1f da ff 3b
       0.025565472 -0.041927475 -0.024323821 0.0078079845
000140 be 52 03 bd d5 b2 8b 3d 5c d9 5f 3d bf 27 85 3b
       -0.03206133 0.06821219 0.05465065 0.004063576
000150 0e d2 cd bd 52 a0 5d bd 19 b1 06 bd 30 64 55 3c
       -0.100498304 -0.05410797 -0.032883737 0.013024375
000160 64 19 88 bd f7 d5 82 bc 8e 60 72 3c 77 63 91 bd
       -0.06645468 -0.015971167 0.014793528 -0.070990495
000170 5e 5e 65 bd e5 d0 6d 3d f8 de d7 3d 1f 7b 38 bc
       -0.0559982 0.058060545 0.10540575 -0.011259823
000180 d5 32 26 3d 2c 5b 25 3d c8 d9 0d 3d b7 a8 7f 3d
       0.04057582 0.04037015 0.03463152 0.06241676
000190 e1 e9 20 3d ac 21 00 3b 6c a9 00 bd e8 5f 84 bc
       0.039285544 0.001955132 -0.031411573 -0.016159013
0001a0 88 4e 80 bd 81 97 3b bd 4f fc c6 bd 0b 54 40 bd
       -0.06264979 -0.045798782 -0.09716093 -0.04695515
0001b0 f3 26 98 bd cc 1b a9 bc ca 3e 03 bc 22 31 91 bd
       -0.07429304 -0.020643137 -0.008010576 -0.070894495
0001c0 5b ac 03 3d dc 35 42 3c 94 61 fd 3d 57 a5 04 3e
       0.032146793 0.011853661 0.12372127 0.12953697
0001d0 61 d9 43 bd d9 2b 19 bd 7a db 70 bd 20 56 8b 3c
       -0.04781473 -0.037395332 -0.05880306 0.017008841
0001e0 30 f4 63 bc c8 e7 c1 bd e0 3a 02 bd 1c d1 23 bc
       -0.013913199 -0.09468037 -0.03179443 -0.009998586
0001f0 00 3e 7a 3d 2a 2c 03 3d aa 4e 28 bd d1 c8 16 bc
       0.061094284 0.03202454 -0.041090645 -0.009203152
000200 00 f2 9c bd 93 db 4b bd 39 bd 1f bd 0b 2b 81 bb
       -0.07663345 -0.04976995 -0.038998816 -0.0039418987
000210 88 b8 d4 bb 05 11 a9 3c fd 50 42 bc 62 08 33 3d
       -0.0064917244 0.020637998 -0.011860129 0.043709166
000220 1e 3a 5e 3d cd 84 93 3d 16 f8 77 3b 03 a1 d7 bb
       0.054254644 0.07203064 0.003783708 -0.0065804734
000230 0a 6b 1d bc 00 a7 00 3d f1 a9 7b bd 15 53 d6 3a
       -0.00960804 0.031409264 -0.061441366 0.0016351665
000240 a6 b3 ab bd 25 37 1f bd 50 c0 70 bd 6d 41 9b 3b
       -0.083838746 -0.03887095 -0.058777153 0.004738024
000250 ca f1 0a 3d 13 93 4d bd ef fc 07 3e 2c 11 12 3d
       0.033921994 -0.05018909 0.1328008 0.035660908
000260 49 9b ac 3b 8b 68 21 3d 5d da 4f bd 51 05 18 bd
       0.005267535 0.03940634 -0.050745357 -0.037114445
000270 71 93 bb bd 2d 89 ca bd f2 39 54 3d 70 e8 8d 3d
       -0.091589816 -0.098894455 0.051813073 0.069290996
000280 dd 33 f5 3c 1e b2 38 3d ac ed a1 3d 47 30 a8 3b
       0.029931957 0.04509174 0.079066604 0.0051327082
000290 6a 22 a3 3d 59 dc 3c bc 9c 0f 3e bc a7 a9 c0 3c
       0.07965548 -0.011527144 -0.011600401 0.023518397
0002a0 4e f2 b8 3c 25 a3 ec 3c c8 ab 61 3d 84 f2 94 3d
       0.022576477 0.028886387 0.055095464 0.07272819
0002b0 e1 76 0d 3e 4b 45 03 3d 54 9c ec 3d b0 45 86 bd
       0.1381488 0.032048505 0.11553255 -0.065562606
0002c0 9a 9e eb bc d2 a4 6b bd 34 9b a5 bc 72 87 70 bd
       -0.02876215 -0.05753023 -0.020215608 -0.05872292
0002d0 1b 52 84 bd 5a aa 9a 3c b2 7f 94 bd e8 2e dc 3c
       -0.06460973 0.018880058 -0.072509184 0.026877835
0002e0 7e 8f 0f 3d 3c 5a 0d 3d fe c5 5d 3c 39 9a d5 3c
       0.035048954 0.034509882 0.013535975 0.026074516
0002f0 5f b6 23 3c 04 66 d1 bd d2 3a 39 3d 14 c6 2d bd
       0.009992211 -0.10224536 0.04522211 -0.04242523
000300 7e 40 57 bd 61 79 83 bc a3 60 f2 39 1f d4 81 bd
       -0.05255174 -0.016049089 0.00046229837 -0.06339287
000310 37 05 94 ba 9c be 13 3d 82 5d 52 3d 9a e0 7d bc
       -0.0011293058 0.03607045 0.051358707 -0.015495444
000320 56 0d 94 bb d4 20 86 bc 60 32 02 bd b9 58 f3 bc
       -0.0045181913 -0.016373076 -0.031786323 -0.029705392
000330 27 2f e9 bc ff 5b 84 bc 37 c6 2d bd c9 66 39 bd
       -0.028464867 -0.016157148 -0.04242536 -0.04526404
000340 ab ab 1c 3c 83 dc c6 3b a0 e2 bd 3c 61 f4 41 3d
       0.009562413 0.0060687675 0.023179352 0.0473522
000350 41 7a 6f 3d 34 04 88 3d e7 ef 2c 3c f7 76 60 bd
       0.0584662 0.06641427 0.010555244 -0.054800954
000360 6e c2 04 bd 8f 0c 08 bd 9c bd 9c 3c 83 ab 1c 3d
       -0.032411985 -0.0332151 0.019133382 0.038249504
000370 69 c8 02 3b 68 da 48 3d 3c ba 69 3c 6e f5 28 bd
       0.001995588 0.049036413 0.014265593 -0.041249685
000380 be 3e 7e 3d d3 a9 0a bd 3c e9 31 3d c8 1d b6 3d
       0.062071554 -0.033853363 0.04343532 0.08892399
000390 5f 9a 9c 3c ab 41 06 bd 23 31 04 bc 33 d3 cf bc
       0.019116579 -0.03277747 -0.008068356 -0.025369262
0003a0 4e 52 bd bc 9b d1 7f bc 65 6c 2f 3d 56 17 35 bd
       -0.023110535 -0.015613939 0.042827982 -0.044211708
0003b0 fe e7 d8 bc f2 2a 26 3d 05 67 93 bd da 47 b8 bc
       -0.02647781 0.0405683 -0.07197384 -0.022495199
0003c0 5f 93 b7 bb b1 48 b1 bc 53 93 4f bd 25 0e 87 bd
       -0.005602285 -0.021641107 -0.05067761 -0.06594495
0003d0 a7 38 7d bc 75 7f 12 3d 49 14 c2 3c f3 34 cf 3c
       -0.0154554015 0.035766084 0.023691313 0.025293803
0003e0 55 72 b5 bd 60 bb 38 3c e2 14 c6 bc 94 7b fb bb
       -0.08859698 0.011275142 -0.02417988 -0.007674644
0003f0 34 58 05 3d a5 c0 a1 bd 20 33 71 bd 7f cd 80 bd
       0.03255482 -0.07898072 -0.058886647 -0.06289195

conv.conv.bias f4 [35]
000000 b4 21 3a bc 30 01 71 bc 1d 68 77 3c 24 2e 5f 3d
       -0.0113605745 -0.014709756 0.015100506 0.054487363
000010 cd 84 b6 bb b3 f2 a3 bc 1d 66 2a 3c 5d 71 93 3c
       -0.0055700303 -0.020013189 0.010400322 0.017998392
000020 9e 33 6b 3c 42 62 66 bd 31 ee 28 bb 6b 7d 04 bd
       0.014355568 -0.05624605 -0.0025776739 -0.03234617
000030 2b ce fe 3c 4e a2 63 3d 38 17 c7 bc 08 97 a4 3b
       0.031104168 0.055574708 -0.024303064 0.005022887
000040 22 31 a2 3c 9d e7 dc bb da 5a 1d bc bc 12 ef bb
       0.019798819 -0.0067414776 -0.00960418 -0.0072959345
000050 d7 14 85 bd 9d 03 c1 bc 7c 31 04 bd c7 88 8f bc
       -0.064981155 -0.023561293 -0.032273754 -0.017521275
000060 b3 0f 31 3d 99 9e be bc f1 71 72 bd 2b ee df 3c
       0.043227863 -0.023268985 -0.059190694 0.027335247
000070 22 53 5a ba 80 2d 9a bd e7 d7 4e bd 85 32 00 3d
       -0.0008328428 -0.0752821 -0.05049887 0.03129818
000080 64 62 c7 bc 3c 24 84 3d ef 1a 12 bd
       -0.024338908 0.06452224 -0.035670217

feature_gat.conv1.Ws.0.weight f4 [32, 30]
000000 25 c2 ad bc e5 da 0d 39 f2 97 8f bc 6c 5d 36 39
       -0.02121074 0.00013528352 -0.017528508 0.00017391675
000010 00 2d fc 38 34 75 0c 39 8a 48 03 39 98 ca 47 38
       0.00012024678 0.00013395102 0.00012520156 4.7633977e-05
000020 e2 fe 87 38 cb 4b 23 3d d4 8a 2b 3d 1c 31 e2 39
       6.484777e-05 0.039867204 0.041880444 0.00043142668
000030 22 40 00 3b 22 09 f0 bb 33 08 9b b9 8e cc 58 3b
       0.0019569476 -0.0073253075 -0.00029570013 0.0033080908
000040 86 80 2a 38 d8 bf b6 bc ce c8 32 3c 46 fa 55 38
       4.0650855e-05 -0.022308275 0.010912133 5.1016243e-05
000050 e0 75 a3 38 64 46 73 38 c6 9a ae bc 22 91 35 37
       7.7944016e-05 5.800127e-05 -0.021314036 1.0822232e-05
000060 bd 4c de 37 e6 42 e0 38 cf 36 d8 bc 54 d0 19 bc
       2.6500196e-05 0.00010693613 -0.026393322 -0.009388048
000070 d5 f1 4d 3b 4c 8d 8f 38 36 ff ba b8 32 ea 04 bd
       0.003142466 6.84509e-05 -8.916708e-05 -0.03244991
000080 ad f4 92 b7 5e c8 ed 3b 9e 9b bd ba a9 4d a0 3c
       -1.7518492e-05 0.0072565516 -0.0014465933 0.019568281
000090 f7 2b d4 b8 39 c3 70 bb 33 60 5f b9 c4 65 6e bb
       -0.00010117137 -0.0036737456 -0.00021302774 -0.0036376575
0000a0 19 c5 ba b8 dd 5f ac bc 5f b6 6f bb 4f ef 49 ba
       -8.9058834e-05 -0.021041805 -0.0036577208 -0.0007703201
0000b0 8a 4a 8c b9 19 d7 a7 b8 ab 65 ab ba 29 e4 77 38
       -0.00026758417 -8.0032456e-05 -0.0013076564 5.910188e-05
0000c0 22 9f 6e b8 f5 f2 34 b9 ef d8 8e 3b a9 da 20 b9
       -5.6891826e-05 -0.00017256646 0.0043593566 -0.00015340246
0000d0 c7 45 85 bc cb b0 84 b9 79 e4 18 3a b6 3d 2f 39
       -0.016268624 -0.00025308723 0.0005832385 0.0001671229
0000e0 53 71 05 3d 93 21 9f bc f0 52 5f b8 93 cc 15 38
       0.032578778 -0.01942519 -5.3244585e-05 3.5714893e-05
0000f0 58 65 1c 3d 4d fd 24 3d b3 f2 c5 3c ce 50 35 b9
       0.038182586 0.04028063 0.02416358 -0.00017291607
000100 f6 70 5f b9 d0 bf 00 bb 76 22 98 b9 26 ca ca b9
       -0.00021309018 -0.001964558 -0.00029017375 -0.00038679055
000110 79 d4 da b9 77 c4 b1 b9 ca d9 59 b9 29 49 0a ba
       -0.00041738505 -0.00033906449 -0.00020775865 -0.0005275184
000120 3d af 19 ba f0 2b 10 3c f0 cc 11 ba bc 48 ee 3c
       -0.00058625994 0.008799538 -0.0005561849 0.029087417
000130 f0 39 7e b8 e4 ed c2 3b 80 41 44 b9 77 0b 0e bd
       -6.0612278e-05 0.005948769 -0.00018716417 -0.034678902
000140 df 59 8d b9 5c c6 9d b9 65 f2 70 3c f2 0a ef b9
       -0.00026960575 -0.00030093163 0.014706229 -0.00045593787
000150 a1 b2 0d bb 34 19 f5 b8 4c a5 a2 b9 45 10 87 b9
       -0.0021621364 -0.00011687205 -0.00031022204 -0.00025761328
000160 6d 8a e1 ba c7 2d 01 b8 48 c1 c0 b8 98 0a 39 bb
       -0.0017207392 -3.079863e-05 -9.191275e-05 -0.0028235074
000170 db c9 f6 b7 09 3b 1d 3c 39 3e bf 39 02 53 ab 3a
       -2.9419482e-05 0.009596595 0.00036476718 0.0013071003
000180 c6 07 47 b9 ae 62 51 b9 a8 29 8a b9 4d fe f1 bb
       -0.00018981015 -0.00019968554 -0.00026352447 -0.0073850513
000190 1e 2c 09 3b 25 99 98 b9 e9 0e 99 b9 32 b9 47 3a
       0.0020930837 -0.000291058 -0.00029193543 0.0007618844
0001a0 70 d1 9f b9 c2 ff ba b8 a9 a5 d2 b7 c4 ee 23 38
       -0.00030482886 -8.91681e-05 -2.5111092e-05 3.9084596e-05
0001b0 81 82 8d b8 3a 68 0d ba a5 42 e8 3c 90 6e 5f b9
       -6.747712e-05 -0.0005394254 0.028352091 -0.00021308125
0001c0 5c d8 d9 3c 09 13 9f b9 a6 15 19 39 26 b3 cc b7
       0.026592426 -0.00030341026 0.00014599282 -2.4402118e-05
0001d0 7a af 51 3b d1 bc 79 b8 dd 6a 7d bb 38 32 0a 3c
       0.0031995461 -5.9542075e-05 -0.0038668432 0.008434825
0001e0 22 d8 c5 ba c8 03 65 b9 d6 60 e6 3a 7d 4b d1 b8
       -0.001509432 -0.0002184055 0.0017576467 -9.9799574e-05
0001f0 eb ed 2b b9 74 7f 60 b9 4c de 73 b9 52 7d 25 b9
       -0.00016396462 -0.00021409785 -0.00023257098 -0.00015782312
000200 57 c8 bb b9 6b 47 0e 3d 93 0e 0d b9 68 55 e8 b9
       -0.00035816684 0.03473608 -0.00013452237 -0.0004431412
000210 ef a5 98 3c 77 c1 71 b9 c3 02 f8 b9 aa 5e 1f bc
       0.01863381 -0.00023055622 -0.00047304304 -0.0097271595
000220 cd 81 34 b8 dc 4b c3 ba 56 b9 18 b9 78 71 69 3b
       -4.303623e-05 -0.0014899927 -0.00014564893 0.003562061
000230 31 08 16 bb ee 39 b8 b9 14 ba 0a ba b4 51 d3 b9
       -0.0022893066 -0.00035138376 -0.000529201 -0.0004030593
000240 3c 47 b1 b9 bc 39 05 3d 6a 3d 87 b9 e1 ee 2b bd
       -0.00033813145 0.032525763 -0.00025794964 -0.04197586
000250 9a 6a fc bc 56 c2 9e 3c ef e3 66 b8 17 5c 02 b8
       -0.03081255 0.019379776 -5.5048553e-05 -3.108018e-05
000260 18 54 e8 38 95 77 4b 3a 6c c5 91 ba 23 ac e0 b7
       0.00011078286 0.00077616546 -0.0011121458 -2.6783038e-05
000270 b5 7f 8a 3c 27 be 0b bd d8 78 24 bd a4 c2 04 b9
       0.016906599 -0.03411689 -0.040154308 -0.0001266101
000280 23 59 53 b8 8b f2 d9 b9 bf 39 f2 ba 82 34 12 39
       -5.0389335e-05 -0.00041570174 -0.0018480344 0.00013943206
000290 43 8f 51 b9 f4 e0 8a b9 01 0b c2 b7 8a 03 20 ba
       -0.00019985162 -0.00026489014 -2.3131726e-05 -0.0006104043
0002a0 b5 33 16 b8 8a bb a2 bc d2 29 b2 b8 fa 7c 4d 36
       -3.5810943e-05 -0.019864816 -8.495491e-05 3.0620126e-06
0002b0 33 c9 5c b9 fa dc f9 3c 4a f3 78 39 f8 cf bb 37
       -0.00021055788 0.030500878 0.00023741755 2.238898e-05
0002c0 f9 c7 b6 3b 37 f5 c3 3b 8d 41 47 3d 33 68 bf bc
       0.005578038 0.0059801596 0.0486465 -0.023365116
0002d0 8e e5 33 b9 7d 9e 42 b9 02 90 df b8 2e dc e2 b8
       -0.00017156286 -0.00018560323 -0.00010660292 -0.000108175314
0002e0 36 bd 16 3a d7 77 4a b9 f6 05 52 b9 1a 3c a1 b9
       0.00057502405 -0.00019308865 -0.00020029381 -0.00030753092
0002f0 77 ac b1 b9 95 0c 34 3d dd c5 25 b9 4a 63 d7 b9
       -0.00033888567 0.04395731 -0.00015809336 -0.00041081972
000300 59 42 eb b9 27 aa 4b ba fa 7c a7 bc 69 4d 3e b9
       -0.00044872126 -0.000776919 -0.020445336 -0.0001814865
000310 a4 9d e9 3c 81 8b 61 37 e8 a7 27 bd 05 59 01 3b
       0.028517552 1.3443526e-05 -0.040931612 0.0019736898
000320 ca cf 67 b9 5b 63 b0 b9 22 c2 ac b8 80 a9 c8 b9
       -0.00022107284 -0.00033643362 -8.237759e-05 -0.0003827326
000330 62 0e b4 b9 e2 60 9b b8 f7 23 38 b9 9d 4f 84 3c
       -0.0003434299 -7.409022e-05 -0.00017561005 0.016151244
000340 c3 91 7c b8 0b 39 c2 3c 2c 90 56 ba fe 8c 86 b9
       -6.0217233e-05 0.02370884 -0.00081849354 -0.0002566352
000350 60 95 32 3c 30 ae 12 b9 8e 8e c3 bc 3b b9 ed b8
       0.010899872 -0.00013988535 -0.023871686 -0.000113355425
000360 43 fb a1 3a 24 87 b9 b9 04 50 d1 b9 d8 82 8b b9
       0.0012358207 -0.00035386637 -0.00039923203 -0.00026609632
000370 75 89 db bb 23 cb 84 bc b1 a2 13 3d 1c 70 26 bd
       -0.0066997358 -0.016210144 0.036043826 -0.04063426
000380 de 92 de 3a a1 d3 de 3c 55 e9 b0 b8 ba 3b c5 37
       0.0016981026 0.027200522 -8.4357955e-05 2.3512042e-05
000390 4a d4 fc bc 99 9b 8a b9 12 aa 80 b9 2f 18 3c ba
       -0.030862946 -0.0002643734 -0.00024540775 -0.00071752345
0003a0 7c f7 ed bc 47 bb 54 3b e9 cc ba b9 51 b4 c0 b8
       -0.029048674 0.0032460259 -0.00035629355 -9.18886e-05
0003b0 e4 a5 38 bd eb e8 18 b9 a8 e9 c2 bc ad df 41 bd
       -0.04508008 -0.00014582618 -0.023793057 -0.047332454
0003c0 75 3c 32 b9 5d 4f 76 b9 4f 06 10 b7 92 5f 60 bb
       -0.00016997925 -0.00023489953 -8.584538e-06 -0.0034236652
0003d0 ad cd bb bc 25 37 6a b9 b9 8a e8 ba 95 63 a0 b9
       -0.022925222 -0.00022336522 -0.0017741538 -0.00030591773
0003e0 e6 bd 19 ba d4 27 7e b9 9d a7 21 3d 42 2a f4 b9
       -0.0005864784 -0.00024238165 0.03946649 -0.0004657079
0003f0 d9 f5 d3 3c 67 21 a9 b9 54 24 01 ba 0c bc 2a 3d
       0.025874065 -0.0003225908 -0.0004926373 0.04168324

feature_gat.conv1.Ws.0.bias f4 [32]
000000 9f 1d 90 3a 99 c5 ba 3a bc 7e cb 3a ea 9d b6 3a
       0.0010995156 0.0014249563 0.0015525441 0.001393256
000010 1e 5d c3 3a 73 25 ad 3a ca 6b c5 3a 9a 26 c6 3a
       0.001490507 0.0013210013 0.0015062031 0.0015117705
000020 8a 1a c4 3a 64 f9 ba 3a 0a e7 c9 3a 70 9a cd 3a
       0.0014961523 0.0014264998 0.0015403938 0.0015686285
000030 97 74 b4 3a 54 12 a8 3a 46 8a b7 3a 3a ae 94 3a
       0.0013767657 0.0012822845 0.0014003001 0.0011343427
000040 91 83 a8 3a 00 4e bf 3a f8 c6 b4 3a 73 75 d0 3a
       0.0012856593 0.0014595389 0.0013792207 0.0015904143
000050 d4 8a a6 3a a1 89 c7 3a b7 7b b7 3a 8f a3 a9 3a
       0.0012706169 0.0015223512 0.0013998662 0.0012942421
000060 cc c2 c6 3a fc ac e6 3a a6 05 ba 3a f3 c3 c5 3a
       0.0015164255 0.0017599161 0.0014192357 0.0015088305
000070 8f 04 bb 3a 7f db a6 3a 1b 50 a8 3a 64 18 d7 3a
       0.0014268326 0.001273021 0.0012841256 0.0016410467

feature_gat.conv1.Ws.1.weight f4 [32, 30]
000000 c8 b9 0a b9 df 13 ec b7 99 e8 d8 3b d6 37 12 bd
       -0.00013229914 -2.8142646e-05 0.0066195247 -0.03569778
000010 fe d9 ba b9 cd 72 04 b9 10 b7 b9 b9 97 c2 69 b9
       -0.000356391 -0.00012631268 -0.00035422342 -0.00022293102
000020 c1 7f 8b b9 7b c1 a6 bc 10 40 6a bc 50 df 63 bc
       -0.0002660733 -0.02035593 -0.0142975 -0.013908222
000030 c5 f1 97 b9 1a 65 1d bd 33 50 ae b9 03 07 3f 3d
       -0.00028981097 -0.038426496 -0.0003324762 0.046637546
000040 ad 82 3e b8 31 70 fc b9 f3 1f f2 b8 45 66 11 3d
       -4.542123e-05 -0.00048148775 -0.0001154541 0.035497922
000050 36 e4 20 bd c2 20 de 3b 2a 90 0b bd ec a1 06 3d
       -0.03928014 0.0067788074 -0.034073032 0.032869264
000060 79 70 93 b9 6c b5 82 bc 8b 32 2a b9 7f a4 b7 3b
       -0.00028121824 -0.01595565 -0.00016231292 0.0056043263
000070 bb 3a be b8 6f 8f 14 3b 30 03 61 bc cc f2 88 b9
       -9.0708454e-05 0.00226685 -0.01373367 -0.0002612084
000080 6e ae d1 bc 07 c1 42 b9 9a 90 8b b9 33 87 85 b9
       -0.02559587 -0.0001857319 -0.00026619883 -0.00025468468
000090 7d a1 1d 3d b6 95 ab b9 55 6e 30 b9 a8 99 b0 b9
       0.038484085 -0.00032727205 -0.0001682577 -0.0003368382
0000a0 5a e5 38 b9 ea 6b 11 ba 6b 39 a3 ba 77 a9 fe 3b
       -0.00017633048 -0.00055473915 -0.0012453025 0.0077716666
0000b0 d4 db 0a ba 5d 40 84 b9 08 d0 4d b8 28 83 80 3c
       -0.0005297039 -0.00025224956 -4.9069553e-05 0.01568754
0000c0 7d 54 2e 3a fd bf ce 3c 23 35 8f bc 77 82 cc b9
       0.0006650163 0.025238032 -0.017481392 -0.00039007116
0000d0 5a e3 67 ba 23 40 04 ba 2f 86 de b9 af cd eb 3c
       -0.00088458287 -0.00050449575 -0.00042443114 0.028784601
0000e0 8d bc a6 b9 0f 60 34 b9 cb d3 2d 3d b3 2f f9 3b
       -0.0003180247 -0.00017201922 0.04243831 0.007604563
0000f0 56 83 20 3d 6b 17 8e 3c 40 9b bf b9 ec 82 70 3a
       0.03918775 0.017345151 -0.0003654603 0.00091747823
000100 ad 92 e0 39 0a 9d c1 b8 a1 5c 3f 3c 10 80 11 3c
       0.0004283389 -9.232208e-05 0.011679799 0.00888063
000110 b9 2c 96 bb 2a 89 80 b9 4d 8c ab b8 fc 64 b0 b9
       -0.004582968 -0.00024516258 -8.1800485e-05 -0.00033644575
000120 dd 5e cb 3c ce cf 00 bb 85 33 71 b9 0d 06 d6 39
       0.024825508 -0.0019655111 -0.00023002744 0.0004082177
000130 e1 fc 87 3b c3 aa fa 36 59 57 5a b8 31 33 24 b9
       0.0041500186 7.47046e-06 -5.20566e-05 -0.00015659329
000140 37 c3 31 3d c5 fc 3f b9 64 a1 ed bb db 2d 11 3d
       0.043399062 -0.00018309343 -0.0072519053 0.03544412
000150 df 54 4f b9 7e f1 cd 3c b7 b7 9f bb 46 f1 f6 3b
       -0.00019772675 0.025139567 -0.0048741954 0.0075360863
000160 5a 33 5e b8 ef 28 2a bc 28 53 10 3b 59 2e ec 39
       -5.297675e-05 -0.010385736 0.0022022221 0.0004504796
000170 ad f4 a0 3a 5a c3 a2 3a b7 90 2e 3b fd f9 0c b9
       0.001227995 0.0012417838 0.002663655 -0.00013444568
000180 71 29 ff b8 20 87 15 bd 76 b6 2c 3a c4 65 29 b9
       -0.000121670666 -0.03650582 0.0006588468 -0.00016155007
000190 8f e3 92 bc 56 25 bb b9 c5 80 08 bc 3e 81 4a 3b
       -0.017930774 -0.00035695237 -0.008331482 0.0030899788
0001a0 2d 1d a4 b9 29 f3 f1 3c c9 74 c4 ba 9d f7 37 3b
       -0.00031302255 0.029534893 -0.0014988418 0.0028071173
0001b0 6a ac fc 3c c7 78 59 b9 9c 16 f7 38 6e d2 06 bb
       0.030843932 -0.00020739726 0.00011782089 -0.0020572203
0001c0 7f 76 c6 b9 b9 7e a9 b9 fe 10 2c bd f0 f3 24 37
       -0.0003785379 -0.00032328608 -0.042008393 9.831958e-06
0001d0 32 aa 04 b9 38 78 cb bc d3 9f 47 b8 2d f4 39 3d
       -0.00012651904 -0.024837598 -4.7594145e-05 0.04539888
0001e0 9d 2f dc ba e5 66 32 3a 23 6e 68 39 10 95 ee 3b
       -0.0016798858 0.00068054936 0.00022166273 0.007280953
0001f0 4c 5d 80 b9 86 2f 1e 39 5b 08 1a 39 d5 e3 9b 38
       -0.00024483574 0.00015085758 0.00014689697 7.433413e-05
000200 0e 10 de ba 2b d7 68 38 0c 42 04 bc 21 bb 0b 39
       -0.001694204 5.55135e-05 -0.008072387 0.00013325784
000210 60 c3 38 39 fc 8d be 3b 6b ba 39 3c 9c 34 de 3a
       0.0001762039 0.0058152657 0.011335949 0.0016952935
000220 b3 c3 a9 37 a8 ff 39 38 2c 74 f6 38 0a dd 73 bc
       2.02375e-05 4.4345536e-05 0.00011751833 -0.014884243
000230 d9 76 9a 3c 2f ba a4 38 63 91 ff 39 3c 4c 17 3b
       0.0188555 7.854809e-05 0.00048745712 0.002308621
000240 b7 5e 59 38 e0 0f 12 3a 54 2f 2f 39 87 2b 28 3b
       5.182504e-05 0.00055718236 0.00016706932 0.002566071
000250 55 0b c4 38 52 a5 70 3b 35 c5 83 38 d0 98 ef 3c
       9.348119e-05 0.0036719632 6.2832994e-05 0.029247671
000260 8b e3 2a 39 3c 8a 37 3d e8 69 db 38 51 09 05 39
       0.0001629723 0.044809565 0.0001046246 0.00012687339
000270 19 df f3 38 fb 94 1e bc 63 f2 5c 38 0b dd a2 37
       0.00011628698 -0.009679074 5.2677828e-05 1.9414836e-05
000280 3a 93 8a bb 77 db 27 b9 b6 a1 c0 38 2f 25 b6 39
       -0.0042289766 -0.00016008118 9.1853944e-05 0.0003474145
000290 f3 ea 04 3d 02 19 cd 38 11 a7 fe 3b 30 60 4b 38
       0.032450628 9.77982e-05 0.0077713807 4.8488553e-05
0002a0 ca 86 ad 3c ce f2 1d bc 9e 8b 41 3d 1a d8 6d 38
       0.021182436 -0.009640409 0.04725229 5.6706464e-05
0002b0 8c e3 38 38 41 54 1d ba 4d 27 44 3c fe 18 a6 3b
       4.4080938e-05 -0.00060016295 0.011972261 0.0050688973
0002c0 a8 4b c8 bb 7e 03 cb 3c b6 ea c3 37 d1 53 b7 ba
       -0.0061125346 0.024781939 2.3355107e-05 -0.0013986771
0002d0 d7 0c c2 3b 41 23 58 b9 ef 35 3e bb 2c 2f f8 b8
       0.005921941 -0.00020612498 -0.0029023846 -0.00011834348
0002e0 fd 79 e3 3c a6 5b 4a b9 3c 35 73 b9 36 05 c9 b9
       0.02776813 -0.00019298363 -0.00023194117 -0.0003834159
0002f0 66 53 b8 bb 97 5a 8a bc 28 54 c1 bc 41 61 f2 bc
       -0.0056251762 -0.0168889 -0.0235997 -0.02958739
000300 3f 54 e6 b9 91 2d 64 b9 02 cc 2b 3d 0f 9a 2a bd
       -0.00043931787 -0.00021760749 0.041942604 -0.041650828
000310 c1 48 ba b8 f2 ee 83 b7 c5 cf 41 bd 86 90 9c bc
       -8.8827226e-05 -1.5727685e-05 -0.047317285 -0.019111883
000320 10 95 90 b9 dc a2 b5 b9 d5 7d 05 ba a5 80 ed b9
       -0.0002757688 -0.0003464435 -0.0005092298 -0.0004530001
000330 77 7e d2 b9 c1 b9 cf bc 0b 2a 94 b9 48 80 3d b9
       -0.00040148545 -0.025357129 -0.00028260084 -0.00018072233
000340 71 fc 13 b9 45 b0 37 b8 ba d5 f9 38 35 30 01 b8
       -0.00014113054 -4.3794764e-05 0.00011913055 -3.0800893e-05
000350 02 c7 03 38 99 f1 ff 3c 77 5e 19 bc a2 a7 09 b8
       3.1418174e-05 0.031243132 -0.009360901 -3.2819466e-05
000360 7f c8 18 b8 2a 4f c2 b8 fc dd 8f 39 51 6d 31 3a
       -3.642635e-05 -9.265386e-05 0.00027440477 0.00067683036
000370 1f e9 39 3a 26 13 48 b9 2b 7f 3f bb 91 07 55 3b
       0.00070919277 -0.0001908062 -0.0029220085 0.003250573
000380 08 ca cf b8 e8 7f 40 bd 6b 3c 21 bd 21 19 23 37
       -9.9081604e-05 -0.04699698 -0.03936426 9.721408e-06
000390 bd bb a3 3a f0 8e 14 b9 78 08 be 39 df 62 f9 3b
       0.0012491863 -0.00014167628 0.00036245934 0.0076106633
0003a0 85 5d 17 3d 25 d7 5d b9 e6 00 49 b9 7b 9c 08 bc
       0.03695442 -0.0002115635 -0.00019169188 -0.008338089
0003b0 6f 07 a4 b8 ad d4 8e 3c 70 4d 28 bd 6d 6e 08 bc
       -7.821514e-05 0.017435396 -0.041089475 -0.008327109
0003c0 c0 ee 5c b8 1b 02 f6 b7 6a dc 97 3a bf 4f 33 bd
       -5.267444e-05 -2.9326466e-05 0.0011586074 -0.043777224
0003d0 7a 79 4a bc eb 90 81 3a 33 49 01 b8 f8 c2 5d 3c
       -0.012358064 0.0009885108 -3.082417e-05 0.013535254
0003e0 ec 96 7f bc 77 1f 91 3b bc 94 5a b8 9b 71 e7 b8
       -0.015599947 0.0044287997 -5.211377e-05 -0.00011036099
0003f0 ef 6c e3 39 56 55 24 b7 77 f5 12 b9 38 6e aa 3a
       0.00043377976 -9.795031e-06 -0.00014015088 0.0013002818

feature_gat.conv1.Ws.1.bias f4 [32]
000000 79 45 b8 3a f8 9e cb 3a ad 23 af 3a 3f 17 c1 3a
       0.001405879 0.0015535047 0.0013362073 0.0014731659
000010 4f 16 8d 3a 46 a2 90 3a 0b e6 be 3a 39 bf b0 3a
       0.0010764095 0.0011034689 0.0014564408 0.0013484723
000020 a8 bc 99 3a ec 6c be 3a 3a 56 b9 3a 4a 4c b8 3a
       0.0011729198 0.0014528311 0.0014140077 0.0014060822
000030 92 08 b1 3a 14 05 c3 3a 98 08 b7 3a 90 41 c3 3a
       0.0013506582 0.0014878833 0.0013964353 0.0014896858
000040 52 6c 98 3a 3d 71 c5 3a a6 32 b9 3a fd 52 bd 3a
       0.0011628962 0.0015063655 0.0014129474 0.0014444288
000050 6a fe ad 3a dd b5 96 3a 95 e2 c9 3a a2 8a be 3a
       0.0013274674 0.0011498291 0.001540261 0.0014537165
000060 14 c3 eb 3a 29 ec d4 3a 50 dc b8 3a 08 c4 b2 3a
       0.0017987215 0.0016244698 0.0014103744 0.0013638744
000070 e3 8d b3 3a 24 a1 cf 3a e0 59 c8 3a 3c c4 b3 3a
       0.0013698902 0.001584087 0.0015285574 0.0013715099

feature_gat.conv1.Ws.2.weight f4 [32, 30]
000000 04 db 77 b8 e7 9a 55 b8 5e c2 50 b9 69 bf 7d 39
       -5.9093363e-05 -5.092742e-05 -0.00019908833 0.00024199266
000010 6f 79 0a b8 80 21 78 b8 41 08 74 3a be 80 79 3b
       -3.3014858e-05 -5.9159007e-05 0.0009309091 0.003807112
000020 ca 85 3e b9 22 9f 0a b9 fb 0a 62 bc 61 a2 7b b9
       -0.00018169652 -0.00013219987 -0.013796563 -0.00023997716
000030 c9 53 1b bd cc 81 3e b8 3d 07 40 bc 9f fd 99 3c
       -0.0379217 -4.5420413e-05 -0.011720476 0.018797694
000040 89 d2 09 b8 1a 27 32 3c 59 5d d8 3b 48 52 b8 3a
       -3.285942e-05 0.01087358 0.006602925 0.0014062608
000050 98 64 9a b9 fc 57 21 b9 b2 60 bb b9 82 d5 6c b9
       -0.00029448117 -0.00015386933 -0.00035739463 -0.00022586252
000060 6b 31 3f bb 32 5d 1e 37 4f 8b 9d b8 0d e0 1b bd
       -0.0029173743 9.439233e-06 -7.5122916e-05 -0.03805547
000070 bd c6 1e bb 3a 2a b0 bc b4 e6 1c b9 3e 41 6a b9
       -0.0024227344 -0.02150451 -0.00014963263 -0.00022340284
000080 b2 64 08 b9 91 8c 2b bd 7f 1d 74 b9 a0 d3 c9 b9
       -0.00013007483 -0.0418821 -0.00023280641 -0.0003849538
000090 ae c1 03 b9 69 1f 7f bb 99 59 ae 3c b6 0d bd b9
       -0.00012565285 -0.0038928634 0.021282958 -0.00036059105
0000a0 48 0e 8c b9 fb 03 58 3c 33 7a 64 bc 32 1a 42 3a
       -0.0002671352 0.013184543 -0.01394515 0.0007404416
0000b0 57 3b 0b ba 4a 8b 9b b9 7f 72 ef b8 e0 bf 3d 3c
       -0.00053112715 -0.00029667682 -0.00011417735 0.011581391
0000c0 40 a4 5b b9 d3 a4 73 3b eb 34 93 b9 3b af a3 3c
       -0.00020946655 0.00371771 -0.00028077452 0.019981017
0000d0 fe e8 cd b9 8d ed c1 3a e5 f6 c2 bb 6f 86 26 b9
       -0.0003927424 0.0014795527 -0.0059498423 -0.00015881074
0000e0 2b df ff 3b 7d 52 28 3b fc ec 0e b9 53 f4 ee bb
       0.007808586 0.0025683932 -0.00013630459 -0.0072923093
0000f0 7d 2a 5e b9 6c af 35 b9 6b b5 24 b9 2c 94 14 3d
       -0.00021187398 -0.00017326855 -0.00015707842 0.03627412
000100 6f ec 0f b9 e6 7c e9 bc 7c df 52 39 1e 49 d4 b9
       -0.00013725621 -0.028501939 0.00020110415 -0.00040490268
000110 23 58 ea b9 43 fd 1e bd f7 02 4a b9 cf 33 14 ba
       -0.00044697625 -0.038815748 -0.00019265326 -0.0005653472
000120 31 f9 16 ba 41 41 fa 3b ee b7 6d 3b a1 e6 64 b9
       -0.00057591783 0.0076371734 0.003627296 -0.0002182969
000130 e0 be df bc fb f0 26 38 f5 dc cd 3b c5 66 ac b9
       -0.027312696 3.9801915e-05 0.0062824436 -0.00032882966
000140 57 d4 d8 ba 78 3f 37 bd 7e 9e 17 ba 03 17 8f bc
       -0.0016542774 -0.044738263 -0.000578381 -0.017467028
000150 34 4f c7 b9 36 a0 bd b8 d6 9a f3 3a c8 c2 43 b9
       -0.0003801525 -9.042064e-05 0.0018585573 -0.00018669211
000160 5e 87 11 b9 d4 13 9c b8 ec be 47 3d d0 77 a6 39
       -0.00013878706 -7.442353e-05 0.04876606 0.00031751255
000170 78 8d f7 38 7a a6 fb 38 e7 80 55 3c 86 c7 48 3a
       0.000118042284 0.00011999621 0.013031221 0.0007659126
000180 0f be 07 3d 38 04 ec bb 03 57 4e b8 0b 14 23 3d
       0.03314024 -0.0072026514 -4.9195263e-05 0.039814036
000190 3b b0 93 3c e9 0c b6 bc 5c 78 0a bc 1c a4 29 3d
       0.01802837 -0.022222953 -0.0084515475 0.041416273
0001a0 54 8e 95 3b 7e 0f 46 3d ed ee 42 b7 78 e4 63 38
       0.004564086 0.04835462 -1.161893e-05 5.4333796e-05
0001b0 78 99 8d bc 53 72 a3 3b d3 c9 0b 3c 0c b5 35 b7
       -0.017285094 0.0049879937 0.008532005 -1.0830594e-05
0001c0 d1 c6 8c b8 c5 47 3c bd d1 82 d5 3c 02 97 bd 38
       -6.712753e-05 -0.045966882 0.026063355 9.04035e-05
0001d0 49 84 c6 3c a7 cf 94 38 af 5a 94 37 4a 44 f6 3c
       0.024233 7.095868e-05 1.7685203e-05 0.03006186
0001e0 c4 c7 33 37 75 e6 f4 37 d3 4d 0f 39 c2 fd a6 39
       1.0715743e-05 2.9194382e-05 0.00013666535 0.00031851052
0001f0 30 af 86 3b 60 a1 21 bc 52 0b 46 38 56 5a 89 bb
       0.0041102394 -0.009865135 4.721742e-05 -0.004191677
000200 85 af 1e b8 93 71 44 b8 aa 6f 70 3a a7 32 e9 b8
       -3.78336e-05 -4.6835816e-05 0.00091719127 -0.000111197405
000210 87 82 ea b8 ea 10 ca 35 f3 83 09 bd 2e 89 3b 38
       -0.00011182302 1.5055095e-06 -0.033573102 4.4712033e-05
000220 e5 45 dd b6 06 58 7e 38 f6 35 e8 bb 45 e4 90 ba
       -6.59445e-06 6.0640297e-05 -0.007086511 -0.0011054358
000230 24 3a 19 37 2f a3 e6 39 fb 0c 8a bc 39 b6 dc b8
       9.133048e-06 0.000439906 -0.016851893 -0.00010524359
000240 e0 b7 97 3c 2f f3 19 bd 26 26 58 38 9b 28 85 38
       0.018520296 -0.037585434 5.153394e-05 6.3494976e-05
000250 df fb ae b5 82 43 b8 b7 3c 39 20 bd 65 c0 d7 bc
       -1.3037314e-06 -2.1965945e-05 -0.039117083 -0.026336858
000260 ab e9 42 b9 a7 f5 12 bb 5c 9b 4a b9 a8 1d 85 b9
       -0.0001858833 -0.0022424252 -0.00019322097 -0.00025389832
000270 fc fa a3 b9 69 4c e8 b9 4f 06 01 bc 8b 97 67 bc
       -0.0003127678 -0.00044307418 -0.007875039 -0.014135252
000280 c5 ae e0 bb 1d fa 32 ba b8 e3 3d 3d 77 69 bd b9
       -0.0068567717 -0.0006827431 0.046359748 -0.00036127467
000290 fc f6 20 ba 56 a6 19 3c 08 1f b7 b8 47 23 f6 bc
       -0.0006140319 0.0093780365 -8.7319e-05 -0.030046118
0002a0 60 94 b8 3b d7 c4 b7 3c 93 c5 a6 bc 28 fa e9 b9
       0.005632922 0.022432728 -0.020357883 -0.00044627604
0002b0 ae 96 27 ba 94 aa e7 bc a8 82 eb b9 c7 50 fa b8
       -0.00063929975 -0.02827958 -0.0004492004 -0.00011935975
0002c0 70 2f b8 b9 e4 11 96 bc 41 30 2c b9 ae 1c 2e 3b
       -0.00035130559 -0.018319078 -0.00016421174 0.0026567387
0002d0 d1 f4 d9 bb 42 25 2a b9 c9 05 cf 39 c1 d7 41 b9
       -0.006651499 -0.00016226343 0.00039486427 -0.00018486289
0002e0 62 96 a2 3c 5e 8f f6 bb 15 ce 01 3d 0e 8a 8d b9
       0.019847099 -0.007524415 0.031690676 -0.00026996474
0002f0 dd 5e c2 b9 2c 5f b6 3c ea c3 3d bd 0f 26 a5 ba
       -0.00037073242 0.022262178 -0.046329416 -0.0012599843
000300 59 21 fa b9 03 90 60 b9 49 ad 75 bb 53 aa 05 3d
       -0.00047708562 -0.00021415953 -0.003748732 0.032633137
000310 0e 72 9a b8 33 55 5f bb d6 3c 44 3c 50 21 41 3d
       -7.3645366e-05 -0.0034077882 0.011977395 0.04715091
000320 74 d2 06 3d ff f7 99 b9 84 bd 4d 3c 81 ee d0 b9
       0.032915547 -0.00029367206 0.012557391 -0.0003985055
000330 48 3e d4 3c 4e a2 44 b8 30 0d 5e b9 6c f9 e3 bc
       0.025908604 -4.68812e-05 -0.00021176483 -0.027828895
000340 38 3e 45 3d 11 b7 98 bc 0d 54 09 ba f5 1a 36 bd
       0.04815504 -0.01864198 -0.000523866 -0.044459302
000350 94 0c 17 bd 93 4f 4e 3c 1a d9 a5 38 19 19 c3 38
       -0.03687723 0.012592214 7.9082514e-05 9.3029994e-05
000360 4b 05 92 38 71 41 a3 ba 14 a5 9c 3b f0 f7 04 b8
       6.9628084e-05 -0.0012455416 0.004780421 -3.1702162e-05
000370 45 08 af 36 62 78 61 b8 0c 02 aa bc ad 6f df 38
       5.216369e-06 -5.3756296e-05 -0.02075293 0.0001065427
000380 67 c8 32 b8 f6 aa 0e bd 58 44 3c 38 a2 35 ba 38
       -4.2625146e-05 -0.03483101 4.4886343e-05 8.879161e-05
000390 f1 45 af 39 75 6f 6d 37 dc fa d8 39 01 93 c9 3b
       0.00033430711 1.4152251e-05 0.00041385635 0.0061515574
0003a0 91 a0 21 33 98 ee 7f 3a 7d 13 ec b7 ed df 8e 39
       3.7631768e-08 0.0009763031 -2.8142467e-05 0.00027251188
0003b0 e9 9e ad 3b 10 ef b1 38 de b2 3f 38 28 3e b6 bc
       0.0052984846 8.4845466e-05 4.570453e-05 -0.022246435
0003c0 94 90 88 b9 f3 22 a0 b9 c9 74 87 3c be 77 31 b9
       -0.0002604766 -0.00030543617 0.01653518 -0.00016924643
0003d0 3b 76 87 b9 f3 de 8f bb 4d 17 dd 3a 71 18 83 3a
       -0.00025837295 -0.0043905913 0.0016867906 0.0010001791
0003e0 72 da fa b9 79 f7 85 bc c6 f1 89 b9 23 e5 33 ba
       -0.0004784647 -0.016353356 -0.00026310812 -0.0006862452
0003f0 c4 b0 2c ba d0 ed 0a b6 3c 5a eb 3a 05 b0 ae bc
       -0.00065876194 -2.0702028e-06 0.0017955969 -0.021324167

feature_gat.conv1.Ws.2.bias f4 [32]
000000 d2 f0 b4 3a 92 b9 ca 3a 3f 21 cc 3a a8 a8 ad 3a
       0.001380468 0.0015466681 0.0015573873 0.0013249116
000010 d5 18 9f 3a 42 2c d2 3a 7a 27 c2 3a 30 a8 a8 3a
       0.0012138138 0.0016034918 0.001481279 0.0012867507
000020 5e f5 d3 3a a8 a9 b9 3a 1a a9 c6 3a 19 85 c0 3a
       0.0016171148 0.0014164941 0.0015156597 0.0014688104
000030 ba 02 ab 3a 99 85 b8 3a 3c ed c6 3a 5b 40 bd 3a
       0.0013047077 0.0014077901 0.0015176903 0.0014438735
000040 5d 36 b5 3a 84 5f c2 3a 6f 7d ab 3a 12 f1 c4 3a
       0.0013825406 0.0014829491 0.0013083647 0.0015025458
000050 6d c2 df 3a f9 a9 c8 3a c9 06 cc 3a aa b7 c2 3a
       0.0017071493 0.0015309445 0.0015565987 0.0014855762
000060 bc 2c ae 3a b1 ea b6 3a d9 cf a8 3a 83 40 b4 3a
       0.0013288478 0.0013955442 0.0012879326 0.0013752136
000070 d2 9c bd 3a ab fe bf 3a 17 b0 d4 3a 78 c7 bc 3a
       0.0014466292 0.001464804 0.0016226795 0.0014402708

feature_gat.conv1.Ws.3.weight f4 [32, 30]
000000 b0 22 3f 3a 03 03 fb bb d5 04 5b bb c9 db b4 b8
       0.00072912406 -0.007660271 -0.0033419628 -8.624007e-05
000010 d9 06 37 b9 79 6c 8d 3c 20 c3 cd 39 f8 b9 b0 b9
       -0.00017454791 0.017263638 0.00039246026 -0.00033707893
000020 af cb 94 3c f0 ed 8e b9 7d 1d 9f 3b 57 df 70 b9
       0.01816353 -0.00027261628 0.00485581 -0.00022971384
000030 d6 94 86 b9 df bc 6f b9 09 90 cf 3b e3 02 45 b9
       -0.00025669363 -0.00022863176 0.006334309 -0.0001878846
000040 4f 08 02 b9 12 a3 1a 3c 9d b2 9b bc 90 ca 5e 3c
       -0.00012400861 0.009438293 -0.019006068 0.013598099
000050 76 52 09 3b d2 17 ac b9 63 89 30 bc 78 3b d8 b9
       0.0020953692 -0.00032824144 -0.010774943 -0.00041243038
000060 65 1e b0 b9 e5 1a 1d 3c aa 20 a1 3c 8d 34 1b b9
       -0.00033591982 0.009588932 0.019668896 -0.00014801529
000070 80 ac 1f b9 34 b6 aa b7 31 47 e6 3c 2c 41 a5 39
       -0.00015227683 -2.0350424e-05 0.028110119 0.0003151981
000080 73 fe ab 39 4c e1 88 bb f0 b0 0e 3d f0 aa a1 39
       0.0003280524 -0.004177248 0.03483671 0.0003083567
000090 0c 54 93 ba 19 d3 69 3a 61 12 8d 39 28 14 49 39
       -0.0011240258 0.00089197006 0.0002690731 0.00019176363
0000a0 4c 1e d6 39 f7 b3 a2 39 a4 f9 c9 39 16 13 85 3c
       0.00040839834 0.00031033132 0.00038523704 0.016244452
0000b0 41 46 07 3c 43 5d 7e 39 bf 21 49 38 af 1b 00 bb
       0.008256496 0.0002425807 4.7953563e-05 -0.001954775
0000c0 dd ed 73 3c e5 e6 09 3a 31 95 58 39 cf d8 8a 39
       0.014888254 0.0005260541 0.00020654943 0.00026482946
0000d0 d4 5f b0 39 7c c7 63 39 09 2f dd 3b fa bb 13 bc
       0.00033640733 0.0002172272 0.006749992 -0.009016985
0000e0 82 59 9e 3b 4e 69 7e 39 9e 4c b5 bc f6 0e 33 3d
       0.0048324475 0.00024262557 -0.02213126 0.04371544
0000f0 c5 f9 89 ba a8 9f 25 bd 2e ee 08 b8 c8 ce 38 3a
       -0.0010526708 -0.040435463 -3.264675e-05 0.0007049856
000100 74 8c 03 b9 5f b3 e6 ba 99 71 40 3c 4a 0f 7d b9
       -0.00012545456 -0.0017601064 0.011745834 -0.00024133656
000110 3f e6 0a 3b 09 c2 57 b9 a1 97 94 3c aa 4b 3c bb
       0.0021194366 -0.00020576282 0.018138709 -0.0028731623
000120 b4 bf 24 bb 82 b3 1f bc 63 7b ab b9 78 3d fd b8
       -0.0025138678 -0.009747388 -0.00032707592 -0.000120754295
000130 91 2a 15 b8 9f 6f 40 3c 7a 1c 86 b8 b2 5c 6b b9
       -3.556401e-05 0.011745363 -6.394922e-05 -0.00022445878
000140 1a d5 ff 3c 7c 1f 7a b9 10 35 11 3a 1d 0d 64 37
       0.031229544 -0.00023853587 0.0005539218 1.3592912e-05
000150 2b d3 42 bd b3 48 3e b8 95 83 1e b9 7b 35 ba bb
       -0.047564667 -4.5367236e-05 -0.00015117072 -0.005682645
000160 9e 09 37 3b ff db 35 bd 2b a6 68 b9 e4 a0 f5 3b
       0.0027929316 -0.044399258 -0.00022187147 0.0074959863
000170 c5 bb 86 b9 5a fe 07 3d ae 22 0f 3d d6 d4 97 b9
       -0.0002569837 0.033201553 0.034945183 -0.0002895954
000180 37 9f aa bc f8 d4 04 ba fb ba f0 b9 03 5e b9 b9
       -0.020827873 -0.0005067135 -0.00045915678 -0.00035355994
000190 6c 36 45 3b cd 39 15 ba 0a 94 12 ba ea 15 a8 b9
       0.0030092252 -0.0005692512 -0.00055915175 -0.00032059784
0001a0 b3 6c 1c ba 24 d0 b9 b9 ff 09 93 b8 17 98 c2 37
       -0.0005967125 -0.00035441027 -7.011368e-05 2.3197425e-05
0001b0 fe 8b 04 3a 5e 81 c1 b9 74 59 6c 3c e8 7d 75 bc
       0.0005056261 -0.00036908215 0.014425624 -0.014983632
0001c0 72 76 4c bb e6 aa 10 ba d9 52 61 bc 08 84 88 bb
       -0.0031198529 -0.000551863 -0.013752663 -0.00416613
0001d0 de 02 85 b9 0b 38 79 b9 cd 3c 3f b9 d1 04 56 38
       -0.00025369873 -0.00023767368 -0.0001823783 5.102606e-05
0001e0 76 ef 25 3b ea c0 03 b9 91 6e 26 3d 3a f4 6e 3c
       0.0025319732 -0.00012565 0.040632788 0.014584595
0001f0 05 f3 72 3b e0 85 e2 b7 94 b8 da 3c 3e 40 0a b9
       0.003707112 -2.700364e-05 0.026699342 -0.00013184638
000200 47 dd 09 ba 6e 58 1c b9 13 2c d7 b8 1a 6f 2b 3b
       -0.0005259108 -0.00014910262 -0.000102602084 0.002615875
000210 35 29 94 39 38 e9 b7 3b df 52 7d b9 e4 41 b9 b8
       0.0002825946 0.0056125186 -0.00024158832 -8.8337605e-05
000220 a6 d7 28 b7 fc 42 85 3c 7f a8 79 3c 0c 5a 4b 39
       -1.006379e-05 0.016267292 0.0152379265 0.00019393134
000230 0f 9e d0 b8 65 66 23 b9 ab 9f 8a b9 0d b2 f4 b9
       -9.9476536e-05 -0.00015583036 -0.00026440373 -0.00046671965
000240 e6 f8 36 b9 53 b9 4a 3b 69 c4 3a ba 78 13 12 b8
       -0.00017449594 0.0030933216 -0.00071246043 -3.4827244e-05
000250 59 96 de 3b fd ee 84 37 50 7d d4 3b 34 d6 5a 37
       0.006792825 1.5846914e-05 0.006484665 1.3043686e-05
000260 da 86 30 3c 65 d8 8e 38 73 35 04 38 44 03 bf b6
       0.010774339 6.811394e-05 3.152103e-05 -5.6926237e-06
000270 69 03 5f 36 fc 5d 4b ba ae ac 74 bb a9 0c 3c bc
       3.3231574e-06 -0.000775784 -0.003733437 -0.011477628
000280 d5 8d 13 3d 73 17 c3 b8 0f 49 4c ba 53 57 ec 39
       0.036023933 -9.302692e-05 -0.0007792869 0.0004507849
000290 60 f8 f8 3c d1 98 49 35 e8 9f 89 b9 3c d8 f7 ba
       0.030391872 7.510071e-07 -0.00026249816 -0.0018909047
0002a0 58 4d f6 38 ad bb cd 37 6d 3c 35 3b 50 2c 0b bd
       0.000117446005 2.4525298e-05 0.0027654425 -0.033977807
0002b0 b6 3d 52 3a 52 52 f8 bb 91 00 27 3d 77 32 2b 38
       0.000802006 -0.0075781727 0.040772025 4.0816576e-05
0002c0 11 a8 e6 36 d8 ec f1 36 d8 96 c0 b6 9d c9 c8 3c
       6.8740997e-06 7.209932e-06 -5.7396064e-06 0.0245102
0002d0 52 8d cc 3c 4c 2e 4f 3a cf d0 96 b8 d0 50 18 3d
       0.02496973 0.0007903322 -7.191451e-05 0.037186444
0002e0 44 48 f1 b8 78 62 06 ba 7e d4 e0 bb 66 c2 86 b9
       -0.00011505236 -0.00051263673 -0.0068612685 -0.0002570331
0002f0 e2 5f 91 b9 0e 76 db bc 9f eb 44 bd e6 ef ce b9
       -0.00027727993 -0.026789691 -0.04807627 -0.0003947012
000300 69 0d bf b9 8d 4e 35 b9 19 c7 d3 b9 24 84 0b 3c
       -0.0003644035 -0.00017290768 -0.00040393395 0.0085153915
000310 34 9b 18 bd 25 df b0 3c 3c 0e ef b8 e6 80 75 b9
       -0.03725739 0.021590779 -0.000113990594 -0.00023413039
000320 2b 12 11 bd 4b 58 86 b9 ad e8 df b9 20 d3 b5 b9
       -0.035417717 -0.00025624255 -0.00042707231 -0.0003468031
000330 fb 73 04 3d c1 dc 70 ba f7 67 2e bd d0 2f f1 b8
       0.03233717 -0.00091881683 -0.042579617 -0.00011500681
000340 f8 da d1 39 65 f1 be 3b 77 e9 bb 39 22 3c c5 3c
       0.0004002673 0.0058271163 0.00035841364 0.024076525
000350 01 18 f5 b8 e2 38 c5 37 96 a2 17 b9 0f 5b 4a b9
       -0.000116869815 2.3510718e-05 -0.0001446105 -0.00019298143
000360 2b f9 83 b9 03 f6 67 b9 37 9b d6 3c a6 ba 50 b9
       -0.00025171912 -0.00022121523 0.02619706 -0.00019905958
000370 78 8c 39 3c 4d dc 4e 3c 6f 32 d4 b9 77 d7 39 bd
       0.011324994 0.012625766 -0.00040473367 -0.0453715
000380 53 ff cb b9 11 c3 18 b9 a5 ea 9b bb 8e bf a4 bb
       -0.0003890941 -0.00014568518 -0.0047581964 -0.005027718
000390 75 1d 31 b9 1f c4 c4 ba f0 ac cf bc fa 5e 3d bb
       -0.00016891009 -0.0015012062 -0.025351018 -0.0028895722
0003a0 64 a3 09 bb bd 2a 0b bb 80 53 93 b9 db 3e 40 b6
       -0.002100193 -0.002123519 -0.00028100237 -2.8646816e-06
0003b0 df 67 bc bc 8a 08 1d 3b a5 9a e5 b8 c1 f2 c6 b7
       -0.022998748 0.0023961389 -0.00010948376 -2.371648e-05
0003c0 b6 be 91 b9 d2 86 2e bd 61 bc 45 bc 16 4c c3 b7
       -0.00027798646 -0.042609043 -0.012068839 -2.3281242e-05
0003d0 cf 44 d6 3b 22 3a 19 bd bf cf cd b8 93 08 62 bc
       0.0065389643 -0.037408955 -9.8138575e-05 -0.01379599
0003e0 5f d7 3a b9 1e 60 ec bb a7 34 84 bc af dc b7 3b
       -0.00017818574 -0.0072136065 -0.016138388 0.0056110243
0003f0 15 42 30 3d 50 f2 e0 37 73 28 f8 39 c1 dc 40 bd
       0.04303177 2.6815716e-05 0.00047332383 -0.047085527

feature_gat.conv1.Ws.3.bias f4 [32]
000000 bf 60 bb 3a c3 00 67 3a 11 c7 c5 3a e1 8a d6 3a
       0.00142958 0.0008812064 0.0015089234 0.0016368293
000010 30 ab bb 3a 2f ea a1 3a 0a d2 c2 3a 2b 5a be 3a
       0.0014317986 0.0012353117 0.0014863622 0.0014522722
000020 54 3a bc 3a d2 17 bf 3a 04 6e ae 3a 14 7f c5 3a
       0.0014360645 0.0014579243 0.0013307934 0.001506778
000030 94 a6 ca 3a 98 bc ad 3a 55 0a d5 3a dc 16 c2 3a
       0.0015461021 0.0013255058 0.001625369 0.0014807838
000040 5d 8e b3 3a f3 90 a2 3a 73 25 b1 3a 35 a8 b4 3a
       0.0013699044 0.0012402817 0.0013515189 0.001378304
000050 57 4e cd 3a 7f 48 ca 3a 6c 4b c5 3a 5c f4 dc 3a
       0.0015663606 0.0015432982 0.0015052385 0.0016857493
000060 4b da b4 3a 61 8c af 3a 32 d7 a8 3a d3 b9 b9 3a
       0.0013797967 0.0013393277 0.0012881516 0.001416976
000070 c9 dc ae 3a 70 c0 c8 3a d4 4d b6 3a 4b 09 b7 3a
       0.0013340946 0.001531614 0.0013908693 0.0013964562

feature_gat.conv1.Ws.4.weight f4 [32, 30]
000000 42 a5 a6 bc fb 69 47 bd 88 c3 bb 3b c5 6f 98 3a
       -0.020342473 -0.048685055 0.0057300963 0.001162999
000010 9d bc ff 38 d5 e3 06 39 57 3e ca 38 a5 22 29 3d
       0.000121944795 0.0001286411 9.643722e-05 0.041292805
000020 ee 68 02 37 c7 16 94 38 f2 52 13 38 da 49 08 3c
       7.773035e-06 7.0614326e-05 3.512478e-05 0.008318389
000030 a9 3e ba 39 6a 8d 83 39 9d 2d 34 b7 0a 6f be 38
       0.0003552337 0.0002509163 -1.0739456e-05 9.080589e-05
000040 64 48 a9 38 90 7c 26 3d d0 aa 08 39 3d 60 85 37
       8.072032e-05 0.040646136 0.00013033603 1.589965e-05
000050 47 51 be 38 60 bb 1e 3d 12 cf f2 3c 06 1a f5 bc
       9.075045e-05 0.038752913 0.029639754 -0.029919636
000060 d7 d0 18 b9 a3 5c ef bb 71 fd fb 38 76 a3 25 39
       -0.00014573649 -0.0073047443 0.0001201582 0.0001579652
000070 24 81 88 38 02 fe 91 3a 25 50 1a b9 2a d9 4d b9
       6.50904e-05 0.0011138322 -0.0001471644 -0.00019631223
000080 a1 34 c7 b8 97 f5 47 b8 84 64 d5 b8 22 9a 0b 3c
       -9.498862e-05 -4.767402e-05 -0.00010175354 0.008520635
000090 52 34 81 b9 b8 3a 8b b9 e4 6a 9b b9 fe 0d 67 b9
       -0.0002464378 -0.00026555895 -0.00029643544 -0.00022035089
0000a0 61 29 ce 3c c0 e8 67 3a ec 5a de b9 0f 92 9d b9
       0.025166215 0.0008846633 -0.00042410882 -0.00030054196
0000b0 e6 92 d9 b9 b6 82 43 b9 c4 3c 4d 3c 9a bb da 38
       -0.00041498913 -0.00018645343 0.012526695 0.000104299936
0000c0 f5 96 e4 bc d4 fb ae b9 9b e8 60 b9 c5 06 a2 b9
       -0.027904013 -0.00033375493 -0.00021448957 -0.00030904092
0000d0 fd 32 03 ba 48 02 00 3a 3a c5 82 bc bd ee 08 bd
       -0.0005004851 0.00048831524 -0.015963186 -0.033430804
0000e0 22 fb 21 3c 44 1d 88 ba e4 a9 05 b9 cc b4 3b 3d
       0.009886535 -0.0010384698 -0.00012747158 0.04582672
0000f0 3d e8 6a b7 7c f6 d9 bb ee 10 d4 bc d8 89 84 b8
       -1.4001559e-05 -0.0066516977 -0.025886979 -6.319926e-05
000100 25 24 f4 ba 8f e9 5b bc 85 ac cb 37 22 9f 32 b8
       -0.0018626495 -0.013422384 2.4279821e-05 -4.258671e-05
000110 e0 0f a9 bb 5d 0d 21 bb 6a db 83 38 94 30 2e ba
       -0.005159363 -0.0024574616 6.287436e-05 -0.0006644812
000120 d2 15 67 bc cf 9f 79 38 e8 1c 75 b8 5f 60 3c bd
       -0.014104323 5.951506e-05 -5.8439473e-05 -0.045990344
000130 a7 b0 a7 bc 79 c4 88 ba b6 4b a2 bc 0a f0 85 b8
       -0.020469977 -0.001043453 -0.019811492 -6.386645e-05
000140 e7 cc b6 37 8c fc 82 3c ca f7 45 bc 70 f7 28 b8
       2.1791506e-05 0.015989564 -0.012083003 -4.0284765e-05
000150 47 8c d6 b8 c4 65 db 38 ef a9 aa 36 c4 56 34 37
       -0.00010230444 0.00010461689 5.0861777e-06 1.0749038e-05
000160 b1 12 8e 37 9f dd 3b 3d b3 8f 0d bd 10 f1 01 38
       1.6936423e-05 0.04586565 -0.03456087 3.0980504e-05
000170 de d5 00 39 48 27 ba 38 d2 b1 93 3a c2 97 3f 38
       0.00012286703 8.876488e-05 0.0011268205 4.5679284e-05
000180 17 6f e0 bc 8e d8 1c 3d 78 09 80 b8 b7 0e 3c b8
       -0.027396722 0.03829246 -6.105279e-05 -4.4836397e-05
000190 cf 0b a1 b4 ec 81 63 b8 57 63 3a b8 29 7f 28 38
       -2.999718e-07 -5.4242017e-05 -4.4438373e-05 4.017275e-05
0001a0 3a 4d 30 bc be 4f e8 3b 4d 80 25 3c cd fe 94 38
       -0.0107606 0.007089584 0.01010139 7.10465e-05
0001b0 92 72 21 38 19 aa 70 bb 00 d6 b9 bb a8 5c 40 b6
       3.8492093e-05 -0.003672248 -0.0056712627 -2.8664163e-06
0001c0 fa 5b bb 3b db 52 1d b8 8d 7a 32 3d b2 2d 63 38
       0.0057177516 -3.7508882e-05 0.043573905 5.4163575e-05
0001d0 c2 ce 47 3b bf 4d ea 37 db 00 8b ba de 05 1d 39
       0.0030488227 2.7931177e-05 -0.0010605113 0.00014974872
0001e0 6f 21 3a b9 82 7f cd 3c 82 22 12 b9 da 76 8d 3b
       -0.00017750797 0.025085215 -0.000139365 0.0043171467
0001f0 2d 97 a2 3c d3 74 63 b9 6e 94 eb 3b 5c af 60 ba
       0.019847477 -0.00021691927 0.007189325 -0.00085710525
000200 60 7c b7 b9 04 06 53 3b da bf 06 b9 12 77 70 3c
       -0.00034997147 0.003219963 -0.00012850706 0.014676826
000210 4b 99 34 bc b4 4a 1a bc d3 3e ec ba da b5 5e b9
       -0.011022876 -0.009417225 -0.0018024094 -0.00021239315
000220 e0 d7 0b 3c 84 be 15 36 25 ef 41 b9 33 5b 3c bc
       0.008535355 2.2313625e-06 -0.00018495003 -0.011496353
000230 e9 59 94 b9 62 c1 9d 3a eb 29 11 bc 90 57 a0 ba
       -0.00028295748 0.0012035782 -0.008860092 -0.0012233127
000240 a9 85 d3 b9 87 38 8d b9 8d fc e7 3c 81 a7 42 b9
       -0.0004034464 -0.00026935732 0.028318668 -0.00018563682
000250 5b 66 dc 38 59 86 b5 b7 aa 12 1c b8 3e 51 2f 3d
       0.00010509483 -2.1639442e-05 -3.721068e-05 0.042802088
000260 f8 38 17 39 3f c9 11 38 04 af 99 ba 96 1b ef bb
       0.00014421705 3.475812e-05 -0.0011725132 -0.0072969897
000270 d6 7f d7 3c f7 40 07 b8 c0 e4 53 bc a0 17 aa b8
       0.026306074 -3.224701e-05 -0.012932956 -8.110632e-05
000280 8c db 16 3d c4 05 eb bc 4b a6 44 b9 bb 55 32 b8
       0.03683047 -0.028689273 -0.00018753966 -4.251835e-05
000290 a7 e5 8c 3c 2d 80 c9 38 dd 20 87 38 32 54 5e 38
       0.01719935 9.6083015e-05 6.443423e-05 5.3007338e-05
0002a0 49 a3 2c bc 9c f3 bb b8 a6 69 79 bc 02 41 0f 3d
       -0.010536977 -8.962231e-05 -0.015222942 0.034974106
0002b0 ba 7a 44 b9 97 59 59 b9 31 5f f2 3a 4a 13 65 ba
       -0.00018737736 -0.00020728107 0.0018491504 -0.0008738531
0002c0 dd 2c 2d 3c 8f 41 92 37 84 62 8a bc 03 c6 c4 37
       0.010569778 1.7435084e-05 -0.016892679 2.3457227e-05
0002d0 a9 5f b7 bb c7 5e 64 b9 0a f3 0e b9 85 b4 44 3c
       -0.0055961204 -0.00021779082 -0.00013632714 0.01200593
0002e0 66 ab 16 bd 47 b7 4b b9 d2 67 96 b9 bb ce a4 b9
       -0.036784552 -0.00019427865 -0.00028687582 -0.00031434544
0002f0 1d cd 07 bd 26 09 75 b9 74 c5 11 3c 95 6b 07 bd
       -0.033154596 -0.00023368429 0.008897174 -0.033061583
000300 df 30 08 ba ae eb 3e 3c 1c 4a 65 bc 13 2b 94 38
       -0.00051952706 0.01165287 -0.01399472 7.065213e-05
000310 f7 d2 38 b8 f1 5b a7 b6 3b a5 0b b9 be f9 1e 3c
       -4.4065495e-05 -4.987691e-06 -0.00013317626 0.009703098
000320 10 0c 7c b9 da c6 95 3b 64 e5 f6 bb 91 44 0b b9
       -0.00024037086 0.004570824 -0.0075346697 -0.00013281616
000330 16 23 0c 3d 21 de c6 b8 89 71 b2 3c 96 a8 26 bc
       0.034213148 -9.4827505e-05 0.021782653 -0.01017203
000340 6a 6c 01 b9 81 57 14 b8 77 b2 05 b9 d5 df 98 bb
       -0.00012342786 -3.5367444e-05 -0.00012750352 -0.0046653547
000350 3f 2a e7 b8 4f 40 d7 3c 8f ae 7c 39 45 6b 1b b9
       -0.00011022807 0.026275782 0.00024097621 -0.00014821913
000360 e1 2c 2d b9 ca aa 88 b9 b9 aa 98 b9 d1 5e 6a 3a
       -0.00016515284 -0.0002606719 -0.00029118898 0.00089405203
000370 19 21 15 3d fd a0 b4 ba e4 5a db b9 c9 3c 28 b9
       0.036408518 -0.0013780888 -0.00041838654 -0.00016044373
000380 c7 cf 43 3d cd 15 16 b9 32 0a 0f b8 31 dd 74 38
       0.047805574 -0.00014313236 -3.4103352e-05 5.8380134e-05
000390 8d b8 1d b9 17 c9 33 3a 93 70 4e b9 0e 91 1a bb
       -0.00015041437 0.0006858273 -0.00019687628 -0.0023584994
0003a0 d1 93 a0 bc 4a 27 c1 b9 ea 9b 9d b9 2c 43 66 b7
       -0.019601734 -0.000368411 -0.0003006154 -1.3724708e-05
0003b0 88 38 8c 3c 28 48 24 b9 1a 5c 33 3d fc c3 3a b7
       0.0171168 -0.00015667139 0.043789007 -1.1132095e-05
0003c0 19 56 6b ba 7d 43 92 b9 70 1e 69 b9 76 49 fd b8
       -0.0008977368 -0.00027897573 -0.0002223195 -0.00012077663
0003d0 5b 84 48 b9 8a 25 9c b9 b8 48 9b b9 31 3e 46 bb
       -0.00019122793 -0.00029782607 -0.00029618083 -0.0030249471
0003e0 9a e5 7d b9 c3 51 12 3d f6 d2 1b ba e4 44 10 ba
       -0.00024213493 0.035722505 -0.00059442164 -0.00055034296
0003f0 49 ac 12 ba 24 ba d7 bb dd 66 0f 3b b7 52 0b 3d
       -0.00055951305 -0.006583469 0.002188138 0.03401443

feature_gat.conv1.Ws.4.bias f4 [32]
000000 f7 70 9e 3a 1c 52 c2 3a 63 c9 9f 3a 56 a4 a5 3a
       0.001208811 0.0014825496 0.0012190755 0.0012637477
000010 04 fe cc 3a 42 97 ad 3a f0 1f c9 3a 58 5e ca 3a
       0.0015639667 0.0013243931 0.0015344601 0.0015439494
000020 57 34 d7 3a 4c df a9 3a 99 35 d0 3a 3b 06 b9 3a
       0.0016418797 0.0012960224 0.0015885114 0.0014116237
000030 33 53 9d 3a 0c 5b bd 3a 32 e0 af 3a b2 b3 bc 3a
       0.0012002945 0.001444669 0.0013418256 0.0014396815
000040 b5 26 b8 3a eb 0b c2 3a 2b ba bc 3a 9c 3e 97 3a
       0.0014049622 0.0014804577 0.0014398744 0.0011539045
000050 15 1f c9 3a c0 55 bc 3a 18 22 ba 3a c5 93 aa 3a
       0.0015344346 0.0014368817 0.0014200835 0.001301401
000060 a3 c6 ce 3a 7a fb a5 3a 48 b0 c1 3a 09 c0 c0 3a
       0.0015775751 0.0012663447 0.0014777267 0.0014705668
000070 8f ed ae 3a 8c 82 b4 3a b8 97 ae 3a 7c 85 ad 3a
       0.0013345944 0.0013771816 0.0013320362 0.0013238634
