checkpoint/metric_trace_model.pkl (torch, 808111 bytes, 114 tensors)

conv.conv.weight f4 [35, 35, 7]
00000000: 9a1b e8bc a519 cb3c a209 8b3d 01e6 f2bc
00000010: 8d09 2d3d 9ef5 b7bc 1514 063d 44e5 44bd
00000020: b618 8c3b 8a44 00bd 8f74 74bd 1d69 a23d
00000030: e00c 433d b56c cc3c 9d08 e1bc 2bdf 94bd
00000040: 3232 83bd edf8 4bbd ec78 56bd 6858 debc
00000050: f365 ffbc 45df fd3c 0c99 cabc 0295 babd
00000060: 4573 7a3a a6bf a3bb 8df5 6abc 3b06 483d
00000070: 3899 fb3c 8436 f7bc e1c4 d6bb b711 853c
00000080: 653e a23d 2d0b b83c 705d 3cbd f0b6 b63a
00000090: f16e b5bd fa6c 323d c6b9 d9bd 9dc4 7d3c
000000a0: 8d28 75bc a66b a4bc 6184 7dbd e74c 37bd
000000b0: 854a 5cbd 0528 3ebb 72cb 6d3c f0e1 1e3d
000000c0: 0727 0b3d 0226 763d d0ef 903c b128 d1bc
000000d0: 5578 bebd aa4b 4b3d e417 9f3c d09f 203d
000000e0: dc97 2bbc 791d 44bd 08fc 6bbd 0213 b2bc
000000f0: deac 363d acd2 31bc d5f2 0a3c da01 3d3d
00000100: d58a 85bc b44c 1e3c eda1 c23c dc72 933d
00000110: ec80 983d 979c c13d 9bb1 1cbd 925c 9f3c
00000120: 0dfd aebd 3fe6 9cbd fd35 a8bd c15a 80bd
00000130: 7ba6 6bbc 1ca1 fa3c ac77 9abc 7ae0 acbd
00000140: 31aa 4cbd 4eab 963c f1df b8bb cf5c 833b
00000150: b5d7 7a3c e58a 1dbd dfac aebc 64bf 793d
00000160: 422e 16bd e00f 39bc df2d 2fbc 9cf0 033d
00000170: 4273 473d b4a2 6f3c f361 65bb c09c 813d
00000180: ceea 3d3d 16f4 0e3d c98f 703d dfca 4c3d
00000190: 1c07 5f3d c84d 3dbd 8937 b53c 1844 0ebd
000001a0: 1ea5 9bbd c79f 45bb 2522 393d 949c 183b
000001b0: b23b cbbc be91 973c a00c 1a3d 5e41 603c
000001c0: 0885 aebd a321 27bd 1c0b a2bd 2411 bdbd
000001d0: d714 6cbd 0501 c43c b8c2 2dbc 7b8a df3c
000001e0: f62f 3f3d 02c1 903d ea86 62bc 70f5 56bd
000001f0: 3072 cebd 806e 76bd 2b19 36bd 1140 20bd
00000200: 1c87 1e3c 4b0d 413d 6bb6 94bd bc83 e7bc
00000210: 25f5 c93b e7c0 6bbd b22b 75bc 1bfa 4bbd
00000220: 8379 3f3d b804 c03c 2695 8b3c fd54 353d
00000230: 805e 633c f008 903d 68d4 f4bc 128c f5bb
00000240: 8a75 913d f00e 8b3c eb86 3d3d c9e1 71bc
00000250: 514b dabc d0f5 1a3d 87fa b13d a21d 2dbd
00000260: 76e4 90bd 58ac 77bd 73d2 b3bd 3585 ebbd
00000270: 1546 02be 56ac 13be f6ca 6bbd 4f68 8fbd
00000280: c513 0fbd 1f16 54bd cd16 b8bd c7d7 84bd
00000290: 729b 903a 74ba c0bc 3ad7 793c 4578 963c
000002a0: b591 203d ca47 7fbc 6d33 0dbd b5d5 dbbd
000002b0: eb46 433c 7676 8b3a 55d4 2ebd f8f7 8dbc
000002c0: 88d3 3f3d 308e 7a3d 61b3 8c3d cdb0 b83c
000002d0: 73c1 b1bc 0412 4fbc 9514 32bd 0ac6 b33c
000002e0: 53b1 9dbc f0d6 863d 3ff6 a3bc d702 003d
000002f0: ff7e 163d ce48 cabd 211f ec3c 6958 dbbb
00000300: 8587 1e3d db94 823c b3cf 52bd ff93 54bd
00000310: 74f2 c0bc 92c1 473d 4510 fd3b b68a b1bc
00000320: 0f48 f73b f495 71bc b29f c0bc 9d2c 5fbd
00000330: c6fc 303c c47a 313d c73f d63d e0dd 583c
00000340: 73b2 523b 25fd 4cbd 1edc 183c 33db b63d
00000350: 410c 00bd 8c5c 033d b7ec 7a3d d8c9 e93c
00000360: f1a3 23bc f928 9ebc 1852 9ebd b5d3 1c3c
00000370: 1293 383d ab3d b73c 6217 00bc 3d2e 5ebc
00000380: cb91 55bd 18b2 313d e692 0dbd d547 f03b
00000390: f43e 563d 90e6 953c 8113 5bbd 2326 823c
000003a0: 6016 6abc ed44 20bd adcd 973d dfa0 8a3d
000003b0: c5fb aa3d fc42 253d 9b52 2cbb 5a21 143d
000003c0: 0eae 2d3d 683e 943d fa53 44bc 0586 c2bb
000003d0: 8b73 27bd 15a8 923d bf1c 6b3d 33fb 9f3d
000003e0: e71a 843c 0d14 863c f527 943d e3b2 da3c
000003f0: c1f8 8b3c 95d0 4e3d bba2 083d e857 713c
-0.028333474 0.024792502 0.06788947 -0.02965069 0.042245436 -0.022455987 0.032733995 -0.048070207
0.0042754067 -0.031315364 -0.05968147 0.07930205 0.0476197 0.02495418 -0.027469927 -0.072691284
-0.06406058 -0.04979794 -0.052361414 -0.027141765 -0.031176543 0.030990252 -0.024731182 -0.09110452
0.00095539197 -0.0049972115 -0.01434077 0.048834067 0.030712709 -0.030177362 -0.0065542315 0.016243799
0.07922057 0.022466267 -0.045987546 0.0013940018 -0.08859051 0.04356096 -0.106311366 0.015488771
-0.014963281 -0.020070862 -0.061893824 -0.044751074 -0.053782005 -0.0029015553 0.014513837 0.03878969
0.033972766 0.06009484 0.017692477 -0.025532098 -0.09300295 0.049632706 0.019420572 0.03921491
-0.010473218 -0.04787967 -0.057613403 -0.02173758 0.044598453 -0.010853451 0.008480747 0.046144344
-0.016301552 0.009661842 0.023758853 0.07199642 0.07446465 0.09453695 -0.038255315 0.01945332
-0.08544359 -0.076611035 -0.082134224 -0.0626731 -0.014382954 0.030594401 -0.018855892 -0.08441253
-0.049966995 0.018392231 -0.0056419303 0.0040088664 0.015310218 -0.03846254 -0.021322666 0.06097354
-0.03666521 -0.011295289 -0.010692089 0.032211885 0.048693903 0.014626194 -0.003500101 0.06328726
0.046366505 0.034900747 0.058730874 0.04999816 0.05445014 -0.046216756 0.022121208 -0.034732908
-0.07599853 -0.003015505 0.04519858 0.0023286687 -0.024808738 0.018502112 0.037609696 0.01368746
-0.085214674 -0.040803563 -0.07912275 -0.09231785 -0.057637062 0.023926267 -0.010605507 0.027287712
0.0466766 0.07068063 -0.013826111 -0.05248016 -0.10080373 -0.060163975 -0.044457596 -0.0391236
0.009675767 0.047131818 -0.07261356 -0.028261058 0.0061632567 -0.057557013 -0.014964031 -0.049799066
0.046746742 0.02343975 0.017038893 0.044270504 0.013877511 0.07032955 -0.02988644 -0.0074935043
0.07102497 0.016974896 0.046271246 -0.014763304 -0.026647242 0.03783208 0.086903624 -0.04226459
-0.070748255 -0.060467094 -0.087803744 -0.115000166 -0.12722047 -0.1442121 -0.057566606 -0.07002317
-0.034930963 -0.05177891 -0.08988724 -0.06486469 0.0011032654 -0.023526408 0.015249068 0.018367896
0.039201457 -0.015581081 -0.03447287 -0.10734121 0.011918764 0.0010640163 -0.042682964 -0.017330155
0.04683259 0.061170757 0.06870151 0.022545243 -0.02169869 -0.012638573 -0.04347666 0.021945018
-0.019249594 0.06583965 -0.02001488 0.03125271 0.036742207 -0.09877168 0.028823437 -0.006693889
0.03870346 0.01594012 -0.05146761 -0.051898953 -0.02355311 0.048768587 0.0077228867 -0.021672588
0.007546432 -0.014745224 -0.023513649 -0.054485906 0.010802453 0.04332997 0.10461383 0.013236493
0.003214982 -0.050046105 0.009329824 0.08928528 -0.031261686 0.03207068 0.061260905 0.02853863
-0.009987817 -0.019306647 -0.07730502 0.009571959 0.045062132 0.022368273 -0.007818075 -0.013560829
-0.052140992 0.043382734 -0.03456392 0.007332782 0.05230613 0.018298417 -0.053485397 0.015887326
-0.014287561 -0.039128233 0.074122764 0.06768965 0.083488025 0.040347084 -0.0026294354 0.03616462
0.04240232 0.072384655 -0.011982912 -0.0059363865 -0.040881675 0.07160965 0.05740046 0.07811584
0.01612611 0.016366983 0.07234184 0.026696628 0.017086389 0.050491888 0.033358317 0.014730431

conv.conv.bias f4 [35]
00000000: 2b15 323d bce1 413d 10ac 413d c8c9 97bc
00000010: 0685 3a3d 2488 a2bc 76d5 23bc bc50 43bc
00000020: 0f03 113d 7754 f83c 0fe4 7b3d 3a91 893b
00000030: 7167 7cbc a6e9 c3bc a583 ec3c a168 4d3c
00000040: cb87 15bd bf5e 673d 61ff 77bb 299e 003c
00000050: ac7c b63c 9eeb ccbc 514d ddbc b729 9bbd
00000060: 99da cfbc 8b7e 103d 14fd 84bb 474a 64bd
00000070: de29 84bc d365 233d d510 483d 4e98 3e3c
00000080: 1590 41bb ca26 113c a0fe 1bbd
0.04347722 0.047334418 0.047283232 -0.018528834 0.045537017 -0.019840308 -0.0099996235 -0.011921104
0.035403308 0.030313713 0.06149679 0.0041982206 -0.015405522 -0.023915123 0.028871367 0.0125371525
-0.036506455 0.05648684 -0.0037841427 0.007850208 0.022276245 -0.025014695 -0.027014406 -0.07576316
-0.02537279 0.03527693 -0.0040584896 -0.0557349 -0.016133245 0.03989203 0.048844177 0.011632992
-0.0029535342 0.008859346 -0.038084626

feature_gat.conv1.Ws.0.weight f4 [32, 30]
00000000: f48b 90bd a895 5db8 bd23 cfbb 6cfd 123a
00000010: 9cb4 733c 1166 b739 5d2a f6b8 e053 74bd
00000020: 0e6c 13bb 8ea8 21ba d2d8 08ba 4f5f c2ba
00000030: 9994 0fb9 382f 8fb9 1e45 58ba 4cd0 b9ba
00000040: b7f9 2cba a1e6 4fbd 1e46 a83a 0800 9f39
00000050: 129c 41bb 24c2 543b e1ee 7139 01ed b5bc
00000060: 89df 953c 09ba 9f3a 8fec 88bd 4962 1f39
00000070: 919b 0738 4556 343d f685 203a 16ea 05b9
00000080: 4c50 07bc e4a7 8739 112d 2d39 f2ac 70bd
00000090: 83e6 6e3d 3ea5 08bc eca2 9abc 3105 35bb
000000a0: dc5e 93bd 2532 0dbb f34b 47ba ed1a 80bc
000000b0: c126 0138 44ee d339 5e13 a539 862f 8e39
000000c0: 3ca7 5a3d 0fb2 8539 2c01 b239 431f a5b9
000000d0: 82ea a139 2781 5e39 0f06 813c a0ec 8039
000000e0: 987b 87bd a27c b1b7 ca79 a03a 10e8 8a3c
000000f0: 7c87 01bd 0b74 34b9 654f af39 484e e73b
00000100: 61ae 60bb 6a32 a13a 5ff9 71bd e36a 02ba
00000110: d9fd 04ba 482f 30ba a3a3 0bba 583d 0bba
00000120: 6270 663d d5a4 f6b8 9a0b 61bd a189 2a39
00000130: 75e4 3eb9 04b4 573c 5a0d ce36 395a a1bb
00000140: 1aa9 d139 78d4 3738 5e5f 6d3b fdfb d9b9
00000150: ac87 1739 10e7 25ba 1c1d 1839 9e58 96bd
00000160: f113 2038 b528 2c3b 0c3c 013a 6b28 babb
00000170: dc12 9438 34cf 2839 8ea7 13b8 117c e5b8
00000180: c81d 6ab9 381b babb f1a4 4c3d 3584 59bd
00000190: 93f2 cabb c4b3 1fbd 1774 3239 fc44 8fbd
000001a0: b0fb a93c f7b8 9d39 39f1 9139 ba29 e83b
000001b0: d37d 68bc ce95 d4ba f392 9a3c 4be1 6939
000001c0: bb48 6a39 3960 8a39 b766 3f39 6795 043c
000001d0: 1b63 2239 af82 753b 2495 703d dbf3 0b3b
000001e0: da37 5bb8 f85c ddb8 2726 bdbc 5a4a 0d39
000001f0: c999 e637 9bfc 6d38 5539 9fbb b908 17b8
00000200: 0aa3 80b9 5eae 8db9 2963 2ab7 beb1 5fbd
00000210: 4dc5 5fbd faf2 a93b 9227 06b8 d203 16b7
00000220: 132f 4abd ee53 3ebd c954 573d b6a8 ee37
00000230: 517a 5238 35ce 803b f775 8239 06e4 c537
00000240: 9db7 6bbd ccdd c73b 7b50 5c3d 0766 4dba
00000250: d216 fa38 7df7 1438 7f7d a43b 54ab 10b8
00000260: f624 193a 32d2 82bd 61a1 2fba 6744 d339
00000270: 34ea 12bc 8c39 2bba 1266 50ba 4196 56bd
00000280: 6efd 80ba 55de 86ba 49c8 9bbd d4df 86bd
00000290: 41c2 463c d37d 7eb9 510c 7e3c 4ab1 6f38
000002a0: a9bf 1fbb 701a 4639 d8f4 f339 fb79 39b9
000002b0: da7d 8e39 137a 5d3c aa9b 8f3d cc49 7939
000002c0: 0afe eb38 307b 3339 4cd0 e1b6 91e9 823c
000002d0: 2063 6fbb 355c 8cb7 6054 c2ba 49bd 6939
000002e0: 856e e4b6 4437 d0b6 aa84 8d3d f198 fcbc
000002f0: 0e2e 62bd dd55 b4bc bd35 99b8 3f6c 383c
00000300: 6b2d be39 f700 b639 637e 2a3b e925 b13c
00000310: 2b2d 5e3d 4462 9ebc ec5c 7f3b eaab dd3b
00000320: c80e 893c 2dc3 76bc 1e66 cc3b cda3 7f39
00000330: 7923 adbc d66e 7fbc 4663 173b b011 68bd
00000340: 6a02 2dbc 4f5d 4839 3a2e 2cb7 1b03 9bbd
00000350: 5ec4 21b8 8d2a 61bd dca1 b93c 56f7 a1b9
00000360: 543b b1b8 38f1 0bbd b035 a0b9 9608 323d
00000370: 875d c83b 6041 783d 41a8 c23c d005 293c
00000380: 04d0 99bc 31cd 043a 404d a239 aaad 80ba
00000390: ba35 4b3c 3c80 59bd f43e a339 3618 9539
000003a0: 9f32 bf39 1775 c539 dc62 ca39 ae94 8dbc
000003b0: 62c7 173d bcaf 38bd 7380 0b39 10fc 1f3d
000003c0: 4f20 1d3d 6bb9 693d f701 c53c b684 263a
000003d0: b3d0 ac3c 24bc d23c c6a1 1c3d b360 e93b
000003e0: 877d 05ba f97c 51ba d480 973d 53bb 29bc
000003f0: a1b3 b935 8ed4 18b8 6e30 1abb 500c bcbc
-0.07057944 -5.2829884e-05 -0.006321399 0.0005607221 0.014874604 0.00034980525 -0.00011738085 -0.059650302
-0.0022494826 -0.0006166779 -0.0005220297 -0.001482943 -0.000136929 -0.00027310266 -0.00082500454 -0.0014176457
-0.00065984897 -0.050757054 0.0012838279 0.00030326867 -0.0029542488 0.003246435 0.0002307254 -0.022207739
0.018295066 0.001218618 -0.06685745 0.00015200036 3.233139e-05 0.044027586 0.00061234774 -0.00012771072
-0.00825889 0.00025874295 0.00016515354 -0.058758684 0.0583253 -0.008340178 -0.018876515 -0.0027621503
-0.07195827 -0.002154478 -0.0007602565 -0.01563784 3.079209e-05 0.00040422578 0.00031485682 0.00027119758
0.053382143 0.000255004 0.0003395168 -0.00031494544 0.00030883035 0.00021219683 0.01574996 0.00024590362
-0.066153705 -2.1158081e-05 0.0012243327 0.01695636 -0.03162335 -0.00017209367 0.00033437755 0.0070588924
-0.0034283625 0.001229835 -0.05907571 -0.0004975034 -0.00050732266 -0.00067209126 -0.0005326813 -0.000531157
0.05625952 -0.000117608965 -0.054942705 0.00016263734 -0.00018204919 0.013165478 6.1408327e-06 -0.0049240855
0.00039989577 4.3828477e-05 0.0036220173 -0.0004157721 0.00014451024 -0.00063286815 0.00014506694 -0.07341121
3.8165545e-05 0.002626938 0.0004929907 -0.0056810877 7.060703e-05 0.00016098918 -3.520358e-05 -0.0001094268
-0.00022327073 -0.0056795143 0.049961988 -0.053104598 -0.006193468 -0.038989797 0.0001701865 -0.069955796
0.020749897 0.00030083183 0.0002783628 0.0070850523 -0.014190155 -0.0016218962 0.018868899 0.0002230454
0.00022343073 0.00026393103 0.00018253444 0.008092261 0.00015486444 0.0037461927 0.05873598 0.0021355066
-5.2265685e-05 -0.00010555418 -0.023089482 0.00013474506 2.7489748e-05 5.674046e-05 -0.0048591294 -3.600933e-05
-0.00024535536 -0.0002702353 -1.0155877e-05 -0.054612868 -0.05463152 0.0051864358 -3.1984942e-05 -8.941586e-06
-0.0493613 -0.04646676 0.05257109 2.8450373e-05 5.0181818e-05 0.003930832 0.00024883423 2.3590412e-05
-0.057548154 0.0060994383 0.05378769 -0.00078353327 0.000119251796 3.551644e-05 0.005019843 -3.4491837e-05
0.00058419944 -0.06387748 -0.00066997675 0.0004029602 -0.008966971 -0.00065317075 -0.000794978 -0.052389387
-0.0009841153 -0.0010289649 -0.07606561 -0.065856606 0.012131275 -0.00024270201 0.015505866 5.7147154e-05
-0.0024375713 0.000188926 0.00046530995 -0.00017688416 0.00027178117 0.013517874 0.070121124 0.00023773982
0.00011252992 0.00017116661 -6.7297715e-06 0.015980514 -0.003652759 -1.6732238e-05 -0.0014826171 0.00022291126
-6.8077957e-06 -6.205317e-06 0.06910069 -0.030834647 -0.055219702 -0.022013599 -7.305618e-05 0.011256277
0.00036273463 0.00034714464 0.0026015274 0.021624522 0.054242294 -0.019333966 0.0038965298 0.0067648785
0.016730681 -0.015061182 0.0062377593 0.00024379716 -0.021135079 -0.01559039 0.0023099943 -0.056657493
-0.010559658 0.00019108246 -1.0262762e-05 -0.07568952 -3.8568272e-05 -0.05497222 0.022660188 -0.00030892593
-8.4510684e-05 -0.03416559 -0.00030557578 0.04346522 0.006114665 0.06060922 0.02376187 0.010316327
-0.018775947 0.00050659763 0.00030956604 -0.0009817381 0.012402946 -0.05310081 0.00031136686 0.00028437533
0.00036468075 0.00037662007 0.00038602098 -0.01728281 0.03705538 -0.04508947 0.00013303924 0.039058745
0.03836089 0.057061594 0.024048788 0.0006352173 0.02109561 0.025724478 0.038240217 0.007122123
-0.00050922524 -0.00079913397 0.07397619 -0.010359603 1.3835853e-06 -3.643758e-05 -0.0023527401 -0.02295509

feature_gat.conv1.Ws.0.bias f4 [32]
00000000: 9e5f 3d3b dd1b 043b ebd1 273b 1990 0e3b
00000010: 129d 093b 2932 443b 322e 033b f3e8 fa3a
00000020: b99a 333b 6e7f 413b a686 253b 3c8d ed3a
00000030: 3f4e 203b c3ac 1a3b 1123 153b eadb 0d3b
00000040: 1f16 143b 078a 173b 2f71 543b cffb 1b3b
00000050: 383a 033b 045b 323b 2d29 223b 1c49 233b
00000060: 4494 103b 998d 2e3b 4ac8 143b 3264 263b
00000070: 7ef7 013b 47a7 2d3b 38cc 363b 12b1 313b
0.0028896104 0.002015821 0.0025607299 0.002175337 0.0020998162 0.0029937124 0.0020016548 0.0019142911
0.0027405454 0.0029525417 0.0025257259 0.0018123756 0.00244607 0.002360151 0.0022756497 0.0021645972
0.0022596193 0.0023123042 0.0032416095 0.0023801213 0.0020023715 0.0027214894 0.002474378 0.0024915403
0.002206103 0.0026634692 0.002270239 0.002538931 0.0019831355 0.002649741 0.002789272 0.0027113599

feature_gat.conv1.Ws.1.weight f4 [32, 30]
00000000: 11ef 1fb9 47a1 ddb8 b1e8 b738 797e 243b
00000010: 1d8b 633c 29c5 cd3c 0fd9 09b7 ea37 8837
00000020: d1d0 b5b8 7986 1bb9 975d d53c 4063 0cbd
00000030: 9f1d 9139 a7eb 39bb bf73 a739 dc31 d239
00000040: 12b7 0d3b adde b43c 096e 9b3d d650 7cbc
00000050: 5f26 643d 75bf 1a39 1700 8e39 d7a0 afbb
00000060: 0d4d 4d39 93b6 233d be47 2439 72fa eebc
00000070: d5fc 95bd d221 06ba 2b61 76b9 53f9 a4b8
00000080: fc38 9a3c ee38 3ebd 39ef ed3b 865a 2837
00000090: 747d 0139 9e0a 6c3c 2f04 84b9 a90d cbb8
000000a0: 34a1 a739 a2da 15b8 e62b 93bc dce0 6039
000000b0: e314 8638 6d4f 8739 a59d 8a39 18e9 093c
000000c0: 252b 953b 178c 163d afbc e63c 695f acbb
000000d0: bd48 c13c 64b6 9d39 6dac 8439 09bc 9c3c
000000e0: 0d4b 7739 e206 a3bb 3145 0939 2b5e e538
000000f0: aad3 3038 81b2 9f38 34bc 003a 4c5e 023a
00000100: 5bc3 dabb 1866 d3b9 4698 6bbb 9d75 b9b8
00000110: 86e4 afba 4d96 99b9 1123 63b9 93e1 8ebd
00000120: 182d 31bb 07e4 753d 038c 3c39 d5c3 b8bc
00000130: 02ac 313d 7eec 05bc 9660 6e39 6539 e2b8
00000140: be8d 793d d200 423d feda c439 c675 7a3c
00000150: d05b d739 1c0e 60bd 4215 9239 5fb9 a83a
00000160: 9a97 b53b 65f8 f5bc f8f6 473a cefe c5bb
00000170: 6079 4a3d 200c ab3a 11c6 9b3a 507b e53c
00000180: 4357 603a ff5c 85b9 51fd 02bb 92ac 393c
00000190: 0196 39ba bf5e 1c3d 8185 4e3d 7a3b f1b8
000001a0: a919 40ba e854 03bb 4623 b8b9 1d3a 933b
000001b0: 9cb2 90b9 e4fb e339 85b1 9cbd 5094 2935
000001c0: 6c80 013a 8fa5 b4bb bfb2 173b 9801 713c
000001d0: 9cf9 20bb 8097 363d 75b0 60bb c7fa 0939
000001e0: b8a7 043c 29f5 d63c 26e9 7439 762f 9939
000001f0: f02b 8939 3ce5 09bd 6161 ad3a 601e 4a39
00000200: 9c39 073d cf8b 3ab9 6ac4 543d 88e9 e039
00000210: e882 d139 dfd4 e9bc 4e2c 543b c5e0 6339
00000220: a835 8539 7588 8339 1827 9cbd dd1d 613d
00000230: b300 c839 26db da3c 267f ad39 dbb5 df3b
00000240: 774b 8839 485d 6bb9 9d4e 1b39 3e2f f2bc
00000250: 5bba e43c fd56 21bb 4af8 4436 68b5 033d
00000260: 3a96 d839 6fe0 0fbd b341 183a 155b 8b3b
00000270: 3700 5c39 c565 2ab9 7c26 823d ae50 bfbc
00000280: 94d5 beb9 477d 99bd 6de0 bb38 4a94 9f3c
00000290: 1270 08ba bb0b b438 2e25 7ab9 6c2c beb9
000002a0: f705 6db9 7623 c63b d49d 803d c105 523c
000002b0: c333 6a3c 30cc ae39 1a8f 9c3b 990c 19b9
000002c0: 14e4 9b39 6e19 8739 6f30 a239 4e08 4b39
000002d0: 0f14 82bc 163c cbba 73ae 60bc c4f7 8c3c
000002e0: 4b1c 1c3a c261 093d 00e9 cc3a 020b 5cbc
000002f0: 92df 2aba 7d0b eabc e36d 363d 84d7 49ba
00000300: 9b11 89ba bb2a 95b8 c21c 71bd ee78 8b38
00000310: 9dcf 6db9 9621 07b9 5ac2 3db9 5a70 6cbd
00000320: 94a0 2abd 8586 8138 40a1 e03c 4566 6bbd
00000330: 2c40 8e3d e501 5e3d 2361 8739 a091 0bbd
00000340: bc71 8939 46fe a53c d226 7138 a6fc 8b3c
00000350: b8b5 833d 6d20 323a 09de c739 00eb a539
00000360: caa4 48b8 4896 c3b9 7b83 f5b9 b2a1 043c
00000370: 0d5b 9eb9 6834 783b 3f6f 983c 7c8b 4539
00000380: c2d9 5eb9 9ea4 8f3c ec5a 2e3d 43ba 06bc
00000390: 768d 5d38 f430 863d 0344 023d 25e0 c83a
000003a0: 153e 8139 e92c b33a fbbd 5ebd de84 2c3b
000003b0: ace8 b239 51b5 8d39 0183 4439 54fa e7bb
000003c0: 9368 af3b 310c 4e3d 891c 453d 8c0d 1b3a
000003d0: 58f7 083a 2858 a7bb 90d8 ba39 be00 cbb9
000003e0: f819 2fba 4bac abbb 562f 5a3a c621 f8bc
000003f0: ebcd b239 f024 803d 8833 0a3c 2ea6 b6bb
-0.00015252481 -0.000105681414 8.769462e-05 0.0025099798 0.013888148 0.025118427 -8.216374e-06 1.62385e-05
-8.669648e-05 -0.00014832047 0.026045604 -0.03427434 0.00027678625 -0.002836922 0.0003193896 0.0004009147
0.002162401 0.022078836 0.07589347 -0.015400132 0.055700656 0.00014757908 0.00027084418 -0.00535975
0.00019579027 0.03996904 0.00015666985 -0.029172156 -0.073236145 -0.0005116734 -0.00023496586 -7.86657e-05
0.018826 -0.04644101 0.0072611836 1.0034657e-05 0.00012349134 0.014406828 -0.0002518012 -9.682339e-05
0.00031972828 -3.5727986e-05 -0.017965268 0.00021446071 6.3935084e-05 0.00025808383 0.00026438865 0.00841739
0.0045522624 0.036754694 0.028166143 -0.005260397 0.023594255 0.00030081265 0.0002530547 0.01913263
0.00023583714 -0.0049751857 0.00013091114 0.00010937111 4.2158797e-05 7.61496e-05 0.0004910857 0.0004973158
-0.00667612 -0.00040321122 -0.0035948916 -8.8433946e-05 -0.0013419546 -0.00029294417 -0.0002166147 -0.069766186
-0.0027034935 0.060031917 0.00017981236 -0.022554317 0.04337693 -0.00817406 0.0002273343 -0.0001078721
0.06092619 0.047364064 0.00037547195 0.015286868 0.000410764 -0.054700956 0.00027863128 0.0012872628
0.005541754 -0.03002567 0.0007628049 -0.006042338 0.04943216 0.0013049878 0.001188459 0.028012902
0.0008557925 -0.00025437024 -0.0019987414 0.011332648 -0.0007079542 0.038176294 0.050420288 -0.00011502854
-0.00073280424 -0.0020039622 -0.00035121496 0.0044930116 -0.00027598895 0.00043484487 -0.07651047 6.317323e-07
0.0004940096 -0.0055129 0.0023147312 0.014709853 -0.0024562841 0.044578075 -0.0034284864 0.0001315876
0.008096628 0.026239948 0.00023356508 0.00029217795 0.00026163412 -0.03366588 0.0013227874 0.00019275537
0.033013925 -0.00017790425 0.051945128 0.00042898604 0.0003996112 -0.028543888 0.003237504 0.0002173214
0.00025407714 0.00025087936 -0.07624644 0.05496012 0.00038147494 0.026715826 0.00033091864 0.006827099
0.00025996167 -0.00022446096 0.00014811238 -0.029563542 0.027920892 -0.00246185 2.93508e-06 0.032155424
0.00041310658 -0.035126146 0.000580813 0.004252801 0.00020980915 -0.00016250375 0.063549966 -0.0233539
-0.00036398752 -0.07494598 8.9586574e-05 0.01947989 -0.0005204688 8.585254e-05 -0.00023855708 -0.0003627272
-0.00022604303 0.0060467077 0.06280103 0.012818755 0.0142945675 0.00033339998 0.004777801 -0.0001459591
0.00029733835 0.00025768153 0.00030935134 0.00019362682 -0.015878705 -0.0015505578 -0.013713467 0.017207988
0.0005955144 0.033540495 0.0015633404 -0.013430359 -0.00065183 -0.028569931 0.04453839 -0.0007699656
-0.0010457517 -7.112833e-05 -0.058865316 6.6505614e-05 -0.00022679423 -0.00012887115 -0.00018096846 -0.057724334
-0.041657045 6.1762556e-05 0.02742064 -0.05747058 0.069458336 0.054201026 0.0002582158 -0.034074426
0.00026215415 0.020262849 5.749503e-05 0.017088246 0.064311445 0.0006794993 0.00038121667 0.0003164634
-4.7837188e-05 -0.00037305267 -0.00046828002 0.008095192 -0.00030203947 0.0037873033 0.018607734 0.00018839346
-0.00021252691 0.01753455 0.04256718 -0.008223119 5.282225e-05 0.06552306 0.031803142 0.0015325589
0.00024651052 0.001367 -0.0543804 0.0026324312 0.0003412416 0.00027028707 0.0001874082 -0.007079402
0.0053530424 0.050304595 0.048122916 0.00059147994 0.00052248454 -0.0051069446 0.00035638036 -0.0003871973
-0.000667959 -0.005239045 0.00083230936 -0.030289542 0.00034104227 0.06257045 0.008435138 -0.0055740094

feature_gat.conv1.Ws.1.bias f4 [32]
00000000: 2df1 043b a1f6 093b 1593 1f3b 0a00 603b
00000010: e115 fc3a 6749 473b 473d 443b 4f01 383b
00000020: 994c 323b 67f3 353b 9c50 f83a ac1c d33a
00000030: 3b3d 313b 858c 283b 5baa 4a3b 18fc 1d3b
00000040: 8dd9 2f3b 7dfe e43a 18de 193b e44d 3a3b
00000050: 396c 193b 4029 e73a a6df 3d3b 1bba 213b
00000060: 599b 223b 69ce 0d3b b42a 343b 38da 443b
00000070: 2c3c 1f3b 30b0 3d3b d258 093b 799a 4f3b
0.0020285354 0.0021051543 0.0024349142 0.003417971 0.0019232595 0.0030408741 0.002994375 0.0028076952
0.00272063 0.0027763487 0.0018944922 0.0016106567 0.0027044553 0.0025718522 0.0030924294 0.0024106558
0.0026832551 0.0017470863 0.0023478325 0.0028427774 0.0023410453 0.0017636195 0.0028972416 0.0024677578
0.0024811833 0.0021637923 0.0027491273 0.0030037295 0.002429734 0.0028944127 0.0020957482 0.0031677766

feature_gat.conv1.Ws.2.weight f4 [32, 30]
00000000: 8074 bf36 16a0 86b6 283a 1a3a 8085 813a
00000010: 64af 473a 7b7f f63b 984e 3d3d 64c3 f9b9
00000020: 28af 8db9 a02c 6a3d c88b 04ba a9ed a23b
00000030: 3b5d 3eb7 7b81 ba3a 020d 9eb9 236f 4939
00000040: 929e 75b9 c90e 1a3d 93a7 f3bb 3916 343a
00000050: 5f6d 193a 84f4 85b9 1bc3 55bd b646 b339
00000060: c7a9 9abd f4d6 9039 9d6d 8739 f2c5 7939
00000070: 56c0 3b3b 78bf f238 9752 14bd 8853 9338
00000080: 1496 1a3b 022b 023a 78e5 073a f07f 8e39
00000090: 7ddf b3b9 fef1 213d 394f 91b9 f0fe 97ba
000000a0: 6257 07bc 303f fdb9 af73 4eba 17a2 1538
000000b0: bfa2 ddb8 18f7 c43c 60e3 8bbc 9468 373c
000000c0: 2183 a7b9 f229 9539 672a 413d 8d2b e438
000000d0: 8c70 1a39 b98a ddbc 6296 c0bb ad74 26bd
000000e0: 0aef 0ab9 f0e3 70bd fe45 973c 8166 06bd
000000f0: e766 1abd 15e5 9938 f219 ff38 0d0e b239
00000100: 0b34 6039 1989 55b9 eaf4 9739 38bf 3cb9
00000110: 7af5 4db9 e2f1 93bc a4bd 61b8 4f39 663b
00000120: 1aae 813b a9d0 dd39 a628 d639 510d 97bd
00000130: 7863 6cbc 207b eb3b a438 cc39 e3e1 ae39
00000140: f38b 85bd 6137 1e3d 371d 14bb de9a 353d
00000150: 17d9 183d 8feb 9bbd b6ab 1c39 a7f7 463b
00000160: 8775 4839 42c8 823d e63f f83c 324c b536
00000170: dfa7 113a c4a1 ca3c 39e2 c339 55da f53b
00000180: 83ae 0a39 859a 4fb9 bbbe 36ba d565 193b
00000190: fc67 67ba e402 863c d42a ee37 9d82 3abb
000001a0: 9094 95bb 303b 75bd c2d2 cbbc f767 73bd
000001b0: 25d1 0db8 d39f ac39 db39 b2bb 4025 acbb
000001c0: 03ce 28ba 5a7c 5339 c5c6 35bd 230f e6ba
000001d0: b4ff 13bd b039 04bd b314 c538 ba45 c13a
000001e0: 5b5c 84bc d214 eebc 1b25 9bbd 5704 1dbb
000001f0: 875b 38bc 1cb2 5739 1ce9 383a 7586 4b3d
00000200: 062c adb8 ec65 dc3c fa11 c838 7b33 053d
00000210: cb7c 493d 257d cc39 553b ff3b d2e4 ec39
00000220: 7665 3bbc 5733 1ebd 18c0 043a d9c6 603d
00000230: 2b50 7139 044a 9bbb 6253 fa3b 7302 cebc
00000240: 8a0b 0a3d ca8c aa39 b258 223a 225f 08bd
00000250: 633b 9c3d 4a01 1c3b fb2e 90b5 9c03 57ba
00000260: 249c 6dbd 45b3 903d b635 f139 0b57 9439
00000270: 7720 f5bc 92ca 44b9 fdbd 3bbd b12b eeb9
00000280: e9fa c1b9 6ca5 20b9 334f 4138 8a18 1b39
00000290: 47a5 8c38 5717 fe38 a4e7 13bd 1761 a0bb
000002a0: deae 16bb 8b0b 8c39 9e86 383d 3510 b7bb
000002b0: fa08 163d 9e8f eabc 09e5 2ebc 99df 853d
000002c0: fe1d 85bd 4d6e 1639 f167 973a 44ec aa39
000002d0: 8185 62bd cf22 91bc 1eb9 163d 20a2 fdb9
000002e0: 3083 823d 06f8 903a 4959 55bd ddce d2b9
000002f0: 4e4e 5a38 e177 c93c 7ea7 303c 0538 4bbc
00000300: fae2 0d3a b2e4 4739 cd1e 44b8 1f1c a33d
00000310: ed7d f539 e165 63bc 69fd e938 8def 83bc
00000320: 9316 813c aadb 7539 43be 8e39 48a6 d839
00000330: 38f0 b639 5304 b239 6534 7d39 da6d c43c
00000340: 244f dbbb 22f9 1239 8ed5 6c3a fb1d cb37
00000350: 1b3e 193c 4a02 9c39 603b 3739 f647 0e39
00000360: d94d 073d 64d1 903d c60d 65bc 3e71 9ebd
00000370: 4fbb f838 8cc7 83bb 147e 27bb 07ca 073a
00000380: 68c8 4b3d cb3d 913c 9c5b ba39 9d65 6abd
00000390: a78e d039 27b1 d739 0aca d639 0d3e c53c
000003a0: 42ed 863d 18ab 263d 9cba a039 df20 9c3d
000003b0: 4f84 9d3c cf70 3839 3c4e db38 4d9c 363d
000003c0: e48d 8bb9 eef3 c3b9 4299 c939 a488 293a
000003d0: 2aee a939 a5fe 1e3a ce37 503d 95d1 d83c
000003e0: 4548 02bd 03dd 9eb9 424b 3e3c 24b8 5dbd
000003f0: c86b 89bd 1ac8 3cbc bab1 59b9 ef42 a03d
5.705806e-06 -4.0121477e-06 0.00058833 0.0009881705 0.0007617383 0.007522521 0.04621753 -0.00047638558
-0.00027024117 0.057171464 -0.00050562294 0.004972179 -1.1346589e-05 0.0014229262 -0.000301458 0.00019210255
-0.00023424093 0.037611756 -0.007435748 0.00068697665 0.00058527844 -0.00025549915 -0.05218802 0.00034194224
-0.07551914 0.00027625973 0.00025830875 0.00023820231 0.0028648577 0.00011575123 -0.036211576 7.025065e-05
0.0023587989 0.0004965515 0.0005184035 0.0002717967 -0.00034308052 0.039537422 -0.0002771558 -0.0011596363
-0.00826058 -0.00048303 -0.00078755146 3.5675326e-05 -0.00010568415 0.024043605 -0.017076194 0.011194367
-0.0003195042 0.00028450746 0.04715958 0.00010879999 0.00014728511 -0.027043687 -0.005877302 -0.040638614
-0.00013249755 -0.05881113 0.018465992 -0.0328126 -0.03769579 7.3382784e-05 0.0001216418 0.00033961274
0.00021381692 -0.00020364336 0.0002898344 -0.00018000312 -0.0001964177 -0.018059675 -5.3820797e-05 0.0035129373
0.003957522 0.0004230787 0.00040847546 -0.07375587 -0.014428012 0.0071863085 0.00038952113 0.00033356165
-0.06520834 0.038627032 -0.0022600421 0.044337146 0.037316408 -0.076132886 0.00014941287 0.0030360015
0.00019117269 0.063858524 0.030303907 5.4030907e-06 0.0005556326 0.024735339 0.00037361847 0.007502834
0.00013225716 -0.00019798621 -0.000697117 0.0023406644 -0.00088274456 0.0163588 2.8391754e-05 -0.00284592
-0.004564829 -0.0598709 -0.02488077 -0.05942532 -3.38118e-05 0.00032925475 -0.005439026 -0.005253464
-0.00064393895 0.00020168853 -0.044379015 -0.0017552119 -0.03613253 -0.032281578 9.3975475e-05 0.0014745512
-0.01615732 -0.029062662 -0.07575437 -0.0023958886 -0.011252291 0.00020570349 0.0007053779 0.049688775
-8.257483e-05 0.026904069 9.5400916e-05 0.0325198 0.049191277 0.00039003152 0.0077890554 0.00045183912
-0.011437764 -0.03862318 0.00050640246 0.054877136 0.00023013416 -0.004739048 0.0076393345 -0.025147652
0.03370241 0.00032529823 0.0006193026 -0.03329385 0.076285146 0.002380448 -1.0742509e-06 -0.0008202137
-0.058010235 0.07065443 0.0004600712 0.00028293612 -0.029922707 -0.0001876748 -0.045835484 -0.0004542745
-0.0003699877 -0.00015320414 4.6088546e-05 0.00014791093 6.7065055e-05 0.00012116011 -0.03610958 -0.0048943865
-0.0022992413 0.0002671148 0.045050256 -0.005586649 0.036629654 -0.028632935 -0.010674723 0.065367885
-0.06499861 0.00014346205 0.0011551363 0.00032600958 -0.0553031 -0.017716793 0.036797635 -0.00048376713
0.06372678 0.0011060245 -0.052087102 -0.00040208446 5.2048177e-05 0.024593296 0.010782121 -0.012403493
0.0005412545 0.00019063315 -4.6758727e-05 0.07964348 0.00046823864 -0.01387927 0.00011157507 -0.016105438
0.015757835 0.00023446852 0.00027226107 0.0004132262 0.00034892722 0.00033954027 0.00024147479 0.023978163
-0.006692784 0.00014016454 0.00090345077 2.4213447e-05 0.009353186 0.00029756344 0.00017474359 0.00013568983
0.033033226 0.07071188 -0.013980335 -0.07736443 0.000118604505 -0.0040215906 -0.0025557326 0.0005179946
0.04975167 0.01772966 0.0003554494 -0.057225812 0.00039779136 0.00041139984 0.00040967792 0.02407744
0.06588222 0.04069051 0.00030656613 0.07623457 0.019228129 0.00017589632 0.00010457306 0.044582654
-0.00026617863 -0.0003737504 0.00038451893 0.00064671994 0.00032411638 0.00060651667 0.05083447 0.026467124
-0.031807203 -0.00030300775 0.011614623 -0.05413069 -0.06710011 -0.011522317 -0.00020760941 0.078252666

feature_gat.conv1.Ws.2.bias f4 [32]
00000000: dff3 403b 5e2f 153b e08c 053b 3593 353b
00000010: 65f1 1a3b 3f5a 0c3b 137f 1f3b 2f5f 163b
00000020: 57b6 303b 6585 143b 1e5a ff3a 1b6c 273b
00000030: 2ad0 653b 4e9b 333b a0f9 363b 50f3 033b
00000040: c4e2 1d3b f0d5 373b 866e 413b cca1 0c3b
00000050: 0490 3b3b e8c1 f73a 54e8 373b e15d 353b
00000060: a70e 053b 7089 3d3b fa91 c73a e74a 0a3b
00000070: 512f 1b3b ef18 293b 9e5d b83a 85e7 243b
0.0029442233 0.0022763829 0.0020378157 0.002770615 0.0023642418 0.0021416096 0.0024337217 0.0022944917
0.0026964152 0.0022662517 0.0019481813 0.0025546614 0.0035066702 0.0027405801 0.0027919784 0.002013404
0.0024091462 0.00280511 0.002951534 0.0021458743 0.0028619776 0.0018902393 0.0028062062 0.0027674364
0.0020302923 0.002892103 0.0015226 0.0021101774 0.0023679326 0.0025802215 0.0014065986 0.002516241

feature_gat.conv1.Ws.3.weight f4 [32, 30]
00000000: f621 bab8 35a5 103b db58 c4bc 989a 2a3a
00000010: 259b 0a3a 0807 843d 3888 66b9 3f2b 4c3c
00000020: 2f9a 04bd 9ebb 0eba 13f5 c23c 3678 c839
00000030: b297 90b7 991d 3139 a260 9db9 62ec 97bd
00000040: cfee c1b8 7973 f0bc 1612 76bd 3dc2 5b3c
00000050: bd87 dd38 b3c3 05ba ffe7 8839 b5a8 40bc
00000060: 9b0c c5bb c13f 6d39 334a 88bc d4de e3bc
00000070: 3477 a338 ff4c 813c 3e23 cfbc cdcd bbb9
00000080: 4eda 933b 48b6 af39 5861 d239 06dd 4cbd
00000090: 7e8f 8bbd 1e5b 683d 7878 673c d425 8e3b
000000a0: ef4a d3bb 1023 ddb9 7316 46bd cebf 9cba
000000b0: e1de ca3a 9114 b339 c355 2c3b 9888 aaba
000000c0: 5793 c1b7 6605 543d afb7 a139 42e8 9cbc
000000d0: 0316 383d 90bc c73b 6ba6 fbbc 51c8 30b7
000000e0: a7df 7b39 2adf 73bd c2d4 1739 d544 153d
000000f0: 9c69 1a39 92e9 f33c 640d 8a3d 7d45 5e3d
00000100: 59c1 093a ae74 83ba 865c 9c38 a132 cdbc
00000110: 08ca afb8 e65f 25bc 7ec5 4a39 54b6 263b
00000120: 78bb c7bb d828 54bb 6335 cbbb 06a1 853a
00000130: e207 b439 56f1 413c 0f6c 58b9 9878 f239
00000140: d152 7cbd 2f6e 70ba 84c4 143a 1773 123a
00000150: 22ad c039 fad5 573b a628 513d ee59 0c3c
00000160: 0c92 4f3d 0a6c 74bd 6036 0ab8 9703 cdbc
00000170: cc68 f8bc 106f 97b9 f1a1 593a 9c76 ed39
00000180: 7e01 fcba 0674 81bc 2139 06ba 29d6 e0bc
00000190: 44d2 843d 674a 0dba 7ec7 a038 896e 93bc
000001a0: 6a67 e2ba 3a5e c73c f506 bdb8 b65d 70bb
000001b0: ec91 2fb9 1b80 7e39 433b cb39 fc6c edb7
000001c0: b7a4 f439 387a 9f38 ff2b a23d ad93 ebbc
000001d0: a0b6 b93b 689e c739 4d22 aa3c dc43 2f39
000001e0: 4398 0bb8 6385 0a3a cb3a 003c b809 8cbd
000001f0: f5b2 063b 2c2d 28bd 800d 8bbc a390 08bb
00000200: 9b4b 39ba e064 b33b 35b9 33bc 82c4 1fb9
00000210: ba2e 9e39 10c3 be3c aeb6 213a e6bf af3b
00000220: 9fb1 28bd d055 e239 03d3 5739 ffac df39
00000230: e0d1 a13d e4a5 b03c 3c99 1dba fc8b c739
00000240: 5105 b13c b675 dcbb 9c30 8339 762e 7139
00000250: abca 2f39 ef68 4c3a ea89 dcb7 f622 45b7
00000260: 266f ba39 85c9 c1ba b781 9539 d315 80bd
00000270: 5f13 7e3d 6c9c 163d f70d f33c 4f6c 2b3d
00000280: e83a 87bc 4544 cf36 8015 b93b ddc5 bb3c
00000290: fe2f 653c 3524 57bc 8051 8039 5392 5abd
000002a0: 4b24 8039 b3b3 b4bb 4fe6 ac39 bf91 5239
000002b0: a89b 8439 9b6e 5c3d 084f 8939 76e5 6abd
000002c0: 30aa 8239 40a7 2f3b 8f4b 2db9 af96 d13b
000002d0: 3b53 e337 330e 35b8 4ea6 8c3a f84e 3a3c
000002e0: 1ba7 873d 527b b33b 06dd 9bbc e728 0c3b
000002f0: f2df cab9 94f3 57bd 86c8 4c3c ac81 1dbc
00000300: 0053 dab8 0cd6 dfb8 3c93 9cb9 046f e8b7
00000310: 74ae 88b9 58ae b7b8 23cc 99b9 79e0 0c38
00000320: 44f1 9a39 26d0 383a 2dc4 f0bb 2b49 5e3d
00000330: 85c4 63bb f11b 5b3a 7705 863d eabf 713d
00000340: 624c c138 fa95 ee38 4c4d 96bc 785a 0839
00000350: acb2 713a 5ccb b33a a1cc a7bc 5888 793b
00000360: 35bd 9ebc 4f44 7fb9 3cd0 1b3d bdc7 d6bc
00000370: 5fe2 db3a 73ca 40ba 613e c63c 1d96 4c39
00000380: 2e12 403a 27b7 183b 6602 4d3d e356 8b3a
00000390: 4a93 223c c53e 58b9 a482 2e3a 44b3 3138
000003a0: 4ecd 033a 24e0 893c beb8 a5bc 8982 4d39
000003b0: 473c e43a 4d40 83bb 4e65 a13c c397 4c39
000003c0: 88a4 99b6 ecc7 5dbd d566 1a3a 1533 513a
000003d0: 68da 513d 1929 e839 9ec5 a13c 720a b1b9
000003e0: b85f 0aba 363a b0b9 442f 18ba 9e55 2cbd
000003f0: 7290 bf39 22e7 5cbd 0a5b 2bb9 5141 8539
-8.875497e-05 0.0022071127 -0.02396815 0.00065080216 0.00052874006 0.064466536 -0.00021985255 0.012461483
-0.032373603 -0.0005444827 0.023798501 0.00038236537 -1.7236776e-05 0.00016891061 -0.0003001737 -0.07418133
-9.247439e-05 -0.029351937 -0.06007584 0.013413009 0.000105633844 -0.0005102709 0.00026112792 -0.011758973
-0.0060134656 0.00022625831 -0.016636943 -0.027816214 7.794649e-05 0.015783785 -0.02528536 -0.00035820753
0.004512108 0.0003351441 0.00040126848 -0.050015472 -0.06814478 0.05672752 0.014127843 0.0043380056
-0.0064481418 -0.00042178528 -0.048361253 -0.0011959018 0.00154778 0.00034156864 0.0026296235 -0.0013010679
-2.3076003e-05 0.05176296 0.00030845168 -0.019153718 0.044942867 0.0060954764 -0.030719003 -1.0537057e-05
0.00024020542 -0.059538998 0.0001447974 0.036442596 0.00014725927 0.029774461 0.06740835 0.054265488
0.00052549463 -0.001002928 7.4558935e-05 -0.025048556 -8.3822815e-05 -0.010093665 0.00019337793 0.0025438266
-0.006095346 -0.0032372978 -0.0062014326 0.0010195083 0.00034338149 0.011837324 -0.0002063962 0.00046247686
-0.061602417 -0.0009171692 0.0005675035 0.0005586608 0.00036750088 0.0032933936 0.051064156 0.008566363
0.05067639 -0.059673347 -3.2952405e-05 -0.025026126 -0.030323409 -0.00028883712 0.0008302024 0.00045292533
-0.0019226519 -0.015802395 -0.0005120207 -0.02744587 0.064854175 -0.000538981 7.666553e-05 -0.017997043
-0.0017273251 0.024336923 -9.013518e-05 -0.003667695 -0.0001674366 0.0002427105 0.0003876333 -2.8303351e-05
0.0004666203 7.604476e-05 0.07918548 -0.02875694 0.0056675225 0.0003807426 0.020768309 0.0001671458
-3.3281987e-05 0.00052841584 0.007826517 -0.06837791 0.0020553444 -0.041058704 -0.01697421 -0.0020838163
-0.0007068456 0.0054746717 -0.01096945 -0.00015236626 0.00030170922 0.023286372 0.0006168884 0.0053634522
-0.041185018 0.00043170014 0.00020582606 0.00042662767 0.079013586 0.021563478 -0.00060119084 0.00038060534
0.02160898 -0.0067278994 0.00025022484 0.00023000859 0.000167648 0.0007797619 -2.6290265e-05 -1.1750255e-05
0.00035559497 -0.0014784789 0.0002851614 -0.06254163 0.062030192 0.03677027 0.029669745 0.041851338
-0.01650758 6.1770284e-06 0.005648315 0.022921497 0.013988493 -0.013131191 0.00024474785 -0.053362202
0.00024441103 -0.005514586 0.0003297799 0.00020081455 0.00025292975 0.05381642 0.0002618956 -0.057347737
0.00024922332 0.002680257 -0.00016526713 0.0063961367 2.7099266e-05 -4.3166987e-05 0.0010730715 0.011371367
0.0662367 0.0054773474 -0.01902629 0.0021386684 -0.00038695295 -0.05272253 0.01249898 -0.009613436
-0.0001041051 -0.00010673338 -0.00029864337 -2.770825e-05 -0.0002606992 -8.758594e-05 -0.00029334528 3.3587658e-05
0.00029552926 0.00070500595 -0.0073476047 0.054268997 -0.0034754586 0.00083583506 0.06544011 0.059020914
9.2171846e-05 0.0001137666 -0.018347405 0.00013003673 0.00092200446 0.0013717222 -0.020483317 0.0038075652
-0.01937733 -0.00024344142 0.038040385 -0.02621829 0.0016775838 -0.0007354386 0.024199666 0.00019510878
0.0007326928 0.0023302527 0.050051115 0.0010630753 0.009922812 -0.00020622749 0.000665704 4.2367043e-05
0.0005027846 0.016830511 -0.020229694 0.00019598952 0.0017412984 -0.004005468 0.019701626 0.00019511492
-4.5789093e-06 -0.05414574 0.0005889957 0.0007980329 0.05123368 0.00044281108 0.019747552 -0.00033767853
-0.00052785454 -0.00033612706 -0.0005805383 -0.04207384 0.0003653798 -0.053931363 -0.00016341746 0.000254164

feature_gat.conv1.Ws.3.bias f4 [32]
00000000: 586f 273b 6dd5 173b a7b1 2f3b 6964 3b3b
00000010: 4512 283b 9d41 103b 7693 4b3b 3545 693b
00000020: e5ed 393b b30d 0f3b 96ad 233b b9b3 113b
00000030: 3717 2b3b 5ef1 073b d757 153b d99b 523b
00000040: 18b8 d73a 65c0 123b be63 123b f465 483b
00000050: 110a 1e3b 4aab 1e3b 8b3b e43a 670e 2a3b
00000060: f570 0a3b 2b9b 023b 454d 173b 1a0f 253b
00000070: 1eec 213b a297 d93a bece f23a c6fa 1e3b
0.0025548544 0.0023167983 0.002680877 0.0028593785 0.0025645655 0.0022011765 0.0031063235 0.003559423
0.0028370556 0.0021828234 0.0024975291 0.0022232367 0.0026106366 0.0020743231 0.0022787952 0.003213635
0.0016458062 0.0022392508 0.0022337283 0.0030578347 0.0024114887 0.0024210983 0.0017412765 0.0025948526
0.0021124457 0.0019928913 0.0023086828 0.0025186003 0.0024707387 0.0016600976 0.0018524749 0.002425836

feature_gat.conv1.Ws.4.weight f4 [32, 30]
00000000: 1149 45b8 6b2c ef3b 4c3c 1539 1457 6a39
00000010: 651f 343d 28dc 9db6 5025 a0ba 2a98 69b9
00000020: f17a 19bb 06cf 2f3c 727c 95b9 7c70 d23c
00000030: f0c9 703d 67bd 5038 3494 2a3d ac4b 7739
00000040: 1a51 d038 fc78 8cbd f8a4 2b38 fe8a 073d
00000050: 4737 343b d3f3 953a 4cc5 45bd 6f7c 2839
00000060: f024 2439 6792 7b38 2c5a 4bba ae92 4c38
00000070: ef69 7d3c 2b70 5439 5710 1f3c c737 8739
00000080: ac70 a739 7f8f 363a dcd8 c0b9 265a 923d
00000090: 2db9 5e3d 6160 f03c 645f 53ba efa2 e6bc
000000a0: 6174 5fb9 5ae7 c739 bd0e ef3a fe75 f739
000000b0: 5778 89ba 1f86 66bd de87 7a3b 63a4 1abd
000000c0: 4fd9 98bd aa06 be3a fdcb 4a3c d7d7 92b9
000000d0: abd7 0639 f897 873d 21b7 973d 1128 6339
000000e0: 74e8 ca38 b22b 503a ad04 4f3d d681 0a38
000000f0: 4e86 33b8 65f6 f4b8 871f d6bc c493 6f39
00000100: c3af 59bd 8411 6c37 e7ec 123c 6363 91b9
00000110: a4b5 3d3d 2148 d8b9 d45a 9bb9 065b 1b39
00000120: a085 be38 672e 6b38 692c 55b7 80f4 90b8
00000130: 4e8c cf36 e1f7 82bb d85c 60bc 8373 963c
00000140: 8125 75bb 569c 6fbc 2388 153d 7b5a cdb7
00000150: 3d78 adb9 b30f 0d39 88b7 f838 0b36 1c3a
00000160: 1a7c 0139 4334 c9bb f431 5cb8 8f16 81b8
00000170: 592b 7739 7c0e fb39 fa98 2c39 2e69 3338
00000180: 3f21 46bc d3cb 103d 9ca8 453b 4207 ed3c
00000190: 4983 a83b 4123 2d3b 5ca0 d0bc 44cd b93c
000001a0: 4e86 8fbd ca60 cebc 0587 1abd bb42 4c3d
000001b0: ac49 40bd 2178 033c 5ee6 273b 1df2 afb8
000001c0: 7abe c838 340c 8c39 ee03 cc3a d73e 0f3d
000001d0: cc4e d93a 64c7 01bc bcf0 d038 803c 533c
000001e0: d421 45ba d9e9 7abc 8e6e b839 bd34 2b3d
000001f0: a662 c839 8a30 8b39 05c5 003b 7226 f4b9
00000200: 0897 ab3b 09bb 6cba f087 21ba 2a00 51ba
00000210: 920f 2e3d 9d79 9db9 8215 a8ba 0767 f6bc
00000220: 7aa0 d5b9 6847 a2b8 693d 6bb9 c3f9 4fb7
00000230: 0b81 383d 1b0a 82b9 4c82 cf3c 5232 27bd
00000240: 0b0d fbbc 7c82 29b9 73d4 b3bc d8a5 5eb8
00000250: 6e92 a0bb afcf 60b8 1bcd adb8 746f 6cbb
00000260: a479 2ebd 90ef 61bd f9bf 76bc ae81 f9b8
00000270: 1cbb d2bc 1eed 2abd db1d 8d3a a89a 1ebc
00000280: 89de 8ebd 99bf 4c39 684f df3c 5b28 9439
00000290: 9234 7d3c e514 9439 ca76 f4bc 1525 04bd
000002a0: 3ec9 a93b 377b ba39 9fca 7839 7ff3 94ba
000002b0: 4c51 323a 0b81 8c39 3fe3 2439 02bc 95bb
000002c0: ca27 7a39 8ea3 bc3b 16d7 bcbc c411 4439
000002d0: 81fd af3c 08ce 403d cf88 45bd dc0c 533c
000002e0: bc1b 753c 78fc bbbb fe02 413d 67b8 8db9
000002f0: 212d 9a3d 7ef2 7bba eac4 7fba 016f 10bc
00000300: 1f09 d2ba 4827 2e3a a53b 22ba 966f 35b9
00000310: 173e fcb9 825e b5bb 8ad4 94b9 39b2 a9b5
00000320: dc6d dd39 8c6f 533a 3f78 653a 1726 463a
00000330: 9bbd 0537 7d89 6d3d 0e36 afbb a68e 833d
00000340: 706e 8f38 3f5c 2139 52b0 08bd c892 bbb9
00000350: 9476 ffb8 cd8d 2b3c 1d46 e9ba ff10 d9b9
00000360: 0f5d 53b9 9330 d8bc fa0b c5b9 1dd6 b5b9
00000370: da74 b13c 441d a4b8 609a 8539 94c7 aa3c
00000380: 3d0b 6bbd 4da9 5a3d 44c7 6fbc 1fce ac39
00000390: 9e09 02bd 8b79 573d 4faa 9939 ae8b 013d
000003a0: b740 9b3d 6c66 05bc 9bef 463b d49c 22bc
000003b0: 8ab8 f038 2ffc 8abc 6017 b339 32d9 48ba
000003c0: b55f 97b8 9843 bfb8 f81e 66bb 5caf 2038
000003d0: 0cf5 0bbb a65e b7bc c6de 4cb9 41bc 5ab8
000003e0: 2473 d33c 18df 283d d075 6f36 2dfe 1d39
000003f0: 4e12 1cbd 7f76 bb39 e642 7abd 9141 943c
-4.703651e-05 0.007298996 0.0001423221 0.00022348418 0.043975253 -4.704594e-06 -0.0012218151 -0.00022277297
-0.0023419226 0.010730511 -0.00028512214 0.025688402 0.058786333 4.976746e-05 0.041645244 0.00023583946
9.933319e-05 -0.068590134 4.0923216e-05 0.033091538 0.0027498768 0.0011440463 -0.04828386 0.00016068084
0.00015654019 5.997941e-05 -0.0007757272 4.8773996e-05 0.015467151 0.00020259681 0.009708486 0.00025790764
0.0003193667 0.00069641316 -0.00036782667 0.07146101 0.054375816 0.029342832 -0.00080632255 -0.028153865
-0.00021310292 0.00038128608 0.0018238645 0.00047199422 -0.0010488135 -0.05628025 0.0038227956 -0.037754428
-0.07463323 0.0014497836 0.012377736 -0.00028008103 0.00012859578 0.066207826 0.07407976 0.00021663333
9.6754084e-05 0.00079410814 0.05054157 3.3022683e-05 -4.2802007e-05 -0.00011680721 -0.02613808 0.00022847863
-0.053146135 1.4070774e-05 0.008967615 -0.00027730604 0.046315804 -0.0004125247 -0.00029631576 0.00014815861
9.0847956e-05 5.607158e-05 -1.2706129e-05 -6.911997e-05 6.1854143e-06 -0.0039968346 -0.013694011 0.018365627
-0.0037406387 -0.014624676 0.036506783 -2.4480038e-05 -0.00033086716 0.00013452656 0.00011859747 0.0005958981
0.0001234863 -0.0061402633 -5.249861e-05 -6.155401e-05 0.00023571904 0.00047885242 0.00016460186 4.2774882e-05
-0.012092887 0.035350632 0.0030160313 0.028934125 0.0051426035 0.0026418718 -0.02546709 0.022680886
-0.070080385 -0.025192637 -0.03772642 0.049868327 -0.04694526 0.008024246 0.0025619487 -8.3897474e-05
9.572222e-05 0.00026711973 0.0015565136 0.034972038 0.001657927 -0.007921074 9.963053e-05 0.012892842
-0.00075199944 -0.015314543 0.00035177585 0.041798342 0.00038220471 0.0002654831 0.0019648683 -0.0004656795
0.00523651 -0.0009030556 -0.0006161919 -0.0007972742 0.042495318 -0.00030035982 -0.0012823793 -0.030078424
-0.0004074609 -7.7380624e-05 -0.00022434224 -1.2396314e-05 0.04504494 -0.0002480306 0.025330685 -0.040819474
-0.030645868 -0.00016165705 -0.02195189 -5.308338e-05 -0.0049002683 -5.3599182e-05 -8.287487e-05 -0.0036077173
-0.042596474 -0.055160105 -0.015060418 -0.000118974 -0.025723986 -0.04173004 0.0010766344 -0.009680428
-0.06976039 0.00019526332 0.027259544 0.00028258827 0.015454428 0.00028244327 -0.0298418 -0.032261927
0.0051814606 0.00035568487 0.00023726605 -0.0011364071 0.00068022753 0.00026799025 0.00015724915 -0.0045695314
0.0002385668 0.005756802 -0.02305178 0.00018698635 0.021483185 0.047071487 -0.048226174 0.012881484
0.014960226 -0.0057368837 0.047121994 -0.00027031006 0.07528139 -0.0009611024 -0.00097568205 -0.008815528
-0.0016024447 0.00066434266 -0.00061886973 -0.00017303074 -0.00048111446 -0.005534948 -0.00028387114 -1.2643351e-06
0.00042234256 0.0008065633 0.0008753575 0.00075587764 7.971564e-06 0.057992447 -0.00534702 0.064236924
6.839342e-05 0.00015388521 -0.033371277 -0.0003577678 -0.000121814344 0.01047082 -0.0017797385 -0.00041402128
-0.00020157195 -0.02639035 -0.0003758369 -0.00034682537 0.021662164 -7.8255805e-05 0.00025482755 0.02084712
-0.057383765 0.053384114 -0.014634911 0.0003295997 -0.031747453 0.052606147 0.00029309324 0.03162735
0.07580703 -0.008142095 0.0030355218 -0.009925086 0.00011478465 -0.016965954 0.00034158956 -0.0007661759
-7.218068e-05 -9.12018e-05 -0.0035113674 3.831029e-05 -0.0021355776 -0.022384 -0.00019537946 -5.2150575e-05
0.02581174 0.041228384 3.5682351e-06 0.00015067375 -0.038103394 0.00035755706 -0.061098956 0.01809767

feature_gat.conv1.Ws.4.bias f4 [32]
00000000: 34a8 143b 1552 4d3b e13a 233b c1f5 263b
00000010: ae2d 473b 98e1 fc3a 20e0 483b 754a 133b
00000020: 4c96 b73a 6429 413b 0310 3e3b 8643 3f3b
00000030: 5498 3f3b 02ac 493b 9a8b 113b 6075 153b
00000040: 493a 433b c3aa d23a 69d0 363b da6a 333b
00000050: 7124 f33a aacc 493b c8a5 143b 36ab f13a
00000060: 244f 0639 5dbe 1c3b dfbf 283b a3c0 143b
00000070: cf8c 253b e341 263b 2b98 233b c973 283b
0.0022683265 0.0031329442 0.002490692 0.002547607 0.0030392217 0.0019293306 0.0030651167 0.00224748
0.0014006584 0.0029474134 0.0029001243 0.0029184534 0.0029235082 0.003077269 0.0022208453 0.0022805557
0.002978938 0.001607262 0.0027895218 0.002737692 0.0018550289 0.0030792155 0.002268182 0.0018437866
0.00012808718 0.0023917176 0.002574913 0.0022697828 0.002526093 0.0025368861 0.0024962525 0.002570378
