checkpoint/metric_model.pkl (torch, 689007 bytes, 114 tensors)

conv.conv.weight f4 [26, 26, 7]
0.08378083 0.014797334 -0.020098599 0.07280952 -0.024680827 -0.01277449 -0.07143699 0.039435085
0.023219662 -0.053336114 0.0910551 0.106161974 0.110753894 0.04690506 0.009703825 -0.0004522638
0.07875688 0.030607985 -0.041646644 0.021875676 -0.008441897 -0.045828436 -0.041008323 0.04993502
-0.06907347 -0.08085684 -0.03840869 -0.040222522 -0.0142413955 -0.040203135 0.14424989 0.041339643
-0.04785609 -0.055194456 -0.055010393 0.13209115 -0.022653533 0.17102097 -0.030317346 -0.01767067
0.04440204 0.010687503 0.03336455 0.06215137 0.03349399 -0.005934669 0.08086522 0.016340347
-0.0064344397 -0.060974758 -0.071877405 -0.032428112 -0.06358555 0.11558981 0.057739794 0.05350562
0.0477579 -0.009028445 0.023608556 -0.13759229 -0.081656426 -0.09528998 -0.02621554 -0.023237448
0.041732643 -0.002420623 0.059312183 -0.06354987 -0.06557271 -0.05668873 0.01841608 0.028059144
0.12823501 0.04244188 -0.07338186 -0.059998717 -0.046719387 0.021903388 0.028491879 0.02699482
-0.04554249 -0.10648926 -0.0124126505 -0.05762767 0.01809974 -0.06262544 -0.026605444 -0.14986667
-0.07488137 -0.022020446 -0.021442767 -0.015613756 0.029846078 -0.0035305962 -0.082238175 -0.06818681
0.009502103 -0.064948976 -0.008284163 -0.07501665 -0.07649304 -0.03209596 -0.059092194 -0.10772254
-0.075668275 -0.046086438 -0.053605095 -0.034688428 -0.050291028 -0.063797146 0.031907648 -0.012955118
0.021652848 -0.092138655 -0.13259786 -0.1301062 -0.029870346 -0.055576935 -0.014977414 -0.012188532
0.07871543 0.037011623 0.050201558 0.023798285 0.032520317 0.043653414 -0.025800465 -0.048442632
0.064530686 -0.012913052 0.04459744 0.023561863 -0.024152081 0.04314941 -0.044522732 -0.06686309
-0.114426896 -0.07532079 0.008803572 -0.011394121 -0.02398772 -0.120053716 -0.017746396 -0.13899283
-0.029697623 0.0023384427 0.028472979 0.027055927 0.047108915 -0.024223262 0.010332239 -0.118258014
-0.059744198 -0.0853887 0.065756634 -0.057139754 0.02118481 0.002297847 0.027408814 -0.007072766
0.08709492 -0.0064706733 -0.029137341 -0.0018909826 0.12548356 0.037474625 -0.017452834 0.039471876
0.076442726 -0.0019976806 0.012870332 0.07601295 0.0995464 0.038031247 0.008214585 -0.06281648
-0.09097544 -0.023158405 0.0058345986 -0.089198016 -0.01651375 0.007371576 0.002523136 -0.06542525
-0.021640068 -0.01827452 0.086007245 0.04463158 0.012328912 -0.008769831 -0.02932915 -0.075578615
0.028192036 0.062328566 -0.029004658 -0.043343097 -0.06671547 -0.036676675 0.045113236 0.06808184
-0.121481195 -0.070840284 0.016698295 -0.029870396 -0.028718714 -0.024927521 -0.029090641 -0.085410565
-0.03252328 0.017203601 0.033574536 0.009267567 -0.08249513 -0.15707693 0.034409326 0.09922443
0.043001164 -0.07867242 0.13548078 -0.012266404 0.06390595 0.12155016 0.05312512 0.06990695
0.010066072 -0.0068325144 0.06872661 0.057865664 -0.032983996 -0.06236432 -0.056601856 0.08923483
0.06051705 0.10943969 0.0947091 0.116046265 0.072000355 -0.00084989297 -0.030240053 -0.029534351
-0.015839433 -0.17373373 -0.0777251 -0.1056846 -0.09063659 -0.003742289 -0.054999247 0.04204535
-0.045040436 0.016322615 -0.02878375 -0.033276785 -0.013642351 -0.053076793 -0.009444924 -0.056101404
00000000: 4995 ab3d 8470 723c d1a5 a4bc 281d 953d
00000010: 722f cabc 184c 51bc 8e4d 92bd af86 213d
00000020: 2937 be3c f876 5abd 197b ba3d 736b d93d
00000030: f0d2 e23d 851f 403d cbfc 1e3c d21d edb9
00000040: 494b a13d 99bd fa3c ac95 2abd 9e34 b33c
00000050: e24f 0abc 99b6 3bbd 58f8 27bd aa88 4c3d
00000060: 6476 8dbd 4598 a5bd 6e52 1dbd 5fc0 24bd
00000070: be54 69bc 0bac 24bd 3eb6 133e c253 293d
00000080: bf04 44bd 9513 62bd 9452 61bd e742 073e
00000090: e793 b9bc 1f20 2f3e 155c f8bc 15c2 90bc
000000a0: eade 353d a31a 2f3c 44a9 083d 6f92 7e3d
000000b0: fe30 093d 9d77 c2bb aa9c a53d 31dc 853c
000000c0: fed7 d2bb abc0 79bd 7634 93bd 57d3 04bd
000000d0: 2439 82bd 5aba ec3d 9080 6c3d b628 5b3d
000000e0: ca9d 433d 0bec 13bc bb66 c13c fee4 0cbe
000000f0: 7c3b a7bd 6527 c3bd f9c1 d6bc 765c bebc
00000100: d9ef 2a3d 51a3 1ebb 55f1 723d 6f26 82bd
00000110: fc4a 86bd 7132 68bd 52dd 963c 4adc e53c
00000120: 0a50 033e 89d7 2d3d 3b49 96bd 37c1 75bd
00000130: d45c 3fbd bc6e b33c cd67 e93c 3e24 dd3c
00000140: c38a 3abd 0b17 dabd 6e5e 4bbc fe0a 6cbd
00000150: e845 943c c441 80bd a9f3 d9bc a676 19be
00000160: 675b 99bd 3964 b4bc bea8 afbc d7d0 7fbc
00000170: c37f f43c 9361 67bb 7d6c a8bd 87a5 8bbd
00000180: b5ae 1b3c f803 85bd 4cba 07bc 54a2 99bd
00000190: 62a8 9cbd 0e77 03bd a80a 72bd a39d dcbd
000001a0: f8f7 9abd 22c5 3cbd 0491 5bbd 7415 0ebd
000001b0: f7fd 4dbd 14a8 82bd 98b1 023d b441 54bc
000001c0: 5061 b13c 31b3 bcbd bcc7 07be 8f3a 05be
000001d0: a8b2 f4bc a4a4 63bd d463 75bc 69b2 47bc
000001e0: 8e35 a13d 8099 173d 26a0 4d3d 9ff4 c23c
000001f0: 0634 053d eccd 323d 7f5b d3bc c86b 46bd
00000200: aa28 843d 4491 53bc ceab 363d cf04 c13c
00000210: 96da c5bc 70bd 303d 785d 36bd 84ef 88bd
00000220: a658 eabd c941 9abd db3c 103c 68ae 3abc
00000230: e581 c4bc b9de f5bd e460 91bc 2354 0ebe
00000240: 6e48 f3bc 8f40 193b 2a40 e93c 64a4 dd3c
00000250: 47f5 403d dd6f c6bc 8d48 293c 4231 f2bd
00000260: 55b6 74bd 45e0 aebd 6aab 863d 600b 6abd
00000270: c48b ad3c 7a97 163b 7388 e03c a9c2 e7bb
00000280: d25e b23d f107 d4bb 6fb1 eebc d9da f7ba
00000290: c37e 003e fe7e 193d 3ff9 8ebc 43ad 213d
000002a0: 018e 9c3d 85eb 02bb 16de 523c adac 9b3d
000002b0: fcde cb3d a7c6 1b3d 7796 063c eda5 80bd
000002c0: 5551 babd b2b6 bdbc 2930 bf3b 73ad b6bd
000002d0: d847 87bc 438d f13b 335b 253b acfd 85bd
000002e0: 8346 b1bc 72b4 95bc 9124 b03d 9bcf 363d
000002f0: 34ff 493c 56af 0fbc b043 f0bc f6c8 9abd
00000300: fcf2 e63c 3d4c 7f3d 2d9b edbc 8888 31bd
00000310: 1fa2 88bd 483a 16bd a8c8 383d 7e6e 8b3d
00000320: 22cb f8bd b614 91bd ddca 883c c3b2 f4bc
00000330: 8243 ebbc cd34 ccbc 7f4f eebc bceb aebd
00000340: 2137 05bd 91ee 8c3c 7485 093d fed6 173c
00000350: 35f3 a8bd c6d8 20be cbf0 0c3d 2e36 cb3d
00000360: fd21 303d 011f a1bd 79bb 0a3e 07f9 48bc
00000370: 1fe1 823d 4aef f83d ba99 593d 602b 8f3d
00000380: 2bec 243c 49e3 dfbb 89c0 8c3d 8c04 6d3d
00000390: 3a1a 07bd bb71 7fbd 59d7 67bd c0c0 b63d
000003a0: bae0 773d eb21 e03d d8f6 c13d aaa9 ed3d
000003b0: ec74 933d 5acb 5eba fdb9 f7bc 06f2 f1bc
000003c0: b3c1 81bc 41e7 31be 562e 9fbd 2b71 d8bd
000003d0: ad9f b9bd 3141 75bb e446 61bd bf37 2c3d
000003e0: 527c 38bd 01b7 853c e6cb ebbc 3d4d 08bd
000003f0: 2b84 5fbc 0d67 59bd e2be 1abc 96ca 65bd

conv.conv.bias f4 [26]
-0.0132361 0.057724785 -0.07598251 -0.035518005 0.056031927 -0.012891185 0.017861774 -0.026041122
0.04415312 -0.049684145 -0.044459667 -0.032954387 -0.050362844 -0.10788002 -0.050527874 0.022505583
0.0045793154 0.06889283 -0.0025710533 0.029324204 -0.02424699 0.013415979 0.0860113 -0.06622242
-0.030609334 0.029960332
00000000: 3adc 58bc d370 6c3d b89c 9bbd 547b 11bd
00000010: bc81 653d 8c35 53bc db52 923c 3154 d5bc
00000020: e7d9 343d 9a81 4bbd 571b 36bd 2efb 06bd
00000030: 4549 4ebd 33f0 dcbd 51f6 4ebd a15d b83c
00000040: 150e 963b af17 8d3d 1e7f 28bb 5039 f03c
00000050: a0a1 c6bc b2ce 5b3c b126 b03d 9f9f 87bd
00000060: 6dc0 fabc 5f6f f53c

feature_gat.conv1.Ws.0.weight f4 [32, 30]
-0.04981069 0.04517251 -0.0007297709 0.019912075 0.11325239 0.10792034 0.10360083 -0.00014304784
-0.0018632913 0.002184631 0.07214067 -0.000980757 -0.00071428117 -0.00080075365 -0.000787755 0.005136856
-0.11639609 0.07224775 -0.00027997207 -0.020030353 -0.0009645838 -0.02135669 -0.07903159 -4.5623587e-05
-0.00025203614 -0.0045398744 -2.2262713e-05 -4.773242e-05 0.0012464342 -0.06188194 -0.000595159 -0.0008032709
-0.061390754 0.092746004 -0.0037681595 0.05689248 0.05020939 -0.0005517187 0.044760022 -0.04487359
-0.00075358874 -0.06307446 -0.017083278 -0.00038333135 0.044882156 -0.0151623115 -0.001205664 -0.011207065
-0.0003142762 -0.065263934 -0.05490332 -0.00024535414 0.104694724 -0.0002462939 -0.001288118 0.028957183
0.043418072 0.031188022 -0.00018469483 -0.00032719885 0.024464518 0.008779671 0.04782493 0.039320953
-0.0006167817 0.071062565 -0.0005416733 0.11587542 0.11558091 0.068630174 0.027893977 0.05435466
-0.00447771 -0.0016584698 -0.00080469827 -0.0073983264 0.04268786 -0.0005592508 -0.0005175569 -0.003374835
-0.08251939 -0.00036253675 0.08049579 0.027152102 0.057146788 0.03226218 0.0017511084 -0.00017311721
-0.04203948 0.042501424 -0.035564944 -0.017592266 -0.00011624675 0.009018415 -0.008018788 0.020740397
-0.09666044 -0.00086007785 0.0014529206 -0.0007924976 -0.012511566 -0.03017621 0.05615162 -0.0012793153
-0.0027504824 0.10371133 -0.0007481188 -0.0007508757 -0.00063824165 0.06521417 -0.003247976 -0.00010419675
-0.0035122226 -0.0036559345 -0.00021396646 9.9100114e-05 0.0075136223 -0.045502044 0.012733112 0.05172398
-0.0007474768 -0.0009782349 -0.0010751563 -0.09075316 0.040856473 -0.00053180224 -0.0005509231 0.0029921818
0.0006384585 -0.0037383845 -0.042587362 -0.1058073 -0.067708805 -0.0012787147 -0.052282605 -0.00085735513
-0.008607527 0.011273913 0.030341536 0.06895581 -0.026413964 -0.036256302 -0.00057640683 -0.0004907215
0.045697853 -0.09159678 0.09210084 -0.033860765 -0.05875708 -0.00038721535 -0.0026355095 -0.021659222
0.011811143 0.049706534 0.010298756 -0.00033583777 -0.00069132674 -0.010033442 0.10088706 -0.009817929
-0.078670174 0.06976661 -0.0012248616 0.027933303 -0.0010033558 0.05163952 -0.035665777 0.016130397
0.051108275 -0.0003429614 0.026095362 1.9295778e-05 -0.090501875 0.0011709252 -0.052561395 0.00024830885
-0.08592368 -0.0047051846 -0.0005655878 -0.0013977471 -0.1112569 -0.0057519255 -0.09308242 -0.06700749
-0.115358315 -0.01338679 -0.00077296357 0.085376024 -0.034723144 -0.047472186 -0.061043005 0.0956641
-0.0011546252 -0.0010486876 0.009362863 -0.015364671 -0.00066269096 0.089937225 0.0077639525 -0.051421776
-0.0005288676 -0.00016429507 -0.00030699087 -0.0034262664 0.033921495 0.00042915333 -0.074760355 -0.00037289446
-0.106754854 -0.00018057098 -0.112605184 -0.0008920775 -0.0010429397 -0.08461873 -0.00076668477 -7.945117e-06
-0.01186643 -0.00075223605 0.007528627 -0.00080815074 -0.11022099 -0.0011795112 -0.0041443547 -0.0011102557
-0.058140524 -0.032658678 -0.00066663447 0.01282288 -0.00064508634 -0.0005166366 -0.00020399978 -0.052992735
-0.00021859692 6.4205844e-05 -0.0003696223 0.0018430207 -0.00047025105 0.010675779 -0.00043905026 -0.0023330923
0.07026792 0.05655164 0.009108444 0.04012585 0.0043799924 0.080557294 0.076454416 -0.06076533
-0.09776662 -0.0073797447 0.04832137 0.0857198 -0.0013566334 -0.043232497 -0.0044116457 0.0032893848
00000000: 4b06 4cbd cf06 393d 194e 3fba a61e a33c
00000010: def0 e73d 5705 dd3d ac2c d43d 1dff 15b9
00000020: ae39 f4ba 072c 0f3b 7dbe 933d be8c 80ba
00000030: 993e 3bba abe9 51ba 5881 4eba 1253 a83b
00000040: 1361 eebd a1f6 933d 37c9 92b9 b216 a4bc
00000050: 20dc 7cba 3af4 aebc 50db a1bd f45b 3fb8
00000060: b823 84b9 3ac3 94bb d0c0 bab7 4c34 48b8
00000070: 645f a33a eb77 7dbd 7204 1cba 9992 52ba
00000080: df74 7bbd 9ef1 bd3d 3af3 76bb 1708 693d
00000090: 5da8 4d3d 37a1 10ba 4956 373d 5fcd 37bd
000000a0: 7c8c 45ba 2f2d 81bd 3bf2 8bbc ddf9 c8b9
000000b0: 5ad6 373d 586b 78bc 5f07 9eba d69d 37bc
000000c0: 70c5 a4b9 19a9 85bd 4ee2 60bd e0a2 80b9
000000d0: 306a d63d 0221 81b9 11d6 a8ba 9d37 ed3c
000000e0: 26d7 313d 067e ff3c a4aa 41b9 e38b abb9
000000f0: d069 c83c 9cd8 0f3c 13e4 433d 020f 213d
00000100: 85af 21ba 4089 913d 14ff 0dba 1850 ed3d
00000110: afb5 ec3d fa8d 8c3d e981 e43c fea2 5e3d
00000120: c1b9 92bb 0361 d9ba 63f2 52ba a96d f2bb
00000130: 77d9 2e3d b09a 12ba a8ac 07ba 562c 5dbb
00000140: edff a8bd dc12 beb9 fada a43d 166e de3c
00000150: c012 6a3d 5925 043d 7385 e53a cc86 35b9
00000160: 9731 2cbd f915 2e3d 8cac 11bd a81d 90bc
00000170: 80c9 f3b8 f9c1 133c 3c61 03bc c4e7 a93c
00000180: e9f5 c5bd d976 61ba ed6f be3a 9dbf 4fba
00000190: 50fd 4cbc 1934 f7bc 3eff 653d b3ae a7ba
000001a0: 7041 34bb 9b66 d43d 671d 44ba 6ad6 44ba
000001b0: ac4f 27ba 028f 853d ffdb 54bb 3484 dab8
000001c0: 512d 66bb 6798 6fbb 2f5c 60b9 f8d3 cf38
000001d0: d534 f63b 5a60 3abd 8b9e 503c 86dc 533d
000001e0: 52f2 43ba 1e38 80ba 42ec 8cba cbdc b9bd
000001f0: 1e59 273d a568 0bba d36b 10ba 7b18 443b
00000200: 3a5e 273a afff 74bb 1670 2ebd 7fb1 d8bd
00000210: eaaa 8abd 8c9a a7ba 4926 56bd 21c0 60ba
00000220: 9606 0dbc 38b6 383c d08e f83c b438 8d3d
00000230: 1962 d8bc 7d81 14bd 021a 17ba c3a3 00ba
00000240: ac2d 3b3d 1897 bbbd 5d9f bc3d 96b1 0abd
00000250: 44ab 70bd 2a03 cbb9 83b8 2cbb ae6e b1bc
00000260: 8683 413c 1499 4b3d 1dbc 283c 6213 b0b9
00000270: 273a 35ba 4e63 24bc e09d ce3d 61db 20bc
00000280: d41d a1bd cce1 8e3d 898b a0ba 62d4 e43c
00000290: 0983 83ba f683 533d 4716 12bd e523 843c
000002a0: e956 513d 80cf b3b9 f1c5 d53c 5edd a137
000002b0: 0c59 b9bd bb79 993a 9e4a 57bd 732f 8239
000002c0: c1f8 afbd f32d 9abb f443 14ba 9c34 b7ba
000002d0: a8da e3bd a67a bcbb ffa1 bebd 393b 89bd
000002e0: fb40 ecbd 4454 5bbc b5a0 4aba a0d9 ae3d
000002f0: db39 0ebd 3272 42bd 3b08 7abd 8aeb c33d
00000300: cb56 97ba 1e74 89ba b266 193c 1abc 7bbc
00000310: 70b8 2dba 0231 b83d c168 fe3b a49f 52bd
00000320: b4a3 0aba 9f46 2cb9 9ef3 a0b9 368b 60bb
00000330: 44f1 0a3d fcff e039 f51b 99bd 0c81 c3b9
00000340: 4aa2 dabd a757 3db9 8c9d e6bd 4fda 69ba
00000350: 40b3 88ba 964c adbd 58fb 48ba 054c 05b7
00000360: 6a6b 42bc b531 45ba b3b2 f63b 14da 53ba
00000370: 8bbb e1bd d499 9aba 5ecd 87bb 0086 91ba
00000380: c224 6ebd 1bc5 05bd 15c1 2eba 0f17 523c
00000390: 031b 29ba e56e 07ba c6e8 55b9 e90e 59bd
000003a0: 2a37 65b9 40a6 8638 dec9 c1b9 8391 f13a
000003b0: 078c f6b9 76e9 2e3c 5430 e6b9 cbe6 18bb
000003c0: a1e8 8f3d b1a2 673d 953b 153c 015b 243d
000003d0: 0a86 8f3b 39fb a43d 2294 9c3d 11e5 78bd
000003e0: de39 c8bd c9d1 f1bb a1ec 453d dd8d af3d
000003f0: 10d1 b1ba 8f14 31bd 918f 90bb b892 573b

feature_gat.conv1.Ws.0.bias f4 [32]
0.0027766034 0.0036259415 0.0026511943 0.004836819 0.0034137112 0.0017955548 0.0021334772 0.0015161538
0.0039836653 0.003152605 0.0032262185 0.0022510928 0.0013259727 0.0021918453 0.0027225895 0.0013758163
0.0026146604 0.004317265 0.0020416656 0.00224323 0.0020086407 0.003221237 0.0026240929 0.0032560364
0.0033257802 0.0035890716 0.0027054152 0.0023442148 0.0032202795 0.0035213558 0.002375704 0.0028789267
00000000: adf7 353b 34a1 6d3b a9bf 2d3b 2e7e 9e3b
00000010: 92b8 5f3b d258 eb3a cfd1 0b3b aeb9 c63a
00000020: 6889 823b ef9b 4e3b f76e 533b 1287 133b
00000030: 43cc ad3a 10a5 0f3b 796d 323b bc54 b43a
00000040: b95a 2b3b d877 8d3b 77cd 053b 2703 133b
00000050: 66a3 033b 641b 533b f9f8 2b3b 3a63 553b
00000060: 55f5 593b a136 6b3b 564d 313b 66a1 193b
00000070: 530b 533b 8cc6 663b b3b1 1b3b 60ac 3c3b

feature_gat.conv1.Ws.1.weight f4 [32, 30]
0.002146347 -0.0012764719 0.035623018 -0.03258055 -0.07547923 -0.00067566126 0.0038653258 0.004611234
-0.0010493051 0.10186382 -0.001366537 0.00013247812 -0.0064715915 -0.0017033839 -0.0022326233 -0.060736503
-0.026146062 -0.018423049 -0.0007389629 -0.0025171412 0.0905005 0.00027935414 -0.06653252 -0.00050902733
0.0739804 -0.0003435872 -0.00039127265 -0.0005702084 -0.000785747 -0.024831332 -0.0011748098 -0.0009694202
0.05335774 -0.061207466 -0.0005199723 -0.0013446116 -0.00020172868 -7.916537e-05 -0.0014992737 -0.0008430899
-0.0011043212 -0.013852125 0.017664969 0.085243575 -0.0022621965 -0.0007623457 -0.0011349807 0.030566294
-0.0001336509 -0.08292592 -0.0005530853 0.06451023 0.0003973862 -0.0006025842 0.00045554148 0.011555173
0.072818846 -0.000286007 0.007935528 0.010442458 0.082251035 0.03615267 -0.06578122 -0.06611788
-0.067002185 0.019590035 -0.007955938 0.008936289 -0.0010887373 -0.0026380243 0.044059493 -0.0015013113
-0.0111703705 -0.0013534984 -0.02393707 -0.105568655 -0.0009179447 -0.00078148145 -0.0138107855 0.08028044
-0.00085091183 -0.00089614326 0.054567523 -0.00049353397 -0.0007724768 -0.00066461996 -0.086953595 0.11009383
-0.00053734856 -0.0004946534 -0.042450882 0.04802476 -0.06356365 -0.0015513714 -0.023666367 -0.006704214
-0.00086813717 -0.113643676 -0.109549925 -0.0009617504 -0.0011041104 -0.0004951319 -0.0017653535 -0.001277066
-0.00078455376 -0.0008727222 -0.019946527 0.04531103 -0.0006650673 -0.028361548 -0.00058870116 -0.039447945
-0.014877761 0.04709764 -0.00060384814 0.0014608911 -5.9943395e-05 -0.00035958583 -2.920097e-05 -0.036722932
-0.11561882 0.032922085 -0.0008292573 0.015028232 0.043194387 0.00063083845 -0.0013212175 -0.0009006226
-0.0007239859 -0.0005714454 -0.00073883234 -0.05534259 -0.012320259 0.038017303 -0.00065579615 -0.0042171655
0.02735379 -0.00093663245 -0.0022317725 0.03167955 -0.05692065 -0.0056605507 0.04455566 -0.00031724514
-0.0022539422 0.063254446 -0.00010684291 -0.098878644 -0.044463016 -0.0005786684 -0.0005698355 -0.04680294
-0.001935907 -0.0014376327 -0.09589737 -0.09709011 -0.0010903467 -0.0010213742 -0.10598718 -0.09523274
0.06430932 0.11442962 -0.0034944844 0.11401796 0.031039134 0.08101184 -0.0027635347 -0.00091699255
0.014013819 -0.0005974427 -0.05773707 0.015152473 0.10739987 -0.022854349 -0.0942607 -0.101575114
-0.022120072 -0.002739499 -0.012383815 -0.07842262 0.019210935 0.107976936 0.06580041 0.01869149
0.00087769196 -0.0018532255 -0.060727354 -0.016652176 0.0013700291 -0.00093447807 -0.0009007188 -0.019101828
-0.005104488 -0.0029588952 -0.00090452156 -0.000856696 -0.00043033948 -0.001027998 -0.00045009458 -0.0235083
0.003815062 -0.066994384 -0.00057789136 -0.101827435 -0.013628613 0.104485795 -0.00022912817 -0.00022209295
0.005862684 -0.0754081 -0.0007703241 -0.0006198593 -0.00088384445 -0.0010517631 -0.03651717 -0.09087284
-0.00027230577 0.06567494 -0.0036283806 -0.0005967495 0.02089852 -0.1095746 0.079665765 0.067995526
-0.0033171077 0.07623369 0.029855903 0.06493865 0.0749247 -0.0006551103 0.0094854515 -0.00918829
-0.00045258264 0.10289904 -0.0007468113 -0.00044420303 -0.006786798 -6.0898496e-05 -0.0003751476 0.04589596
-0.00079453026 0.002585861 0.016028035 -0.0013615863 -0.099358134 0.035305686 -0.024306808 0.001949875
-0.046105657 -0.0011263028 -0.0013637169 -0.0852313 0.0011770595 -0.0015792605 -0.0029239908 -0.001228999
00000000: baa9 0c3b 4a4f a7ba 71e9 113d 2f73 05bd
00000010: db94 9abd dc1e 31ba 6851 7d3b d619 973b
00000020: d688 89ba fa9d d03d 5f1d b3ba d3e9 0a39
00000030: a50f d4bb 1444 dfba 3451 12bb d7c6 78bd
00000040: 4430 d6bc efeb 96bc f6b6 41ba 9ff6 24bb
00000050: 5358 b93d 4776 9239 3442 88bd 3f70 05ba
00000060: 0983 973d 7e23 b4b9 ba23 cdb9 0a7a 15ba
00000070: 97fa 4dba 146b cbbc 13fc 99ba b020 7eba
00000080: a58d 5a3d aeb4 7abd c04e 08ba ae3d b0ba
00000090: 2187 53b9 9605 a6b8 4783 c4ba ce02 5dba
000000a0: dfbe 90ba 06f4 62bc 20b6 903c 2f94 ae3d
000000b0: 5c41 14bb 27d8 47ba a2c3 94ba 2a66 fa3c
000000c0: a424 0cb9 11d5 a9bd edfc 10ba f11d 843d
000000d0: 4658 d039 bef6 1dba bed5 ee39 e951 3d3c
000000e0: 0c22 953d 36f3 95b9 0404 023c d816 2b3c
000000f0: 3b73 a83d d214 143d 4eb8 86bd d068 87bd
00000100: 7138 89bd 487b a03c 9f59 02bc 8369 123c
00000110: f6b3 8eba b4e2 2cbb ba77 343d a6c7 c4ba
00000120: ee03 37bc df67 b1ba ad17 c4bc 6134 d8bd
00000130: 3aa2 70ba 55dc 4cba a246 62bc 126a a43d
00000140: ba0f 5fba 28eb 6aba 3282 5f3d 8160 01ba
00000150: 0a80 4aba e439 2eba ba14 b2bd e078 e13d
00000160: dadc 0cba a1ab 01ba fae0 2dbd 9cb5 443d
00000170: a92d 82bd 6357 cbba f8df c1bc 06af dbbb
00000180: b393 63ba 04be e8bd b65b e0bd fa1d 7cba
00000190: ccb7 90ba bdcb 01ba 6f63 e7ba 3963 a7ba
000001a0: 83aa 4dba 65c7 64ba e666 a3bc 0f98 393d
000001b0: e957 2eba 7a56 e8bc 1153 1aba 2b94 21bd
000001c0: dac1 73bc 74e9 403d 904b 1eba 5f7b bf3a
000001d0: bb6b 7bb8 cb86 bcb9 9bf4 f4b7 c96a 16bd
000001e0: 8fc9 ecbd 4fd9 063d 8462 59ba f938 763c
000001f0: 99ec 303d da5e 253a b42c adba c217 6cba
00000200: dfc9 3dba 0dcd 15ba 33ae 41ba e9ae 62bd
00000210: e9da 49bc 08b8 1b3d bce9 2bba 2630 8abb
00000220: 0e15 e03c 5788 75ba ee42 12bb 6ac2 013d
00000230: a125 69bd 247c b9bb ff7f 363d ec53 a6b9
00000240: e0b6 13bb 8c8b 813d da10 e0b8 e380 cabd
00000250: da1e 36bd c7b1 17ba 0361 15ba 71b4 3fbd
00000260: 43be fdba f36e bcba d765 c4bd 2ed7 c6bd
00000270: f7e9 8eba a2df 85ba ce0f d9bd 6209 c3bd
00000280: 9bb4 833d 145a ea3d b803 65bb 4082 e93d
00000290: c845 fe3c 89e9 a53d 6b1c 35bb 5462 70ba
000002a0: 389a 653c b39d 1cba b57d 6cbd 1442 783c
000002b0: 77f4 db3d 0b39 bbbc c10b c1bd 9d06 d0bd
000002c0: 2735 b5bc 2b89 33bb 7ce5 4abc 0a9c a0bd
000002d0: 4060 9d3c 0323 dd3d 5ec2 863d e51e 993c
000002e0: e914 663a eee7 f2ba 3fbd 78bd 256a 88bc
000002f0: 8c92 b33a c3f7 74ba 371e 6cba 707b 9cbc
00000300: 8d43 a7bb 06ea 41bb 6a1d 6dba e593 60ba
00000310: 309f e1b9 e4bd 86ba acfa ebb9 7a94 c0bc
00000320: 1f06 7a3b 5a34 89bd a27d 17ba e78a d0bd
00000330: 8c4a 5fbc a6fc d53d 2042 70b9 9fe1 68b9
00000340: c21b c03b 906f 9abd 93ef 49ba 0e7e 22ba
00000350: ccb1 67ba 50db 89ba 0793 15bd 8a1b babd
00000360: 43c4 8eb9 9580 863d 20ca 6dbb 2e6f 1cba
00000370: 5f33 ab3c a668 e0bd ce27 a33d 3d41 8b3d
00000380: d563 59bb 6920 9c3d 5e94 f43c 8efe 843d
00000390: 1f72 993d b5bb 2bba de68 1b3c 7b8a 16bc
000003a0: 9d48 edb9 bbbc d23d a8c5 43ba ece3 e8b9
000003b0: ca63 debb 436d 7fb8 75af c4b9 67fd 3b3d
000003c0: 0648 50ba 8c77 293b 3a4d 833c 4177 b2ba
000003d0: 477c cbbd b29c 103d 121f c7bc f392 ff3a
000003e0: 49d9 3cbd 73a0 93ba bfbe b2ba bf8d aebd
000003f0: 9047 9a3a 30ff ceba 6da0 3fbb 5d16 a1ba

feature_gat.conv1.Ws.1.bias f4 [32]
0.002710734 0.0013536222 0.0029467961 0.0023078958 0.0022138485 0.0031599877 0.0030305344 0.002233619
0.003404379 0.0031695238 0.0034924995 0.0035905158 0.003190564 0.0013233367 0.0024971922 0.004073004
0.002397918 0.004175901 0.0022517217 0.0021327385 0.0014723625 0.003917022 0.0028531621 0.0018104038
0.0030855876 0.002395231 0.0022554589 0.0027217872 0.0014079012 0.0028452796 0.002153826 0.0034116725
00000000: 92a6 313b 066c b13a 091f 413b 1140 173b
00000010: 3716 113b cc17 4f3b ee9b 463b e961 123b
00000020: 001c 5f3b c9b7 4f3b 6be2 643b dc4e 6b3b
00000030: c818 513b d073 ad3a efa7 233b d576 853b
00000040: 6326 1d3b ffd5 883b 9f91 133b 6ac5 0b3b
00000050: 4afc c03a 5d5a 803b 1efc 3a3b 124b ed3a
00000060: 9237 4a3b 4ff9 1c3b 52d0 133b 0360 323b
00000070: 5389 b83a df77 3a3b 3427 0d3b 5e96 5f3b

feature_gat.conv1.Ws.2.weight f4 [32, 30]
-0.00011924392 -0.08172559 -0.10230291 0.0015481632 -0.06615216 0.027608654 -0.013474348 -0.00038172898
0.01727609 -0.11142684 -0.107680604 -0.00081441423 -0.0010535923 0.003328955 7.921667e-05 -0.0003626938
0.0005240965 0.07232095 8.110535e-05 0.026534569 -0.011516629 0.06384454 0.0002992231 0.009635482
-0.065128624 -0.015985087 -0.013746154 0.0083865905 -0.00033669974 -0.09042851 0.11035945 -0.00047217146
0.09174277 -0.0008364664 -0.0005820345 0.039661363 -0.029232474 0.09930983 -0.022771683 -0.0006691815
-0.023802502 -0.026147652 0.050336543 -0.00092854566 -0.00094550377 0.05289786 0.109836504 -0.08552081
-0.0003691035 -0.00066332123 0.10337246 -0.0015295473 -0.0007256214 -0.015157153 -0.0004832995 -0.00038082595
9.6759526e-05 0.00011737194 -0.033523854 -0.0015645361 -0.0004587758 -0.00038720973 0.0022475591 0.003465627
-0.047907308 -0.000115265495 -0.00040436882 0.11552062 0.03889491 -0.043938436 -0.010078406 -0.046395354
-0.0008764884 -0.07791029 0.0029415158 -0.0025775528 -0.00608011 -0.0005204696 -0.0006221647 0.04595489
0.086638145 -0.08326293 0.0018434366 -1.6007301e-05 0.006982882 -0.0009179847 -4.727431e-05 8.8733905e-05
-0.00016169455 0.0049229693 0.0005990244 -0.00086150586 -0.05692267 -0.013088101 -0.012348933 -0.11500134
0.10264609 -0.0025108897 -0.026953196 -0.0026490923 0.009089725 -0.020736739 -0.06703929 -0.044698212
-0.0007765457 -0.00026847137 -0.085971095 -0.031131562 -0.07579097 -0.0004336759 0.001976028 -0.00025604462
-0.0005336708 -0.009074005 0.00027167943 -0.00023899497 -5.144501e-05 -0.00033058267 -0.00013267333 -0.0003381332
0.063338794 0.08229572 -0.000100641875 -0.0003041207 -0.029304558 -0.04707197 0.06618724 -0.00045610036
-0.0059223943 0.0069226725 0.0011581613 -5.0783543e-05 0.0014331943 -0.0010668575 -0.042047348 -0.08405594
0.10861102 0.033923943 -0.05424148 0.052943908 -0.09825233 0.026656618 0.032704107 0.019970918
0.0008928539 -0.02032613 -0.0031515395 -0.0001136009 0.00047104145 0.07768392 -0.00057437987 0.00096454436
-0.04625054 -0.0007037483 0.01572439 -0.00018187895 0.055046078 -0.057764165 -0.02735429 -0.00024113027
-0.00050206867 -0.07198264 0.0010762918 -0.0007339089 -0.0008534748 -0.0006416755 -0.03198935 -0.02837296
-0.05749967 0.03942359 -0.010283976 0.08503679 -0.00052454823 -0.00035637247 0.101755746 -0.008934762
-0.09968234 2.366525e-05 -0.038788334 0.009692582 0.0010092164 0.040068235 -0.0008260945 -0.024069812
-0.09044641 -0.022689275 0.08346359 -0.00034188855 -0.00069039257 -0.00038619534 -0.0057564178 0.06322277
-0.0006546161 -0.00429988 0.092862 0.016539529 0.008424935 0.03787668 -0.021716777 -0.00037362002
-0.0003919599 -0.00016330591 0.0034051032 -0.00040587247 0.110449456 7.1058625e-05 0.013269933 -3.9731607e-05
-0.1044111 -0.016270136 -0.06590124 -0.0006842821 -0.027998988 -0.05600714 0.00015617174 -0.07780722
-0.009209708 -0.023790078 0.0049944823 0.090113215 0.00026022893 -0.011447157 0.04641338 0.09319558
-0.00032203348 0.042075813 -9.0159505e-05 -0.033561565 8.46859e-05 -0.057276074 9.7584874e-05 0.010100025
-0.111266054 -0.0010035451 -0.00018448933 0.057390258 -0.009424736 -3.0311066e-05 -0.00038513308 -0.0058967466
-0.0018781782 0.00020122985 0.0003360578 0.0003815283 -2.9132147e-05 0.00012070753 -0.0040752413 0.018121913
0.038150046 -3.3956407e-05 -0.00014860049 -0.10792331 -0.04049173 -0.0005911154 -0.00030457994 9.049156e-05
00000000: 9812 fab8 bf5f a7bd 3084 d1bd bdeb ca3a
00000010: c97a 87bd 8b2b e23c 83c3 5cbc cc22 c8b9
00000020: 9686 8d3c c133 e4bd a687 dcbd 6a7e 55ba
00000030: b118 8aba 992a 5a3b 2021 a638 f027 beb9
00000040: 8563 093a 021d 943d 1a17 aa38 065f d93c
00000050: 3eb0 3cbc edc0 823d 0be1 9c39 24de 1d3c
00000060: 2862 85bd 28f3 82bc 8c37 61bc e967 093c
00000070: 1387 b0b9 9532 b9bd 2304 e23d c88d f7b9
00000080: a2e3 bb3d 4f46 5bba ad93 18ba f473 223d
00000090: f178 efbc f462 cb3d ae8b babc 036c 2fba
000000a0: 77fd c2bc 9a33 d6bc b12d 4e3d a569 73ba
000000b0: afdb 77ba 6dab 583d f6f1 e03d 8925 afbd
000000c0: 3c84 c1b9 bce2 2dba f1b4 d33d 177b c8ba
000000d0: a137 3eba b555 78bc 5c63 fdb9 98a9 c7b9
000000e0: 60eb ca38 9525 f638 4f50 09bd 1f11 cdba
000000f0: d887 f0b9 6902 cbb9 c94b 133b 931f 633b
00000100: 743a 44bd b1ba f1b8 7701 d4b9 1396 ec3d
00000110: 4550 1f3d caf8 33bd e61f 25bc 0e09 3ebd
00000120: 24c4 65ba 6e8f 9fbd 72c6 403b 29ec 28bb
00000130: a93b c7bb 2070 08ba c418 23ba 323b 3c3d
00000140: 576f b13d c185 aabd 789f f13a 6b47 86b7
00000150: a9d0 e43b e9a4 70ba 6748 46b8 a716 ba38
00000160: 8d8c 29b9 dc50 a13b d907 1d3a aed6 61ba
00000170: bf27 69bd 796f 56bc 2e53 4abc d385 ebbd
00000180: 1d38 d23d bd8d 24bb f3cc dcbc 659c 2dbb
00000190: 12ed 143c 18e0 a9bc e54b 89bd 7915 37bd
000001a0: 1a91 4bba 9ec1 8cb9 9d11 b0bd 9e07 ffbc
000001b0: 4c38 9bbd fe5e e3b9 4080 013b ba3d 86b9
000001c0: 0be6 0bba 23ab 14bc 3270 8e39 b99a 7ab9
000001d0: a9c6 57b8 0e52 adb9 3a1e 0bb9 7847 b1b9
000001e0: c5b7 813d a98a a83d b20f d3b8 6472 9fb9
000001f0: 1d10 f0bc 8ace 40bd 2d8d 873d c120 efb9
00000200: a510 c2bb 96d7 e23b 72cd 973a 6a00 55b8
00000210: 05da bb3a ccd5 8bba d739 2cbd 8525 acbd
00000220: 746f de3d d5f3 0a3d 502c 5ebd b6db 583d
00000230: 8538 c9bd fb5e da3c bef4 053d 0d9a a33c
00000240: 690e 6a3a fc82 a6bc 0f8a 4ebb 053d eeb8
00000250: 1df6 f639 bf18 9f3d fb91 16ba 7ad9 7c3a
00000260: 3571 3dbd c07b 38ba 70d0 803c c2b6 3eb9
00000270: ff77 613d 1e9a 6cbd 1b16 e0bc ead7 7cb9
00000280: 429d 03ba a26b 93bd 5c12 8d3a cb63 40ba
00000290: b9bb 5fba 1d36 28ba 4407 03bd 696e e8bc
000002a0: c684 6bbd a17a 213d 1f7e 28bc c527 ae3d
000002b0: d681 09ba 81d7 bab9 5165 d03d 1c63 12bc
000002c0: 4126 ccbd bd84 c637 84e0 1ebd a3cd 1e3c
000002d0: af47 843a 971e 243d 438e 58ba 0e2e c5bc
000002e0: f83b b9bd dcde b9bc f5ee aa3d 813f b3b9
000002f0: 76fb 34ba 437a cab9 55a0 bcbb f17a 813d
00000300: 8b9a 2bba 02e6 8cbb 6f2e be3d e87d 873c
00000310: bd08 0a3c 9424 1b3d 62e7 b1bc 6ee2 c3b9
00000320: f87f cdb9 193d 2bb9 2728 5f3b 48cb d4b9
00000330: 5333 e23d 4f05 9538 226a 593c 7da5 26b8
00000340: 7dd5 d5bd f348 85bc 3bf7 86bd 6561 33ba
00000350: 225e e5bc be67 65bd 08c2 2339 6459 9fbd
00000360: 51e4 16bc 69e3 c2bc c1a8 a33b 478d b83d
00000370: 566f 8839 db8c 3bbc f51b 3e3d 53dd be3d
00000380: 9ad6 a8b9 b057 2c3d 0414 bdb8 da77 09bd
00000390: 6599 b138 519a 6abd 7ba6 cc38 937a 253c
000003a0: 75df e3bd 6389 83ba 7a73 41b9 0c12 6b3d
000003b0: 356a 1abc 8544 feb7 b0eb c9b9 7f39 c1bb
000003c0: 342d f6ba 3a01 5339 ea30 b039 dd07 c839
000003d0: cf60 f4b7 5d24 fd38 9a89 85bb 6874 943c
000003e0: 3943 1c3d 6a6c 0eb8 a4d1 1bb9 e506 ddbd
000003f0: a8da 25bd 15f5 1aba 07b0 9fb9 49c6 bd38

feature_gat.conv1.Ws.2.bias f4 [32]
0.0015896403 0.0020073 0.0021306435 0.002491533 0.0037905176 0.0027481366 0.0043261307 0.0023175196
0.002848961 0.0020650872 0.0038120726 0.0033211114 0.002020019 0.0033309855 0.0029161621 0.0017588335
0.003213012 0.0012558986 0.0028573635 0.0021737455 0.0029450608 0.002689141 0.0033568575 0.0031064725
0.0038092043 0.0018052397 0.0013380202 0.0033898859 0.0023373184 0.001862886 0.0019448542 0.0050378847
00000000: 7a5b d03a e88c 033b 44a2 0b3b fd48 233b
00000010: 556a 783b 151a 343b 37c2 8d3b 87e1 173b
00000020: a2b5 3a3b 6a56 073b f7d3 793b 01a7 593b
00000030: 4c62 043b aa4c 5a3b 151d 3f3b a988 e63a
00000040: 6591 523b f79c a43a 9b42 3b3b 6675 0e3b
00000050: ec01 413b 4d3c 303b b9fe 5b3b f695 4b3b
00000060: d8a3 793b cb9d ec3a 8260 af3a d928 5e3b
00000070: b22d 193b 152c f43a 7aea fe3a d714 a53b

feature_gat.conv1.Ws.3.weight f4 [32, 30]
0.057185642 0.004612631 -0.0009626352 0.099307895 -0.03216397 -0.04010272 0.09311154 -0.00018492818
0.024997225 0.0044164234 -0.00036822614 -0.020407662 -0.00038167302 0.07716982 0.0007024558 -0.00018409212
-1.6438733e-05 -0.00011311186 -0.00034214102 -9.425363e-05 0.034065854 0.10311702 0.08902824 -2.7177675e-05
-2.3743817e-06 -0.10333196 -5.8037986e-05 -0.00012180277 -0.022268424 0.08394868 -0.0015035024 -0.09344232
-0.0030795527 -0.000561834 -0.06626478 0.022015901 -0.0003862212 -0.014998269 -0.0007538287 -0.07474913
-0.00050864345 -0.0011586921 -0.001099646 -0.0010291302 -0.0032863733 0.027811304 -0.039873503 -0.0005721884
0.06417965 -0.00031297316 -0.038270105 0.11392745 -0.015423365 -0.0015961449 0.018429175 -0.016761284
2.9618906e-05 0.00037340718 0.010465722 -0.01927479 0.101718605 0.04389744 -0.00096767826 -0.0007573355
-0.00029139928 -0.0063451477 0.076133765 0.04405953 -0.00031048668 0.08539231 -0.10659634 -0.0011815013
-0.0054065892 0.008953576 -0.00096761045 -0.05354401 -0.0006494304 0.000868557 -0.0003175378 -0.0003500178
-0.03614457 0.07442406 -0.1056469 -0.015190324 -0.054272316 -0.0023283835 -0.0093396045 2.4019222e-05
0.07485471 -0.0002937708 -0.0003478205 0.04623938 -0.11549151 -0.0008184419 0.002571456 -0.0001592323
-0.0012451354 -0.00027218432 -0.0072500235 0.11286968 -0.002420323 -0.0009998193 -0.0014334801 -0.045478158
-0.025455201 -0.029124638 -0.00043984677 -0.017420033 -0.05413055 -0.012271032 -0.0003747394 -0.00015088476
-0.020175098 -0.00010162001 -1.0192573e-05 -0.038811263 0.0032366856 5.939384e-05 -3.2035165e-05 0.11106825
-0.0005345507 0.02180548 -0.0057997485 -0.0047465614 -0.00035149907 -0.007031408 0.0020311151 -0.097632125
-0.00034861785 0.11581045 -0.00097186194 0.0095490925 0.08610476 -0.0006356849 -0.0006119306 -0.0005280468
-0.005178832 -0.00047480187 0.0043101734 0.07492505 0.033097737 0.11178702 -0.005722537 -0.03183476
-0.11156783 0.015079546 0.0025250523 4.6151523e-05 0.064683214 -0.038386527 -0.00017824594 -0.00020943505
0.0023087275 0.06783847 -0.016811391 0.11571875 0.10179924 -2.8394112e-05 -0.030108232 0.00034330002
-0.00062106765 -0.0024037103 0.104850724 -0.06581351 -0.0021399045 -0.0028612309 -0.00092506665 0.046249613
-0.00022728262 -0.00010916745 -0.090904325 -0.037612826 0.025749642 -0.0014410528 0.0017741434 -0.060328808
-0.019476524 0.0063231965 0.03624008 -0.00012828411 -0.086605944 -0.020873247 -0.00064232695 0.0029470692
-0.060816072 -0.023077719 -0.11411879 -0.035079703 0.038954426 -0.000593089 -0.0006052372 -0.0011600214
-0.0007814831 -0.0007313243 -0.0010270178 -0.005749242 0.021550395 -0.00080682046 0.0021697085 -0.00036081576
0.04565465 0.0044043954 -0.00578686 -8.297039e-05 -1.1049365e-05 -0.00035896135 -0.032575417 0.06749268
0.028221099 -0.0056515797 -0.00031119157 0.039278466 -0.017310787 -0.0006069282 -0.0632899 -0.08917748
0.056460634 0.00014958666 -0.024199704 -0.0007989154 -0.0034995137 -0.0009177061 -0.000851788 -0.000569311
-0.0007099363 -0.029793588 0.0052508335 -0.0006002657 -0.007616113 -0.014020025 0.00016644454 -0.0001280017
-0.09229169 8.916877e-05 -0.039000038 -0.09552405 0.008439442 -0.00013879976 -0.101390816 -0.00022219689
-0.010674465 0.009015201 -0.00054759486 -0.018057508 -0.0012263841 -1.9344172e-05 0.04880158 -0.0004986977
-0.055748567 -0.00030082653 0.09125884 -0.07316649 -0.0014054759 0.07596926 -0.0018771797 0.04765757
00000000: 7e3b 6a3d 8e25 973b 5b59 7cba f061 cb3d
00000010: 5ebe 03bd c042 24bd 43b1 be3d 48e9 41b9
00000020: fbc6 cc3c a5b7 903b 7a0e c1b9 f82d a7bc
00000030: 491b c8b9 360b 9e3d 0325 383a da08 41b9
00000040: e9e5 89b7 7836 edb8 6461 b3b9 08aa c5b8
00000050: a388 0b3d 042f d33d 7054 b63d 9dfb e3b7
00000060: 9157 1fb6 b59f d3bd d06d 73b8 5d70 ffb8
00000070: 456c b6bc 49ed ab3d 2b11 c5ba b05e bfbd
00000080: 52d2 49bb 0b48 13ba d4b5 87bd b15a b43c
00000090: bb7d cab9 4dbb 75bc 969c 45ba 1216 99bd
000000a0: 7c56 05ba 41df 97ba ff21 90ba e1e3 86ba
000000b0: 3260 57bb 88d4 e33c 6652 23bd eafe 15ba
000000c0: 9f70 833d 8c16 a4b9 1dc1 1cbd cb52 e93d
000000d0: 48b2 7cbc bc35 d1ba c8f8 963c f64e 89bc
000000e0: 1e76 f837 ddc5 c339 6b78 2b3c 2ae6 9dbc
000000f0: d851 d03d cdcd 333d caab 7dba ed87 46ba
00000100: f3c6 98b9 f5ea cfbb 05ec 9b3d c477 343d
00000110: d1c8 a2b9 2ae2 ae3d 2f4f dabd 9bdc 9aba
00000120: c229 b1bb 05b2 123c 3da7 7dba f750 5bbd
00000130: 893e 2aba e0af 633a 347b a6b9 9882 b7b9
00000140: 540c 14bd a46b 983d 675d d8bd d6e0 78bc
00000150: a64c 5ebd cb97 18bb 2405 19bc e37c c937
00000160: 6d4d 993d 4005 9ab9 ad5b b6b9 8165 3d3d
00000170: d086 ecbd b58c 56ba df85 283b 98f7 26b9
00000180: d033 a3ba f6b3 8eb9 9b91 edbb 3828 e73d
00000190: 489e 1ebb 5e0c 83ba 9ce3 bbba 4e47 3abd
000001a0: 6d87 d0bc cb96 eebc 3c9b e6b9 75b4 8ebc
000001b0: ffb7 5dbd 700c 49bc ac78 c4b9 d236 1eb9
000001c0: 3f46 a5bc d41c d5b8 c500 2bb7 8ff8 1ebd
000001d0: 931e 543b a61d 7938 7f5d 06b8 c077 e33d
000001e0: 1721 0cba 68a1 b23c d10b bebb 0b89 9bbb
000001f0: 6849 b8b9 ba67 e6bb 751c 053b 5af3 c7bd
00000200: b2c6 b6b9 072e ed3d 8dc4 7eba cc73 1c3c
00000210: b157 b03d 17a4 26ba f869 20ba 9f6c 0aba
00000220: 31b3 a9bb d4ee f8b9 5b3c 8d3b 4e72 993d
00000230: 7e91 073d 98f0 e43d 1f84 bbbb 2a65 02bd
00000240: ad7d e4bd 3310 773c 597b 253b d292 4138
00000250: a278 843d 313b 1dbd 88e7 3ab9 cb9b 5bb9
00000260: 054e 173b e5ee 8a3d 0bb8 89bc f4fd ec3d
00000270: 1f7c d03d e42f eeb7 8aa5 f6bc f3fc b339
00000280: 25cf 22ba 9187 1dbb fabb d63d 3cc9 86bd
00000290: a43d 0cbb 7d83 3bbb 2c80 72ba 3c70 3d3d
000002a0: b752 6eb9 d4f0 e4b8 0c2c babd e80f 1abd
000002b0: eaf0 d23c b5e1 bcba 608a e83a 571b 77bd
000002c0: 3b8d 9fbc d132 cf3b 7a70 143d 0184 06b9
000002d0: 755e b1bd 5ffe aabc d561 28ba 9e23 413b
000002e0: 461a 79bd 7c0d bdbc 1db7 e9bd bcaf 0fbd
000002f0: ad8e 1f3d 8779 1bba c8a8 1eba dc0b 98ba
00000300: 71dc 4cba 58b6 3fba 009d 86ba 2364 bcbb
00000310: 748a b03c ce80 53ba ab31 0e3b df2b bdb9
00000320: 5f00 3b3d bf52 903b b39f bdbb 6400 aeb8
00000330: a960 39b7 fa32 bcb9 cd6d 05bd 9a39 8a3d
00000340: ef2f e73c e330 b9bb 6d27 a3b9 75e2 203d
00000350: 5acf 8dbc 431a 1fba 239e 81bd afa2 b6bd
00000360: 4443 673d 5dda 1c39 753e c6bc 4e6e 51ba
00000370: 1958 65bb 3792 70ba 864a 5fba d13d 15ba
00000380: 051b 3aba af11 f4bc 2f0f ac3b 265b 1dba
00000390: 9690 f9bb 3fb4 65bc 9e87 2e39 3238 06b9
000003a0: 6d03 bdbd 1e00 bb38 81be 1fbd 1da2 c3bd
000003b0: 9645 0a3c c78a 11b9 fda5 cfbd 86fd 68b9
000003c0: f4e3 2ebc 7eb4 133c 788c 0fba 57ed 93bc
000003d0: 9fbe a0ba 4b45 a2b7 2ae4 473d 09bb 02ba
000003e0: 9c58 64bd 41b8 9db9 eae5 ba3d 50d8 95bd
000003f0: f237 b8ba c595 9b3d b30b f6ba 9634 433d

feature_gat.conv1.Ws.3.bias f4 [32]
0.0019093987 0.0023265956 0.0018830029 0.0032300248 0.0017807127 0.003843951 0.0019136462 0.0019030615
0.0054016514 0.0011993427 0.0019819953 0.0024476384 0.002908197 0.0020835365 0.00262297 0.0017398464
0.0027361107 0.0025127393 0.001557058 0.0016206141 0.0019067304 0.002789657 0.0038053887 0.0019874808
0.0025115844 0.0024347345 0.0019263336 0.0021328686 0.0037542698 0.002541574 0.003113899 0.0032005685
00000000: ca44 fa3a cc79 183b 18cf f63a d3ae 533b
00000010: ce66 e93a ccea 7b3b 50d3 fa3a 2670 f93a
00000020: 5600 b13b 4333 9d3a 5de4 013b 8f68 203b
00000030: 7397 3e3b f18b 083b 22e6 2b3b 8f0b e43a
00000040: 5250 333b c5ac 243b 3216 cc3a c96a d43a
00000050: 41eb f93a aed2 363b d463 793b 6540 023b
00000060: 6599 243b 1190 1f3b 087d fc3a 99c7 0b3b
00000070: 320a 763b 8990 263b 8e12 4c3b a1c0 513b

feature_gat.conv1.Ws.4.weight f4 [32, 30]
-0.00076379743 -0.0008881296 -0.0009377176 0.0004222209 0.10215063 0.00028681825 -0.069133624 -0.08298399
0.00015232724 0.082008384 -0.008282727 0.005210047 0.066749394 0.07749313 0.02136931 -0.024588319
0.033819728 -0.00047495012 -0.017166996 -0.11428986 -0.0016168336 0.06491078 0.11516849 0.0405918
-0.036241874 0.012396567 0.00967252 0.08536539 -0.015258241 0.06434285 -0.00082030636 0.00025712725
-0.07212542 -0.0010281262 -0.02164961 -0.0005876258 -0.00047238547 -0.00071153545 0.0018554294 0.09309766
-0.0010753869 -0.0027749713 -0.0011463452 -0.0010934433 -0.0005708695 -0.000562022 0.013682131 -0.0005652561
-0.08482334 -0.0012249675 -0.005267692 -0.0006757778 0.08355827 0.060163774 -0.00045858958 -0.024296215
0.0003849171 -4.7536352e-05 4.9081293e-05 0.009528874 0.0040620747 -0.00050156954 -0.0009061588 -0.0005896976
-0.00033401191 -0.00010307068 -0.10450656 -0.096633404 0.08552962 0.10877436 -0.07833045 -0.034880046
-0.00095853943 -0.012905456 -0.11002079 -0.0007452663 -0.023318231 -0.00049646647 -0.024146521 -0.00048885867
-0.000492879 -0.00046393863 -0.0020926853 -0.06712358 0.060849898 -0.00010842284 -0.008531753 0.09570722
-0.00020339362 -0.00042812433 -0.00025516056 -0.00070555485 -0.0005495342 0.06871762 0.00027258808 0.03598659
0.008604788 -0.0011708603 -0.00057649653 -0.0006000201 0.11522786 -0.0012417884 0.03789176 -0.0009302542
0.0678516 0.0013072911 0.010467923 -0.03812609 -0.00043382467 0.09577654 -0.055985324 -0.00047613605
-0.11147915 -0.09208291 0.043264393 -0.015502329 -4.0554405e-05 -0.07148621 -0.04667373 0.08599679
-0.0005849265 -0.0005746049 -0.00063593325 0.104888916 0.036670223 0.03585592 0.085203394 -0.00013991453
-0.0006709317 -0.00050866284 -0.0012940979 -0.07570991 0.082914755 0.065269984 -0.0005595127 -0.00078805105
0.07586132 -0.002743026 -0.00023818063 -0.0007522529 -0.014494569 -0.048164524 0.10824471 0.07861203
0.0044625956 -0.0006935137 -0.00027853588 0.014035813 0.046587754 0.11572487 0.0028606593 -0.0012440404
-0.0026804123 0.10093316 -0.035492573 -0.06860143 -0.00056352984 -0.0007210452 0.0050423793 -0.030336982
-0.0011138199 -0.05143247 0.03013186 -0.001271491 -0.0065637208 -0.0010225172 0.020643322 0.055305935
-0.091407254 -0.014773039 -0.0006437785 -0.0007468017 -0.022283262 -9.227349e-05 -0.00017137082 -0.01107613
-0.048720274 7.1824266e-05 -0.000338134 0.002269005 -0.00020537687 0.03383397 0.0820082 -0.017673513
-0.0009458441 -0.06850854 0.051078957 -0.10140919 -0.0050874697 -0.087476686 -0.001116617 -0.0018457256
0.013458628 -0.06070774 0.015590735 -0.0014435123 -0.0008606486 -0.024397517 -0.0009435918 0.052055903
-0.00088073505 -0.00082450674 -0.00075261295 -0.098776974 -0.00064820715 0.036002915 0.010536169 0.07244959
-0.008652237 0.011782301 0.030506175 0.04247989 -0.0073807123 0.04286776 -0.076289155 -0.009003129
0.00687575 0.054705158 0.02591861 -0.0009749974 -0.04614557 0.017835148 -0.006574121 0.032014642
-0.000990448 -0.00019582185 -0.0010203507 -0.0010312705 -0.0029914887 -0.0011070435 -0.0011678127 -0.064385444
-0.0011402642 -0.0006294984 -0.11699735 -0.0055173705 -0.057200413 0.0001613721 -0.011981391 0.055828307
-0.047618184 -0.00043105177 0.081009366 -0.0006212405 0.058665734 -0.003933315 0.076071806 -0.029286867
-0.0010372724 -0.07893312 0.1005123 9.908169e-05 -0.0007091155 -0.00073584786 -0.0006636083 -0.039924365
00000000: 9439 48ba 5ed1 68ba 2ad1 75ba 885d dd39
00000010: 5934 d13d 1860 9639 ee95 8dbd 83f3 a9bd
00000020: 08ba 1f39 03f4 a73d 46b4 07bc 0bb9 aa3b
00000030: e8b3 883d b8b4 9e3d b10e af3c 716d c9bc
00000040: 8e86 0a3d ba02 f9b9 cda1 8cbc cd10 eabd
00000050: efeb d3ba f1ef 843d 75dd eb3d 9643 263d
00000060: 5c72 14bd f81a 4b3c 7d79 1e3c 0dd4 ae3d
00000070: b4fd 79bc 2fc6 833d d409 57ba 09cf 8639
00000080: 7eb6 93bd 31c2 86ba 865a b1bc e60a 1aba
00000090: 81aa f7b9 5686 3aba e131 f33a fca9 be3d
000000a0: fff3 8cba 4bdc 35bb f640 96ba de51 8fba
000000b0: 67a6 15ba a854 13ba 042b 603c b22d 14ba
000000c0: dcb7 adbd 178f a0ba 9a9c acbb ae26 31ba
000000d0: 9920 ab3d 4a6e 763d da6e f0b9 db08 c7bc
000000e0: b3ce c939 c561 47b8 a3dc 4d38 ff1e 1c3c
000000f0: 271b 853b c37b 03ba 4a8b 6dba f095 1aba
00000100: 521e afb9 a627 d8b8 8907 d6bd bce7 c5bd
00000110: 272a af3d 17c5 de3d b76b a0bd 61de 0ebd
00000120: 7e46 7bba 6871 53bc 9452 e1bd fa5d 43ba
00000130: e005 bfbc 4d25 02ba edce c5bc c026 00ba
00000140: 8d34 01ba ca3c f3b9 6f25 09bb 1678 89bd
00000150: be3d 793d 1261 e3b8 c4c8 0bbc 2602 c43d
00000160: 0f46 55b9 e075 e0b9 12c7 85b9 fcf4 38ba
00000170: 9e0e 10ba d3bb 8c3d 27ea 8e39 ad66 133d
00000180: 19fb 0c3c 8d77 99ba 0720 17ba ab4a 1dba
00000190: 96fc eb3d 81c3 a2ba 6434 1b3d 4ddc 73ba
000001a0: c8f5 8a3d 6959 ab3a a781 2b3c 1a2a 1cbd
000001b0: f672 e3b9 7e26 c43d de50 65bd e6a1 f9b9
000001c0: 2e4f e4bd f795 bcbd 0136 313d 7bfd 7dbc
000001d0: f618 2ab8 5d67 92bd f42c 3fbd 161f b03d
000001e0: c155 19ba 15a1 16ba c2b4 26ba 00d0 d63d
000001f0: 8433 163d a8dd 123d 1e7f ae3d 05b6 12b9
00000200: 77e1 2fba c957 05ba b89e a9ba cc0d 9bbd
00000210: 36cf a93d 45ac 853d 43ac 12ba 3695 4eba
00000220: 2e5d 9b3d 57c4 33bb 20c0 79b9 d632 45ba
00000230: a17a 6dbc 2a48 45bd 67af dd3d 58ff a03d
00000240: f73a 923b ebcc 35ba 7408 92b9 77f6 653c
00000250: cdd2 3e3d 2901 ed3d e679 3b3b 120f a3ba
00000260: dba9 2fbb 0bb6 ce3d a960 11bd e87e 8cbd
00000270: d9b9 13ba 8604 3dba 8b3a a53b 4385 f8bc
00000280: 98fd 91ba dbaa 52bd 17d7 f63c 29a8 a6ba
00000290: 7b14 d7bb fc05 86ba 2f1c a93c 7a88 623d
000002a0: ba33 bbbd 9e0a 72bc 3ec3 28ba 04c5 43ba
000002b0: 638b b6bc f482 c1b8 01b2 33b9 a878 35bc
000002c0: e98e 47bd 5ca0 9638 9447 b1b9 96b3 143b
000002d0: 6f5a 57b9 7d95 0a3d eaf3 a73d 0bc8 90bc
000002e0: 86f2 77ba 354e 8cbd 2b38 513d 9faf cfbd
000002f0: cab4 a6bb fa26 b3bd 735b 92ba 46ec f1ba
00000300: 9481 5c3c aea8 78bd 4870 7f3c 3c34 bdba
00000310: 269d 61ba 4ddd c7bc 605b 77ba 9238 553d
00000320: 21e1 66ba b623 58ba 004b 45ba 954b cabd
00000330: 72ec 29ba cb77 133d e59f 2c3c 7360 943d
00000340: 1dc2 0dbc 8d0a 413c 16e8 f93c 65ff 2d3d
00000350: e7d9 f1bb 1b96 2f3d 7d3d 9cbd dc81 13bc
00000360: f94d e13b 8412 603d 4453 d43c f896 7fba
00000370: 2303 3dbd 041b 923c b96b d7bb c921 033d
00000380: ecd1 81ba 8755 4db9 4abd 85ba b22b 87ba
00000390: da0c 44bb 371a 91ba 4b11 99ba 84dc 83bd
000003a0: eb74 95ba ec04 25ba 4e9c efbd 0fcb b4bb
000003b0: fb4a 6abd fe35 2939 994d 44bc 39ac 643d
000003c0: 490b 43bd cafe e1b9 3de8 a53d bfda 22ba
000003d0: 7b4b 703d 0ae3 80bb 89cb 9b3d 03eb efbc
000003e0: 16f5 87ba b0a7 a1bd 65d9 cd3d 14ca cf38
000003f0: f0e3 39ba eae5 40ba 00f6 2dba bb87 23bd

feature_gat.conv1.Ws.4.bias f4 [32]
0.0025124943 0.0021417898 0.0021655427 0.0026529185 0.0021657299 0.0029357316 0.002103841 0.0035052677
0.0017106291 0.0016025275 0.0032133225 0.0019470793 0.0044447463 0.0043558385 0.0033922698 0.0024625773
0.0042292466 0.0023081 0.0021801533 0.0023325542 0.0027511427 0.0017385612 0.005169947 0.0035457544
0.0025705607 0.0030841995 0.0027634837 0.0025754978 0.002986011 0.003281275 0.0029294475 0.0039154943
00000000: a9a8 243b 455d 0c3b c7eb 0d3b 96dc 2d3b
00000010: ebee 0d3b 6765 403b 98e0 093b a2b8 653b
00000020: 3037 e03a e60b d23a 9b96 523b 2435 ff3a
00000030: 3ca5 913b 6cbb 8e3b d850 5e3b 3163 213b
00000040: 7e95 8a3b 7e43 173b e7e0 0e3b c4dd 183b
00000050: 844c 343b 6fe0 e33a a968 a93b e35f 683b
00000060: da76 283b 4820 4a3b 901b 353b afc9 283b
00000070: f4b0 433b a90a 573b f9fb 3f3b 8c4d 803b
