checkpoint/trace_model.pkl (torch, 476975 bytes, 114 tensors)

conv.conv.weight f4 [9, 9, 7]
000000 5c 11 d6 bd df de bc 3d db 0c 6d bd f7 8f 12 be
       -0.1045253 0.09222197 -0.057873588 -0.1431273
000010 7e 0d 59 be a2 2a b6 bd c7 f7 4d be e3 13 a9 3d
       -0.21196553 -0.0889485 -0.20114051 0.08255746
000020 c7 07 6f bd 8c 4a e9 bd 1a b7 81 3d 61 a5 a4 bd
       -0.058357026 -0.11391172 0.06333752 -0.08039356
000030 4d 09 8b 3d 00 5d df 3a a6 e7 44 3d a6 14 0d 3c
       0.06788883 0.0017041266 0.04807248 0.00861088
000040 74 aa 48 bd 39 23 50 3d d5 f5 82 bd 12 46 ec 3c
       -0.04899068 0.05081484 -0.06394545 0.028842006
000050 36 87 9e bd 71 e4 60 bc 31 b1 cc 3c 06 55 c3 bd
       -0.07740633 -0.01372634 0.024986835 -0.09537701
000060 3a fc a7 bb f1 3f 0f bd 6b 89 1e bc aa e4 a5 bd
       -0.0051265033 -0.03497309 -0.009676318 -0.08100255
000070 13 67 12 be 3e 43 07 be 94 65 78 bd b2 c9 1e bd
       -0.14297132 -0.13209245 -0.060643747 -0.03876657
000080 f2 eb ae bc 46 58 a1 bd ac 61 c1 3d 2b e9 db bd
       -0.021352742 -0.07878165 0.094424576 -0.10737833
000090 30 db 00 bd 3d 77 bf bd b0 82 aa 3d 09 01 42 be
       -0.031459033 -0.09348915 0.08325708 -0.18945707
0000a0 51 96 16 be 21 9f 7d bd 24 07 df bd 11 13 93 bd
       -0.14705779 -0.061919335 -0.10890034 -0.07181371
0000b0 94 da ab bd 78 59 5e be db 65 92 bd 25 b3 f5 bd
       -0.083913 -0.21713817 -0.07148334 -0.1199706
0000c0 35 47 38 be 12 62 c6 3d 1e 4b 0c 3e 81 4f 93 bd
       -0.17995913 0.09686674 0.1370053 -0.071928985
0000d0 ba 97 62 3e ea 3d 86 3d 5f 51 f7 3d b2 34 de 3d
       0.22128192 0.06554778 0.12076067 0.108498946
0000e0 8b 26 2d 3c c6 b7 9f bd fb fc 52 bd 49 46 04 be
       0.010568271 -0.07798724 -0.051510792 -0.12917437
0000f0 87 b5 a3 bd ba 51 2a bc 06 3f 57 bd b2 fc 07 bc
       -0.07993608 -0.010395462 -0.05255034 -0.008299993
000100 63 95 ca 3d e1 2f 20 3e 19 0f 07 3e d0 f2 fb 3d
       0.098917745 0.15643264 0.13189353 0.12302172
000110 14 b8 10 bd 5d 72 82 bd 51 4a fa 3c b4 fc 8a 3c
       -0.0353318 -0.06369469 0.030553015 0.016966201
000120 83 ff f3 bd 42 e8 81 bd c7 59 b5 bd eb 7f 88 3d
       -0.11913969 -0.06343128 -0.08855014 0.066650234
000130 88 5e 99 bd 8f e9 5d bd 3b 5b c6 3d 95 2b 8f 3d
       -0.074887335 -0.054177817 0.096853696 0.069907345
000140 8a 94 b4 3d ac bd 99 bd ed c5 00 be 40 4f 9f bc
       0.08817394 -0.0750688 -0.12575503 -0.019446969
000150 82 a2 db bd ed 2e 1b bd 44 f2 ed 3d d2 79 31 bd
       -0.10724355 -0.03788655 0.11618474 -0.043329068
000160 1a a9 02 3c bc 8c e8 3c e6 d4 af 3b 72 5c 02 3e
       0.007974887 0.02838742 0.0053659556 0.12730578
000170 a3 a8 10 bd 63 38 95 3d ba 07 b0 3d c1 e0 41 3d
       -0.035317075 0.072861455 0.08595224 0.047333483
000180 93 b8 1d 3b 74 04 99 bc 15 6f a0 3d f2 20 a8 3d
       0.0024066314 -0.018678881 0.07833687 0.08209409
000190 59 d9 cb 3d a6 23 23 3e f4 ff c9 3d ac d3 ed 3d
       0.09953565 0.15931568 0.09863272 0.11612639
0001a0 b2 cc c9 3d 5f 31 35 3d d5 2f 03 bd 0d 97 71 3d
       0.09853496 0.044236537 -0.032028038 0.058981944
0001b0 d8 45 ab 3d 8c 25 5f bd 56 b4 41 bd 48 b5 db bd
       0.08362931 -0.054479167 -0.047291122 -0.10727936
0001c0 d2 16 19 3e 17 e7 97 3d 3a cb 8c bd 0e 5e a2 3d
       0.14950112 0.07417124 -0.068747 0.07928096
0001d0 61 80 e9 3c 5e 70 c6 bc a6 74 30 3e 19 8e 23 3e
       0.028503599 -0.024223503 0.17231998 0.15972175
0001e0 61 9e e2 3c b2 58 16 3e 87 09 b5 3d 70 b9 28 3e
       0.027663412 0.14682272 0.08839708 0.16476989
0001f0 52 4f 17 3e cb 22 6d 3e 9b a4 2b 3e 7f 8d 0b 3e
       0.14776352 0.23157804 0.16762011 0.13628195
000200 c0 ac d1 3d 82 35 09 be 38 1d 10 3d 94 ca 99 bc
       0.102380276 -0.13399318 0.035184115 -0.018773355
000210 06 84 2a 3d 1d 34 14 3e fe 02 12 be 65 5f 89 3d
       0.041629814 0.14473005 -0.14258954 0.06707648
000220 22 22 be bc db ec 24 be 54 4f 7c 3d ec bc 82 3d
       -0.023209635 -0.16105978 0.06159909 0.0638369
000230 6f e6 d1 3d 4e 5a c1 bd 39 c8 4a bc be b2 b1 3d
       0.1024903 -0.094410524 -0.012376838 0.086766705
000240 1d cf b0 bd d4 b0 88 bd 4e 7f 99 bd c2 0f e1 3d
       -0.08633254 -0.06674352 -0.074949846 0.10989334
000250 1d f5 35 3d 3b 48 c1 3d f9 90 88 bd 38 84 a1 bd
       0.04442321 0.09437605 -0.06668276 -0.07886547
000260 00 3c 05 bd de af 94 bc 69 a1 1a 3e ef 9b a8 bc
       -0.032527924 -0.018150266 0.15100636 -0.020582167
000270 47 70 02 3e 5c ff e0 bd f0 3d 1b 3b f0 c5 67 bd
       0.12738143 -0.10986206 0.002368804 -0.056585252
000280 41 bc 04 3d 51 6a e2 3d fb c3 ab bd a6 82 ae 3d
       0.032406095 0.110554345 -0.0838699 0.08521013
000290 52 78 cb 3c 01 0b e0 3c 68 74 11 bd 8a 57 a3 bc
       0.024837647 0.027348997 -0.035511404 -0.019939203
0002a0 14 9c 2a 3d bb 88 28 3d 81 3e 20 3e b7 da 3d bd
       0.041652754 0.04114602 0.15648843 -0.04635116
0002b0 e8 dc 06 be d2 c1 84 3c 18 d4 56 3d 37 b8 bf 3d
       -0.13170207 0.016205702 0.052448362 0.09361308
0002c0 40 ef dc bd 6d c5 a4 bd 87 5d be 3d bd 1a ed 3d
       -0.10787821 -0.080454685 0.09295183 0.115773655
0002d0 29 f8 80 3c 25 12 e6 3d f0 6d a4 bd 5b d9 c4 3d
       0.015743332 0.112339295 -0.080287814 0.0961177
0002e0 5d a0 60 3d 8f 36 51 bc 63 16 0b 3d ee 8c 06 3d
       0.054840434 -0.012769355 0.033956897 0.032849245
0002f0 ab e4 a4 3d 96 3b 54 3e ad 41 5d 3d 16 b4 ec bc
       0.080514275 0.20725855 0.05401771 -0.028894465
000300 33 6a 34 be 0c c4 25 b8 1e 5b 93 3d 15 cb c1 3c
       -0.17618637 -3.952165e-05 0.071951136 0.023656407
000310 66 21 0a be 08 7a 83 3d d5 7b ac ba b8 24 bc bd
       -0.13489303 0.0641976 -0.0013159463 -0.09186691
000320 80 df 4f 3b 72 4f 8c 3d e6 9b 75 bc c1 6c 98 3d
       0.003171891 0.068510905 -0.014990782 0.07442618
000330 9a 0d bf 3c 79 86 8e 3d cd b4 60 3d ea 06 c7 bd
       0.023321915 0.069592424 0.054859925 -0.09718116
000340 89 dc b9 bd be bd 59 bc 9b 2f 41 3d 05 05 be 3c
       -0.09075267 -0.013289867 0.04716454 0.023195753
000350 5b da b3 3c 79 0b 5c 3d 5d 52 91 bd 58 f8 d6 3d
       0.021954706 0.05372188 -0.07095788 0.104965866
000360 46 6d 3c bd e1 04 ef 3d 47 a6 a6 3b c8 e4 fb 3d
       -0.04600265 0.116708525 0.00508574 0.12299496
000370 aa be 5e bd a2 ac 29 be 58 07 7d bd 99 d6 17 bd
       -0.05438105 -0.1656976 -0.06177458 -0.03706989
000380 b0 52 bc 3d 50 6a d6 bd 2d 3e 18 3e b0 b1 3c be
       0.09195459 -0.10469496 0.14867468 -0.18427157
000390 64 94 8a bc a6 71 11 bd 7e a2 4b bd ba 87 42 3d
       -0.016916461 -0.035508774 -0.04971551 0.04749272
0003a0 12 5e 62 bc 83 09 a3 3d 86 be 05 be d6 4d 47 3d
       -0.013816373 0.079607986 -0.1306096 0.048658215
0003b0 5a 13 4e bc 16 70 a8 3c 23 6c 03 bd d8 66 27 be
       -0.012577856 0.02056126 -0.03208555 -0.16347826
0003c0 eb e0 54 bd 09 b3 0f bd 56 a3 15 bc 21 c7 45 be
       -0.05197231 -0.03508285 -0.009133181 -0.19314243
0003d0 83 d9 3f bd d2 10 37 bd 5c bc ab bd 84 55 ca bd
       -0.046838295 -0.044693775 -0.08385536 -0.09879592
0003e0 19 e5 e7 3c e8 ba 3e be a3 ca fb bb 59 c3 05 be
       0.028307484 -0.18625987 -0.0076840683 -0.130628
0003f0 47 9f 71 3c e1 d0 8f 3d 5a 99 c0 3d ab 38 ea bc
       0.014747447 0.07022262 0.094042495 -0.028591475

conv.conv.bias f4 [9]
000000 c3 ab 80 3d 41 02 85 3d f6 c2 a6 3d 63 71 b7 3d
       0.06282761 0.064945705 0.081426546 0.08957174
000010 65 91 1a bd 98 ac 3c bd 83 ff 28 bd 1e 49 38 bd
       -0.037736315 -0.046063036 -0.0412593 -0.044991605
000020 76 1a ab bd
       -0.083546564

feature_gat.conv1.Ws.0.weight f4 [32, 30]
000000 2a eb a1 bc 43 a6 e1 b9 06 78 59 3a 4d f7 81 3a
       -0.019765455 -0.0004303922 0.0008295778 0.000991562
000010 dd 9f d7 3c db 3b 12 3a 31 e9 44 3d b7 9a 6a 3b
       0.026321346 0.0005578377 0.04807395 0.0035797784
000020 88 f6 6e 3a d1 e1 0f 3a 1a 58 8b 3a a2 14 9a 39
       0.00091157155 0.00054886664 0.0010631115 0.00029388542
000030 9d 0c 03 3d 15 68 6d bd 5a 32 27 ba fa 9f 0d ba
       0.03199445 -0.05796059 -0.00063780474 -0.00054025615
000040 a1 84 8d 3c 52 55 15 3a 5a 18 95 38 c4 b4 24 ba
       0.017275156 0.00056966126 7.1094095e-05 -0.00062830397
000050 a1 0f a2 3c ee d0 19 38 0a b2 81 bc 58 25 c0 3a
       0.019782843 3.6672624e-05 -0.015831966 0.0014659567
000060 62 58 56 bc ec 56 db b9 30 c3 58 39 ad 9b b8 3c
       -0.013082596 -0.00041835697 0.00020672078 0.02253517
000070 3c 05 64 3b 32 d4 1f 39 b2 2f ba 3c a5 27 11 3d
       0.003479316 0.0001524247 0.022727821 0.0354382
000080 75 1b 66 38 31 e7 c7 39 59 60 0d 3a 36 33 30 3b
       5.4861845e-05 0.0003812849 0.000539308 0.0026885993
000090 01 be 06 3a 9e 96 26 bc 3b d2 86 39 2e 58 16 bb
       0.0005140007 -0.010167746 0.00025715106 -0.0022940743
0000a0 57 bb 94 3c 6c d1 ff 39 7b 91 45 bc 0b f3 06 b9
       0.018155737 0.00048793422 -0.012058611 -0.00012869776
0000b0 fd a9 97 b9 78 0e 6d 3b 5e 4e 2a bb 50 51 7e 3b
       -0.00028927615 0.0036171954 -0.0025986652 0.003880579
0000c0 a5 f4 16 39 95 d0 77 39 0b 53 1f 3b 2f 05 19 bc
       0.00014396252 0.00023633458 0.0024310972 -0.009339615
0000d0 ce 2f 98 b9 a3 80 a9 bc ae f8 16 3a 00 39 ae 38
       -0.00029027316 -0.020691222 0.0005759102 8.3075836e-05
0000e0 cc f5 66 bd 77 75 63 3d 49 66 52 3a a9 c4 e4 3c
       -0.056386754 0.055531945 0.0008026106 0.027925806
0000f0 ec 38 1a 3d 7b fb 44 3a ff bc c4 b9 6d 13 dd 39
       0.03765194 0.000751428 -0.00037524846 0.00042166878
000100 c1 fc 0c bd d1 20 0f b9 89 63 85 3d e8 31 7d bd
       -0.034420732 -0.00013649768 0.065131254 -0.061815172
000110 6e 42 9e 3a 0b 89 af 39 78 e2 28 3d 91 c5 f4 bc
       0.0012074241 0.00033480706 0.041231602 -0.029879363
000120 1c bd 02 b9 ab 0b f8 3c b4 69 b7 3c 6f 6b ab 3b
       -0.00012468215 0.030279001 0.02238927 0.005231313
000130 db e4 fd 39 50 de 02 3a f3 02 28 b9 d3 ae 0d ba
       0.0004842643 0.00049922336 -0.00016022827 -0.0005404774
000140 8e 27 12 bb 1f 21 00 39 09 47 29 bd 53 90 1d 3b
       -0.0022301408 0.0001221937 -0.04132751 0.0024042323
000150 e2 d6 82 bd 3c c8 e0 bc d7 9d 47 3b 53 f9 77 bd
       -0.06388642 -0.02743923 0.003045907 -0.06054051
000160 de a3 e0 bc 48 55 c4 b7 5a f9 db bc a7 72 49 3a
       -0.027421888 -2.3404733e-05 -0.026852299 0.0007684626
000170 9a a1 3e b8 fd c6 7c 39 e7 40 04 39 b3 76 42 b9
       -4.5450033e-05 0.00024106722 0.00012612679 -0.000185455
000180 09 af 1b 3a 06 74 6b ba 48 82 ea bc f7 98 b2 bc
       0.0005938863 -0.00089818274 -0.028626576 -0.021801455
000190 bf 6b bb bc 06 81 72 3d 69 e7 c7 3a 29 94 2a bc
       -0.022878526 0.059205078 0.0015251461 -0.010411301
0001a0 51 c5 62 bc 35 6f 25 b9 53 ed 0c 3a 73 5b fd 39
       -0.013840989 -0.00015777054 0.000537594 0.00048324055
0001b0 78 2b 3e 36 31 b2 a1 bc b7 9e 87 3c 6a 87 66 3d
       2.8337508e-06 -0.019738289 0.016555173 0.056281485
0001c0 fb 78 a8 3c aa 38 0b b8 09 b4 bc bc 81 90 86 bb
       0.0205655 -3.3192955e-05 -0.023035066 -0.0041065817
0001d0 85 a9 50 3a 0f 13 9f ba ad 97 53 b8 d4 73 54 ba
       0.00079598307 -0.0012136417 -5.044758e-05 -0.0008104418
0001e0 2b 85 6b bd ff 13 19 3a 2f c8 69 3d 65 a5 65 3a
       -0.057500046 0.00058394665 0.057075676 0.00087603024
0001f0 81 c9 83 3a a1 f6 ae 39 ec 32 b1 3c fa 60 59 3a
       0.001005456 0.0003337162 0.021630727 0.00082923437
000200 34 48 58 3d 27 b1 21 bd cb e1 82 3c 04 94 10 bd
       0.052803233 -0.039475586 0.015976807 -0.03529741
000210 d8 13 2e ba 67 e9 3d 3b 13 87 78 bc ce 53 11 ba
       -0.000664053 0.002897823 -0.015168923 -0.0005543799
000220 d8 f8 c4 ba 63 ab 2f 3a 9c 24 94 38 2b df 16 ba
       -0.0015027774 0.0006701259 7.064009e-05 -0.00057553005
000230 bf bc 5b 3a 5c 04 b1 38 93 3f 23 b9 55 c8 17 3a
       0.00083823124 8.44083e-05 -0.00015568575 0.00057900447
000240 4d a5 95 b9 17 1f af 3c 74 97 6a 3c 87 ea 80 b8
       -0.00028542653 0.02137713 0.014318336 -6.1472e-05
000250 dc cc 87 3c c5 6f d2 38 7f 06 61 39 ce 46 0b 3a
       0.016577177 0.00010034399 0.00021460092 0.000531298
000260 bf c6 64 3a 3a 53 42 3a 29 35 9b 3b 57 48 70 3c
       0.0008727125 0.00074129144 0.004736562 0.014665685
000270 eb ff 2d bb 70 e1 a1 bc 11 be 97 3a aa de 2d 3a
       -0.0026550244 -0.019760817 0.001157703 0.0006632606
000280 36 03 94 3a 20 5b 54 3b b0 03 0a 3b b7 bf 23 ba
       0.0011292461 0.0032402948 0.0021059327 -0.0006246524
000290 a6 5e 2c ba 8c a2 18 bd 62 12 94 39 69 bb 2c 3a
       -0.0006575383 -0.03726439 0.00028242456 0.00065892056
0002a0 b5 88 d0 38 66 d7 1d ba 93 ba b8 3a f7 36 c5 38
       9.9436766e-05 -0.00060211716 0.0014093689 9.40393e-05
0002b0 99 04 84 bc 3e 8f 8e 3c 33 6b 19 b9 35 d5 f2 b9
       -0.016115474 0.017402288 -0.00014631152 -0.00046316689
0002c0 fc f9 38 ba 6c 7d db 38 93 3e 4b bd e0 0c d6 38
       -0.00070562935 0.000104660954 -0.049620222 0.00010206713
0002d0 c5 b0 89 39 ba ec 23 3a 19 41 bd 39 c3 69 e0 3b
       0.0002626238 0.00062532315 0.0003609739 0.0068485453
0002e0 dc 7e 02 3a a0 c1 02 bb fd 80 a2 bb 85 c5 47 3a
       0.000497801 -0.0019951835 -0.0049592243 0.000762068
0002f0 8f 4a 06 3a 88 9f b7 39 02 d0 2d 3a 87 65 d1 39
       0.00051228044 0.0003502334 0.0006630422 0.0003993923
000300 bd 06 25 ba d6 3c 86 3c cd 93 b3 b9 c7 52 cd b9
       -0.00062952546 0.01638643 -0.0003425166 -0.0003916232
000310 d1 7b 13 3a 4e 67 bf 3b 55 86 95 38 57 5e 7a 3d
       0.0005626055 0.0058411723 7.129895e-05 0.061125126
000320 5c fb 39 3a a6 02 44 3b 52 26 48 b9 77 f7 3a 3a
       0.00070946454 0.0029908805 -0.00019087762 0.0007132212
000330 c5 cf c3 bc 1a 16 2c 3d d5 1f 85 bb 99 87 4e 3c
       -0.023902783 0.042013265 -0.0040626326 0.012605571
000340 43 10 57 3a 15 59 a8 39 57 1f 59 bc f9 27 32 3a
       0.00082040223 0.00032109828 -0.013252101 0.00067961175
000350 d6 02 2b 3a 3f 27 48 3a 90 17 29 3d a1 d3 82 39
       0.0006523555 0.00076352427 0.041282237 0.00024953208
000360 fd ea 70 bd 93 41 40 3a 93 8d 5d 3a 63 83 f8 39
       -0.058817852 0.000733399 0.0008451577 0.00047400137
000370 0b dc 48 3a 16 62 14 39 31 63 49 ba 1f e9 d0 3c
       0.00076621835 0.0001415092 -0.0007682322 0.025501786
000380 1f f4 41 ba a8 43 d0 b9 ed 89 31 bb 4d d5 14 3a
       -0.00073987426 -0.0003972326 -0.0027090267 0.0005677536
000390 cc e4 31 bc 24 3a 47 bd 8a ab 58 3b 0f dd bc b9
       -0.010857772 -0.04863943 0.003306123 -0.00036022856
0003a0 f8 ed 59 b8 81 55 0c 3a d3 4d 2a 3d 67 ed cc 3b
       -5.1958457e-05 0.0005353317 0.041578125 0.0062538865
0003b0 33 1d 00 b7 74 0f 95 b8 cd f7 d0 bc 4e 9d a8 38
       -7.636193e-06 -7.107752e-05 -0.025508786 8.0401645e-05
0003c0 84 0d 45 39 9d 9c 3a 3a 1d 17 3b 3d b8 fb 17 bb
       0.00018792419 0.0007118674 0.04567634 -0.0023190808
0003d0 b1 db f6 39 76 3f d9 b8 48 6a 2d bc 9c d9 1b bd
       0.0004708446 -0.00010359187 -0.010584421 -0.038049325
0003e0 31 2b 44 bd 72 42 87 39 35 9a 83 bc 65 01 e6 bc
       -0.047892753 0.00025798712 -0.016064743 -0.028076837
0003f0 0a 1e 0a ba 6f 69 65 b8 31 a8 94 b9 2a da 73 3a
       -0.00052687584 -5.4696047e-05 -0.00028354072 0.00093022233

feature_gat.conv1.Ws.0.bias f4 [32]
000000 39 4d 1a 3b 30 bb d9 3a a8 02 e6 3a c4 6e cd 3a
       0.0023544563 0.0016611572 0.0017548399 0.001567327
000010 e6 1d 10 3b f7 04 0b 3b de c8 f2 3a 12 87 0b 3b
       0.0021990477 0.0021212676 0.0018522998 0.0021290225
000020 5f 7d b7 3a 81 1c 24 3b 07 6e e6 3a d9 28 00 3b
       0.0013999155 0.0025041404 0.0017580398 0.0019555597
000030 8e 01 01 3b e8 bd 12 3b 3f 02 ee 3a d8 76 e5 3a
       0.0019684765 0.0022391025 0.0018158628 0.0017506732
000040 a1 10 10 3b 6d 33 c8 3a 91 a0 04 3b 83 d4 fc 3a
       0.0021982568 0.0015274115 0.0020237307 0.0019289408
000050 ad 7f 03 3b db 7f d5 3a ab 10 d6 3a 63 55 10 3b
       0.0020065114 0.0016288714 0.0016331872 0.002202355
000060 e2 5a ff 3a e0 1a 05 3b 14 5a 08 3b 27 a2 0e 3b
       0.0019482041 0.0020310208 0.0020805644 0.002176413
000070 1f e6 08 3b e3 7c d6 3a 6f a3 11 3b 60 c9 11 3b
       0.0020889116 0.0016364123 0.0022222658 0.0022245273

feature_gat.conv1.Ws.1.weight f4 [32, 30]
000000 3e be 0e 39 17 e2 22 3a ec 57 f9 39 83 25 f0 bc
       0.00013613046 0.00062134996 0.00047558488 -0.029314762
000010 20 28 4b bd 24 3b ce 3b d5 f1 81 b8 34 bf 16 3a
       -0.049598813 0.006293671 -6.196244e-05 0.00057505374
000020 de 57 88 3d 06 9c e1 3c 61 55 25 3a 71 be 6c 3d
       0.06657384 0.027540218 0.0006306973 0.057798807
000030 51 06 3f ba 97 4f a0 b9 9d 8e 1a ba 63 f9 c3 b9
       -0.0007287013 -0.00030576877 -0.0005895885 -0.00037379106
000040 ab 57 79 3c 52 ff 1d 3a d0 89 0a 3b 69 ff 90 b9
       0.015218656 0.00060271204 0.0021139272 -0.00027656116
000050 5a 40 bf 39 d0 db 1c b8 fe 22 88 b9 fb a6 7d 39
       0.00036478305 -3.7398015e-05 -0.00025966013 0.00024190165
000060 6b 4d 17 3c 1b bc c7 b9 fe d8 65 39 7f 3e 2a b9
       0.0092347665 -0.00038096387 0.00021919978 -0.00016235745
000070 d0 46 b5 bc e6 fe 88 38 1d 2b 50 39 f1 e8 40 bc
       -0.022128493 6.532464e-05 0.00019852487 -0.011774288
000080 28 db 57 3a 64 37 38 3b f5 f9 a1 3a cd fc 89 bc
       0.0008234256 0.0028109187 0.0012357818 -0.016844178
000090 17 52 22 bd e3 f1 50 3a f0 2f e0 3a 79 7d 48 3c
       -0.03962907 0.0007970614 0.001710413 0.012236946
0000a0 a0 72 bb bb b2 cd e6 3c 2b e0 55 3a cb 35 20 3d
       -0.0057204515 0.028174255 0.0008158709 0.0391138
0000b0 94 ec be 3b cf a6 72 b9 a6 0a a4 39 8c bd 56 bd
       0.005826542 -0.0002314106 0.0003128845 -0.05242686
0000c0 20 20 aa bb 76 89 9b 3a 11 e4 d2 39 e6 78 5a 38
       -0.005191818 0.0011866528 0.00040224244 5.2087846e-05
0000d0 5e 7b 83 3d 9e 6d d6 39 f7 64 01 b6 bc 43 02 3c
       0.06420015 0.00040898932 -1.9281267e-06 0.007950719
0000e0 3e 3a 5c 3c 3f 4b 26 3c c0 fa 32 b9 4e c3 aa 39
       0.01344162 0.010149776 -0.00017068814 0.0003257044
0000f0 91 f6 d2 38 43 12 f0 39 80 16 2b bd e7 c9 be 3b
       0.00010059507 0.00045789973 -0.041769505 0.0058224085
000100 48 2d e3 3c 2b 16 89 bc c4 ac 01 3a db 16 86 3d
       0.027731553 -0.016734203 0.00049467036 0.06547328
000110 17 57 12 39 66 70 61 bb 87 bf 0e 3a f6 38 0d 3d
       0.00013956089 -0.003439927 0.000544541 0.03447815
000120 71 74 5e bd 1f 57 95 b8 9c c1 69 b9 0e 16 8c b9
       -0.054310266 -7.121101e-05 -0.00022292737 -0.00026719313
000130 1b 1d 4d 3a fb a0 ce 38 6b 1b 13 bb b5 53 fc 39
       0.00078244664 9.8528304e-05 -0.0022446762 0.00048127552
000140 8b 55 da bc 96 84 0f b9 f7 fd 77 ba 49 ac 61 b9
       -0.026652118 -0.00013686935 -0.0009460146 -0.00021521853
000150 64 f3 36 b8 c1 c8 c1 38 a1 8d 87 3a 2d e0 19 3a
       -4.3618857e-05 9.2403505e-05 0.0010341891 0.00058698916
000160 f6 53 01 3c 87 ae 0d b8 52 b7 29 39 80 95 c7 39
       0.007893553 -3.377956e-05 0.00016185388 0.00038067624
000170 1b ed 9e 3a 86 aa ed 3b 34 4a d6 3c ed d3 1a 39
       0.0012125106 0.007252994 0.02615843 0.00014765533
000180 12 e3 72 bb 78 96 09 bd eb 3e 7c 3c 42 ca 41 3c
       -0.0037061614 -0.033590764 0.01539586 0.011828007
000190 e6 5a ad 3a ba 94 37 39 ab 59 66 ba 85 c5 03 ba
       0.0013225942 0.00017507645 -0.0008787165 -0.0005026686
0001a0 88 b1 d1 ba 9f 30 89 bb 50 e8 31 3a 6a f2 01 3a
       -0.0015998343 -0.0041867043 0.00067866314 0.0004957082
0001b0 5d 3f cf 39 13 17 f3 bb 7a bc 69 3a c2 79 ce 39
       0.00039529326 -0.007418522 0.000891633 0.00039382098
0001c0 47 27 27 39 3e bf 7b 3a 55 53 9b 37 f1 12 6f bd
       0.00015940993 0.00096033874 1.8516244e-05 -0.058367673
0001d0 fd 73 01 3d fd e6 9e bc 11 6f 2e ba 08 ee d0 b8
       0.031604756 -0.019397253 -0.00066541234 -9.96255e-05
0001e0 44 6c b0 38 0e 47 5a 3a 64 6f ae 39 17 7e 1a 3a
       8.4125e-05 0.0008326628 0.0003327086 0.00058934226
0001f0 d0 20 fc bc 6f 63 15 bc 69 95 8d 3b 7d d3 14 3a
       -0.030777365 -0.009117945 0.0043207896 0.0005677266
000200 9c 93 cf 39 63 a2 5c bd d9 f6 15 3a f5 2b c8 bb
       0.00039592094 -0.0538658 0.0005720682 -0.0061087557
000210 c4 3e 35 bd 25 7e 81 b9 03 f1 ae 3b c2 c8 92 b9
       -0.04424931 -0.00024698782 0.0053387894 -0.00027996866
000220 a4 89 39 3a 5a e9 0a 3c 1f ac ff 38 d5 87 92 b8
       0.00070777 0.008478487 0.000121914076 -6.987123e-05
000230 27 c5 cc bc 25 37 ba b8 f8 c1 6a b9 e3 c2 d9 37
       -0.024996353 -8.8794426e-05 -0.00022388238 2.5959167e-05
000240 c2 e3 61 b9 b4 af 6f b8 12 4b 82 3c 1e 65 f8 bc
       -0.00021542519 -5.7145677e-05 0.015904937 -0.030321654
000250 e1 77 08 bd 4d 7a 38 bd 86 bd 13 39 98 b7 30 3c
       -0.03331745 -0.04503851 0.00014089615 0.01078596
000260 54 6e 30 3a 3b 38 02 bc 2b b1 2f bd 29 6e 80 bd
       0.00067303074 -0.007947977 -0.04289357 -0.062710114
000270 c0 44 9a 3b 97 c1 66 3a 99 26 48 3a 03 29 0f 3a
       0.0047079027 0.0008802651 0.0007635146 0.00054611283
000280 98 2a d5 3c b5 c5 c4 39 a7 98 9e bc b4 3d a3 b9
       0.026021287 0.00037531336 -0.0193599 -0.00031135755
000290 dc 89 d1 b9 7b c2 ab 3c b5 76 36 3d 86 04 40 3d
       -0.000399663 0.020966759 0.0445468 0.046879314
0002a0 0d 8f 16 39 82 2f bf b9 21 b1 4c 3a 02 8d 00 bd
       0.00014358405 -0.00036465755 0.00078083767 -0.031384476
0002b0 85 7d a6 b8 91 8d 81 3d c3 03 31 b8 f5 a4 7d b9
       -7.938877e-05 0.0632583 -4.2203592e-05 -0.00024189411
0002c0 18 0e e8 39 41 cd 16 37 d7 f3 99 b9 4c 8a 18 bd
       0.0004426099 8.988486e-06 -0.0002936411 -0.037241265
0002d0 69 d5 a8 39 9d 50 21 3a af b5 90 3a 09 63 73 3a
       0.0003220246 0.0006153675 0.0011040474 0.0009284472
0002e0 52 64 ad 3a e0 8b ac 39 58 42 97 39 bb 9b 10 bc
       0.001322875 0.00032910611 0.00028850394 -0.008826192
0002f0 7f 7c ce bc df 1a 48 bc 5c d5 c3 bc 1f 58 3f b8
       -0.025205849 -0.012213438 -0.023905449 -4.5620018e-05
000300 c0 a2 8e 39 92 fa 2d 3c e4 b9 ec 3b 00 e5 05 ba
       0.0002720561 0.010618823 0.0072243083 -0.0005107671
000310 63 82 2f 39 9c 05 a4 bc 78 99 ec 39 a8 a6 4f bd
       0.00016737873 -0.020022206 0.0004512777 -0.050696045
000320 6c 85 47 bd 92 ac 06 bb 4c 5b 28 3d 91 3e 8e 3c
       -0.048711225 -0.0020549637 0.041102692 0.017363818
000330 a1 61 89 b8 d7 85 6a b9 dd eb 2f 38 0e 7f cc b9
       -6.550854e-05 -0.00022365838 4.1942916e-05 -0.00039004575
000340 67 9f 88 b9 71 9b 3b 39 83 13 4c 39 5c b5 59 bd
       -0.00026058705 0.00017891616 0.00019462225 -0.053151473
000350 cd 8b 22 3a 2f 13 81 3d 9e e6 e3 3a 43 d8 e2 bc
       0.00062006415 0.06302487 0.0017387455 -0.027691012
000360 14 7b c5 39 29 13 2b 3a b0 16 f0 b9 4e 15 bd bc
       0.00037666468 0.00065259874 -0.0004579327 -0.023081448
000370 1d 8d 47 bd f8 7a c7 38 4f 89 db bc e7 cf 81 b9
       -0.04871856 9.511964e-05 -0.026798872 -0.00024759697
000380 23 e0 11 ba ab 04 b2 b9 4d 0a 44 3d 9e 5a 5d bc
       -0.000556471 -0.00033954284 0.047861386 -0.013510374
000390 e7 9d 6d 3a 92 50 d8 b9 05 0f e0 39 f2 f8 61 b9
       0.0009064362 -0.0004125876 0.000427358 -0.00021550411
0003a0 23 1c bf b8 15 0a 00 b9 fd 5f 59 b8 ce 44 5b 3d
       -9.1128306e-05 -0.00012210787 -5.1826228e-05 0.053532414
0003b0 b0 22 dc b8 09 86 99 b7 e1 9f f0 b8 48 64 12 38
       -0.000104968785 -1.8301436e-05 -0.000114738716 3.4902507e-05
0003c0 68 f6 d9 bb 2b 49 19 bc 23 3f 57 bd c3 39 7a 3a
       -0.0066516884 -0.0093558235 -0.052550446 0.00095453503
0003d0 20 b1 72 3a 3f 7d 86 39 ad 95 14 3a fc 8b 16 3a
       0.0009257961 0.00025651787 0.00056680554 0.0005742905
0003e0 ee 22 c2 bc ba d3 f5 39 b3 3f 4f 3c 38 86 04 bc
       -0.023698296 0.0004688779 0.012649464 -0.008088641
0003f0 f3 03 87 3d c2 b0 93 b9 cc 26 02 ba 15 b8 b7 b9
       0.0659255 -0.0002816972 -0.00049648876 -0.00035041632

feature_gat.conv1.Ws.1.bias f4 [32]
000000 06 0d f6 3a 1e 98 01 3b 02 42 e4 3a a2 2d 0f 3b
       0.0018772192 0.0019774507 0.0017414691 0.0021847268
000010 cf 9b d6 3a 7e 64 00 3b f8 7f fa 3a f1 a6 04 3b
       0.0016373339 0.0019591148 0.0019111624 0.0020241106
000020 65 40 e6 3a f5 82 ff 3a fd 3c 9c 3a 39 88 cb 3a
       0.0017566798 0.0019493984 0.0011920031 0.0015528268
000030 66 9d 1e 3b 7d 68 d4 3a 17 72 09 3b 31 44 03 3b
       0.0024202703 0.0016205456 0.0020972544 0.002002966
000040 82 d8 0b 3b 70 93 06 3b f0 92 e3 3a ab 5f e1 3a
       0.0021338766 0.0020534657 0.0017362516 0.0017194649
000050 db f0 ec 3a c2 f0 e6 3a a0 aa 06 3b 54 ef 03 3b
       0.0018077152 0.0017619359 0.0020548478 0.0020131664
000060 e8 ff 00 3b b0 1d d9 3a 02 6e f3 3a 5d 1d 00 3b
       0.0019683782 0.0016564634 0.0018572214 0.0019548752
000070 d8 d6 fd 3a 1c ae fd 3a 55 ec 0d 3b 09 d2 00 3b
       0.0019366397 0.0019354257 0.0021655757 0.001965644

feature_gat.conv1.Ws.2.weight f4 [32, 30]
000000 64 f1 13 39 68 51 67 3a c4 32 d4 39 ff 58 5f bd
       0.00014108937 0.0008824081 0.00040473614 -0.054528233
000010 9b c3 83 bc fc d0 38 39 e0 bc cb 38 36 17 f8 3a
       -0.016084483 0.0001762546 9.714975e-05 0.0018927816
000020 b1 e5 9c 3a 1d 2b 87 39 cc 5e ae 3b e7 47 07 3b
       0.0011970309 0.00025781328 0.0053213593 0.0020642222
000030 92 04 58 ba 96 c6 bf b9 8c 6a 6c 3c 0d 8e 64 bb
       -0.0008240427 -0.00036578317 0.0144297 -0.0034874708
000040 bf 4c fb 39 ee 14 a1 b9 5d 0f ae 3c d0 05 85 b9
       0.0004793163 -0.00030723907 0.02124756 -0.00025372067
000050 1d eb 56 3d 91 5a 28 3d dc 09 56 b9 01 db ac 39
       0.052470315 0.041101996 -0.00020412303 0.00032969567
000060 3e b5 37 bd 1b 0b 18 bc aa 77 a2 39 6c 6a 16 39
       -0.04485058 -0.0092799915 0.00030988205 0.0001434476
000070 30 80 06 ba d5 4b 20 b8 0a e3 5d 39 8e 26 57 bd
       -0.0005130796 -3.8217597e-05 0.00021160781 -0.052527003
000080 e5 fe 2e 3d ff 48 36 3d b5 74 68 3d 50 c5 a7 39
       0.042723555 0.04450321 0.056751925 0.0003199973
000090 e0 68 a8 b8 80 e9 4e 3a ef 3c 3a 3a ed e1 d4 b8
       -8.030399e-05 0.00078930706 0.0007104417 -0.0001015103
0000a0 07 d8 02 bc 30 a8 31 bd 75 8d 3f ba 97 c6 17 ba
       -0.007986075 -0.043373287 -0.00073071505 -0.0005789785
0000b0 99 30 55 bc e7 57 d3 3b 86 f7 0a 3a 43 3a 76 3a
       -0.013012075 0.0064496878 0.0005301166 0.0009392837
0000c0 43 4c aa 39 0e 29 b9 3b cd d3 65 3a 9e 59 8d 3b
       0.00032481746 0.005650646 0.00087672175 0.0043136617
0000d0 05 1d 9c b7 2a 33 92 ba 5e 4f 7a b9 52 a6 c2 bc
       -1.8610162e-05 -0.0011154164 -0.00023871424 -0.023760948
0000e0 ff 41 21 b9 9a a4 d6 b9 db eb 1e b8 5c 54 0a b9
       -0.00015378742 -0.00040939898 -3.7889793e-05 -0.00013192132
0000f0 e4 17 04 39 26 be 15 3a cf 46 e4 39 63 c2 9f 39
       0.00012597401 0.0005712233 0.00043540305 0.00030471673
000100 0f 3a 3a 3a ce c4 b1 b8 07 0c f9 3c 42 56 1f 3a
       0.00071039883 -8.4766754e-05 0.030401243 0.0006078222
000110 ca 16 f1 38 0a f0 7c 3d 20 39 13 3a 73 29 d2 b9
       0.0001149602 0.061752357 0.0005616117 -0.00040085203
000120 73 c0 01 ba c1 03 85 b9 e5 29 98 3a 71 01 9c b9
       -0.00049496366 -0.00025370534 0.0011609165 -0.00029755713
000130 c7 6b f2 39 80 ee 43 bd 83 3f 9e ba f4 86 f8 3b
       0.00046238137 -0.047834873 -0.0012073371 0.007584447
000140 1b 31 a0 3c fd d9 88 3d 7e 97 2d 3d 34 ef 46 3d
       0.019554665 0.06682203 0.042380802 0.048567966
000150 52 f5 14 3a 42 8d 91 b9 31 eb fe 38 bb 40 b4 bc
       0.00056823075 -0.000277618 0.000121554716 -0.022003522
000160 3b 24 99 b9 b4 7e 4d 38 fe 12 e7 3c fe f5 2e 3d
       -0.00029209428 4.899381e-05 0.028207298 0.042715065
000170 1d 18 98 3a 3f 91 55 3a 83 1a a9 3a 29 0d 09 3a
       0.0011603866 0.00081469485 0.0012901578 0.0005228096
000180 65 98 a3 3a 1b 04 2f 3a c3 d5 bd 3c fe 23 86 39
       0.001248133 0.0006676332 0.023173219 0.00025585288
000190 43 e7 fc 3c 7c ac 5a bd cc e5 72 bd f0 51 22 3d
       0.030871993 -0.05338715 -0.059301183 0.039628923
0001a0 63 a3 1a ba bc f6 0d ba 97 68 24 bc 12 14 24 3d
       -0.00058989803 -0.00054154894 -0.010034702 0.040058203
0001b0 79 d7 e9 39 d1 49 e2 3c bd fa 8a 3b 5c c8 4c 3d
       0.00044601763 0.027623089 0.004241316 0.049995765
0001c0 17 f5 88 b8 87 fb 63 bd 7d 53 96 b9 f3 64 30 ba
       -6.530637e-05 -0.055659797 -0.00028672433 -0.000672891
0001d0 78 25 89 bb 58 89 2c bd 37 f1 c9 b9 e8 36 5f 3d
       -0.004185375 -0.04212317 -0.00038517427 0.054495722
0001e0 ec ef 05 3d f4 04 44 3a c2 d9 38 3d d0 a4 4a 3a
       0.03269951 0.0007477545 0.045129545 0.00077302475
0001f0 be 17 fd ba ce 76 07 3c 18 55 23 39 4b ca e9 b9
       -0.0019309444 0.008268071 0.00015576591 -0.00044591943
000200 3c b1 4b 3a b6 1b 55 3a 5c 62 6c 3d ba 7e 4f 39
       0.00077702454 0.00081294344 0.05771099 0.00019788268
000210 85 66 87 bd c8 e5 d5 bc ef fb 12 ba a8 e1 00 ba
       -0.06611351 -0.026110545 -0.0005606999 -0.0004916438
000220 0f a1 3b ba fd 3d 25 3a aa b4 83 3d ba 00 03 3d
       -0.00071574835 0.00063034875 0.06430943 0.031983115
000230 0f 07 a6 ba 54 99 04 b9 b6 98 0f bd 84 60 d4 39
       -0.0012666899 -0.0001264562 -0.035057746 0.000405077
000240 aa 72 d0 b9 80 3e 40 ba 19 f1 e0 bc 11 f1 5f bd
       -0.00039758283 -0.0007333532 -0.027458714 -0.05467326
000250 2d 17 00 3b 62 e5 25 b9 4b 8a 70 39 23 77 bc 3c
       0.0019545064 -0.00015821078 0.00022939702 0.023006028
000260 ab 14 96 bc 87 2d 30 3a c7 dc 0b 3b 2a b9 1c 3d
       -0.018320402 0.0006720651 0.002134131 0.038262524
000270 99 c5 f2 3c 3f f3 14 3a f0 a1 00 3a e9 ba 34 bd
       0.029635238 0.00056819984 0.0004906943 -0.044123564
000280 87 3d 34 3c 0e 78 10 bd 43 f1 76 bb 6c 33 93 3c
       0.011000997 -0.035270743 -0.0037680424 0.017968856
000290 4c 6a 42 bd f9 44 84 bc ad e1 24 3a 10 3b 83 bd
       -0.047464654 -0.01614617 0.0006289732 -0.0640775
0002a0 81 8c ea 3c 07 44 d5 bc 44 7c 05 bd 9d 59 34 3a
       0.02863145 -0.026033415 -0.032589212 0.00068798085
0002b0 49 50 96 3a 4c d4 bb 39 07 ad 8e bc 6c 5f c2 3a
       0.0011468019 0.00035825593 -0.01741649 0.0014829463
0002c0 20 27 ad 39 2c 31 e0 38 29 74 23 3d 80 38 3c 3c
       0.00033026282 0.00010690311 0.0399057 0.01148808
0002d0 ad 0f 1a 39 c0 14 7b bc 55 c2 8b 39 3b 1b e9 39
       0.00014692424 -0.015324771 0.00026656935 0.0004446151
0002e0 51 0c 3e 3b ad 98 00 b9 91 da e8 39 df 81 39 3c
       0.002899904 -0.00012263907 0.00044413333 0.011322468
0002f0 e6 ac e0 bc 06 89 8e 3b 04 4e 04 3d a9 1f 12 bb
       -0.027426194 0.0043498306 0.032300964 -0.0022296703
000300 fb 98 6a bc ab b1 29 3d 15 c4 73 3c 88 73 6c bd
       -0.0143187 0.041429203 0.014878293 -0.057727367
000310 44 18 6b 3d 89 86 92 39 fa 69 1c 39 e5 ea 0e 3d
       0.05739619 0.00027947527 0.00014916799 0.03489198
000320 3c 02 2f 3a 42 6d 7b bd 18 77 28 39 55 77 34 3a
       0.0006676053 -0.061383493 0.00016066094 0.0006884237
000330 c9 5c 81 3b c3 bc 12 bc 8e c2 a4 39 0a 0c 1d 3d
       0.0039478284 -0.008956137 0.00031425472 0.03834156
000340 9f 12 e1 3b 2a 77 d3 b6 93 0f 8b 3a f8 e2 b1 ba
       0.006868675 -6.3021625e-06 0.00106095 -0.001357167
000350 c3 ee 03 3c 10 d8 52 bb 2f 35 20 3a 62 1b eb b8
       0.008052531 -0.003217224 0.00061114406 -0.00011210774
000360 d2 36 c0 39 31 0e 61 bd 76 bb bb 39 e5 23 04 3d
       0.00036661938 -0.054945175 0.0003580709 0.032260794
000370 88 c7 5c 3a 8d 38 84 39 17 59 18 ba 89 2c 0d ba
       0.00084220665 0.00025219136 -0.0005811615 -0.00053853594
000380 e3 f2 a3 b9 0a 3b 6c bd 3d 05 ff 39 0b d3 cb 39
       -0.00031270747 -0.05767349 0.00048641293 0.00038876417
000390 8f 85 9f 3c a6 ca 2c bd 7a ad 81 3d 18 d9 93 3a
       0.019472865 -0.042185448 0.06331916 0.0011279909
0003a0 a0 17 29 bd e9 b7 37 37 33 0f 31 3b 96 0a 6c 3d
       -0.041282296 1.095047e-05 0.0027017116 0.057627283
0003b0 5c 1d 7b bd 0a 2e e6 3c 4f 93 03 bd 8b 37 ef b7
       -0.061307296 0.028098125 -0.032122906 -2.8516884e-05
0003c0 73 02 f9 37 ad 87 86 bb 0d 62 2a 3a 3e 56 24 3a
       2.9684254e-05 -0.0041055293 0.0006499596 0.00062689546
0003d0 9e 4b 8c ba 8d 6e 34 3a ea 00 05 3a a4 c0 d3 bc
       -0.0010703688 0.00068829284 0.00050736836 -0.025848694
0003e0 98 46 2d b5 bc 7e 80 3c eb 59 a7 ba c5 40 24 39
       -6.455025e-07 0.015685432 -0.0012767887 0.00015664387
0003f0 3f 25 26 3c 8a ab c1 b9 96 0d bc 3c 4d 58 a8 b9
       0.010140716 -0.00036939635 0.022955697 -0.00032109246

feature_gat.conv1.Ws.2.bias f4 [32]
000000 7e 9c fa 3a 05 66 24 3b fc ef 00 3b 1c 69 19 3b
       0.0019120125 0.0025085222 0.0019674292 0.0023408597
000010 ca f3 2b 3b a5 64 1d 3b 0e 7a 00 3b 1b 79 00 3b
       0.002623784 0.0024016288 0.0019604 0.0019603434
000020 ae 73 ed 3a 8f b5 fb 3a b4 03 10 3b 64 43 ff 3a
       0.001811614 0.0019203889 0.0021974863 0.001947504
000030 c2 77 0c 3b b2 a9 07 3b d8 d1 07 3b 8e 25 1a 3b
       0.0021433686 0.0020700512 0.0020724442 0.002352092
000040 9c c4 f2 3a 27 96 ec 3a 50 24 05 3b e4 71 f1 3a
       0.0018521729 0.001805012 0.0020315833 0.0018420783
000050 d7 0d e9 3a 02 8c ff 3a be 20 cd 3a bb 0f 04 3b
       0.0017780614 0.0019496682 0.0015650017 0.0020150978
000060 07 ba 28 3b d6 60 01 3b 7c 7a e1 3a 80 d4 03 3b
       0.0025745647 0.0019741557 0.0017202641 0.0020115674
000070 ac d8 0e 3b 0f be 0d 3b 63 11 08 3b af 2e f6 3a
       0.0021796627 0.0021628176 0.0020762316 0.0018782223

feature_gat.conv1.Ws.3.weight f4 [32, 30]
000000 49 ce 33 b9 d1 34 5e 3a e9 b2 80 38 79 aa b5 39
       -0.00017147617 0.0008476498 6.13684e-05 0.00034650022
000010 30 73 13 3a a8 cd 1d ba 29 e7 3f bd 24 43 f7 3b
       0.0005624769 -0.000601972 -0.04685131 0.0075458456
000020 6a 57 9f 3b f3 1e 03 bd a8 b0 eb 39 26 ea c6 39
       0.0048627155 -0.032011937 0.00044954312 0.00037939957
000030 a5 50 6a bd 30 ac 74 b9 02 b0 70 b9 80 fb 2d bd
       -0.057205815 -0.00023333798 -0.00022953752 -0.042476177
000040 e7 c9 cf bc 32 9c 1e 3d 5b 06 42 bd c3 72 97 38
       -0.02536483 0.03872318 -0.047369342 7.221617e-05
000050 74 24 24 3a 61 4b 02 39 57 75 ce b8 88 73 2c 3c
       0.00062615355 0.00012425847 -9.844702e-05 0.010525592
000060 cb 0f f1 39 91 4f 02 b8 fb 0d 32 3a e0 b8 92 39
       0.0004597887 -3.1068517e-05 0.00067922444 0.00027985033
000070 5d f7 ad b9 7a 96 d3 38 1f f9 9f bc 2b 73 6b bd
       -0.0003318143 0.000100892925 -0.01952797 -0.05748288
000080 62 ee 3b bd ab 5d c8 bc e9 aa 14 3a b2 0a 7e b8
       -0.045881636 -0.024458727 0.00056712196 -6.056828e-05
000090 c6 bb 68 3d 4d b8 1c bd 79 ff 80 39 a4 cc 9a 3b
       0.0568197 -0.0382617 0.00024604404 0.004724102
0000a0 10 0c 90 3c 6c 68 bd bb f9 14 f9 b9 8a 5b 44 ba
       0.017583877 -0.0057802703 -0.00047508607 -0.0007490447
0000b0 5b 53 51 b9 92 11 07 b9 6f 4b 1e 3a 2f 74 7e 3b
       -0.00019962846 -0.00012881149 0.0006038462 0.0038826575
0000c0 ba 44 84 bb 61 44 67 39 67 45 c5 bc 41 cd ec 38
       -0.004036513 0.0002205535 -0.024080945 0.000112915885
0000d0 18 4c 69 b9 57 c5 8d b8 4a 0a e7 38 7a 9f 7c bd
       -0.00022248959 -6.760161e-05 0.00011016855 -0.061675526
0000e0 1f 9b 57 3a df 55 41 bd 65 32 ef 3a 82 22 69 bd
       0.0008224714 -0.047201034 0.0018249272 -0.056917675
0000f0 81 ae 59 3b 01 a6 30 3a 5e 69 2a bd 14 d8 21 39
       0.0033215585 0.00067386037 -0.041604392 0.00015434652
000100 f0 8f bb 39 51 48 b5 39 ba c3 83 bb 0c aa 01 3a
       0.0003577466 0.0003457689 -0.004021135 0.00049462984
000110 6c 54 0c 38 38 de 7e bd 84 d9 4c 39 0c 32 95 b9
       3.3457225e-05 -0.062223643 0.00019535987 -0.00028456782
000120 f9 33 80 b9 41 78 ce b8 a0 72 8f 3c c3 f0 af bc
       -0.00024452785 -9.8452445e-05 0.017510712 -0.021477109
000130 9c bc a2 bc 6c 80 6b bd 6e 01 46 b8 47 ef f8 b6
       -0.019865327 -0.05749552 -4.720821e-05 -7.4188315e-06
000140 cb f1 bf 39 1f b8 bb 38 93 0e 0e bc 41 99 96 b8
       0.0003661051 8.95115e-05 -0.008670467 -7.181103e-05
000150 39 53 73 b7 09 40 cf 39 34 24 16 bb 66 e5 32 b9
       -1.45033055e-05 0.00039529827 -0.0022909762 -0.0001706086
000160 5c 18 72 bc 9c d7 96 3c 90 f5 7c 3a 47 7f d0 39
       -0.014776316 0.018413357 0.0009649629 0.0003976768
000170 e2 6f e1 3c 9e 85 3c 3a fb ca 17 bb 8d 7f 35 3c
       0.02751917 0.00071915414 -0.0023161757 0.011077774
000180 38 da af bc fe 3d 19 3a 7e 04 41 3d 99 81 93 3b
       -0.02146636 0.00058457244 0.047123425 0.004501533
000190 bd 0e 21 3a 93 0e ff b9 83 14 f5 bc 3c 0c 58 ba
       0.0006143859 -0.0004864825 -0.029917007 -0.0008241569
0001a0 c1 69 2c ba f9 a2 0a bd cc c2 7a b9 8e cd cd 3c
       -0.0006577038 -0.03384683 -0.00023914425 0.02512243
0001b0 1f ea 66 3a da e8 63 3d 13 a5 c8 3b 4c 75 92 b9
       0.00088086905 0.055641986 0.006123194 -0.00027934683
0001c0 ae b3 83 ba 96 e1 29 b9 e3 63 e5 ba 23 fb a6 b9
       -0.0010048056 -0.00016201133 -0.0017501082 -0.000318491
0001d0 ad 8c d1 bb 01 b3 3f b9 40 33 e0 3b c7 64 b2 3b
       -0.0063949437 -0.00018281864 0.006842047 0.0054441425
0001e0 6a 2d 67 39 a5 96 0c 3a cc b3 e7 39 21 2e 2b 3c
       0.00022046795 0.0005363024 0.00044193713 0.01044801
0001f0 4b 07 12 bc 69 c4 51 39 6b c6 e3 39 49 1e a1 39
       -0.008912872 0.00020004962 0.00043444647 0.00030730877
000200 e3 aa 33 bc fe 86 20 3d 8b 6e c7 3a 01 db 17 3d
       -0.010966036 0.03919124 0.001521544 0.037074093
000210 df 76 f2 bb 42 cf b4 b9 4c 27 d8 b9 ab 4f b6 b9
       -0.0073994244 -0.00034486694 -0.0004122801 -0.00034773102
000220 04 96 44 3d 66 4b 8a 39 48 e5 44 39 dc a6 cd ba
       0.04799463 0.00026377587 0.0001877743 -0.0015689987
000230 6e 00 78 3c 25 9c 71 b9 e6 c9 f9 ba 9d 52 3e 39
       0.015136821 -0.0002304172 -0.0019057363 0.00018150588
000240 45 d0 a1 bc 42 20 85 3b 23 a6 9a 3b 81 4b e3 3a
       -0.019752631 0.0040626833 0.004719512 0.0017341228
000250 00 27 75 b9 6e ea 12 39 47 ab 3d 3c b7 8a 7e 3b
       -0.0002337955 0.00014010977 0.01157648 0.0038840005
000260 82 7b 68 3d af 52 4b 3c 16 ee 6c bc 7f a9 23 bd
       0.05675841 0.01240985 -0.014461061 -0.039956566
000270 6f 10 18 3d 6f ca f6 39 01 02 41 39 53 5f 0f bd
       0.037125047 0.000470716 0.00018406661 -0.035003018
000280 fa 93 65 39 c2 ec eb 3c ad fe ae b9 25 a1 8d b7
       0.00021894267 0.028799418 -0.00033377614 -1.6883549e-05
000290 2e fd 75 3c 46 32 83 b8 36 53 4f ba 18 0f 65 39
       0.015013976 -6.255931e-05 -0.0007908823 0.00021844765
0002a0 61 90 91 37 e5 c2 d2 3b 92 b9 03 3a 9a b9 d1 38
       1.7352579e-05 0.0064319246 0.00050249055 0.000100004676
0002b0 ef 8d 20 b9 2a 79 ee 3c 4c 41 ed bb 21 3a 4d 3c
       -0.00015311663 0.02911051 -0.00724045 0.012526066
0002c0 45 d5 dd bc 19 71 12 3a d9 77 08 3b 6f c6 fc 38
       -0.027079234 0.0005586311 0.0020823388 0.000120532575
0002d0 51 eb 92 3b fb a7 29 3a 71 83 72 39 5a d6 d2 39
       0.0044836183 0.00064718694 0.00023127884 0.00040214026
0002e0 65 3b 83 bd eb 79 47 b7 85 d0 c3 bc 7f 56 fc 39
       -0.06407813 -1.1889711e-05 -0.02390314 0.0004812963
0002f0 c1 13 b6 39 37 a0 95 39 dc cd 7e bd 8e 86 80 3a
       0.00034728463 0.00028538864 -0.06220804 0.0009805725
000300 65 ac b0 b9 11 44 8d b8 b3 7a 17 ba f8 9d 28 3d
       -0.0003369778 -6.736082e-05 -0.00057784765 0.041166276
000310 90 45 bf 39 98 e8 58 b9 c3 8d b5 38 c0 da bf b8
       0.00036482187 -0.00020686013 8.657158e-05 -9.148335e-05
000320 6d 13 93 b9 0e 09 30 b8 d0 fb 4f bb 38 b2 50 bd
       -0.00028052498 -4.1970103e-05 -0.0031735785 -0.050951213
000330 2e df a7 b9 c4 aa 14 b9 ce b5 07 3a e2 ae ad 39
       -0.00032019004 -0.00014177995 0.00051769323 0.0003312743
000340 0f 3d 12 bc f7 be 11 bd 2b 88 d1 3a d9 6e 4e 3a
       -0.00892569 -0.03558251 0.0015986016 0.0007874794
000350 8a 43 ef 38 40 0b 14 3a 4b 82 72 3d 86 ac 3e bb
       0.00011408988 0.00056474283 0.05920629 -0.0029094531
000360 71 9d 15 bd ed 00 10 3a 4e 2f a7 39 49 05 d6 bb
       -0.0365271 0.0005493302 0.00031887967 -0.0065313918
000370 cb df da bb 72 3a af 39 3e b6 bf ba 4a bf 88 b9
       -0.00667951 0.00033422146 -0.0014626456 -0.00026082463
000380 b1 d7 e6 b9 dd 1a cf bc 55 c4 c1 39 5b 24 90 39
       -0.0004402972 -0.025281364 0.00036958107 0.00027492907
000390 15 63 3d ba 7c f4 23 bc c0 d6 0b 3a 57 f1 f0 3b
       -0.0007224542 -0.01000702 0.00053344294 0.0073529887
0003a0 70 3a 51 3d 47 d5 89 38 c6 9d 7c bd 34 14 a6 3a
       0.05108112 6.572395e-05 -0.061673902 0.0012670816
0003b0 3a 59 26 3a 2f eb 8d 36 0b 66 cb b8 8f 46 e4 38
       0.0006345693 4.2295064e-06 -9.698801e-05 0.0001088503
0003c0 cb 22 c0 3c 89 3e d2 bc 52 d9 08 3a 78 58 09 3a
       0.02345409 -0.025664585 0.00052203715 0.0005239318
0003d0 14 c1 84 3a 9f 2c d4 38 a9 11 69 39 5c 41 9d bb
       0.0010128343 0.00010117259 0.0002222719 -0.004799051
0003e0 f3 22 55 3c 51 e1 ca 39 8f 9b 01 3a 90 3a 7e 38
       0.013008821 0.00038696316 0.00049441395 6.061286e-05
0003f0 83 96 56 ba d2 44 f8 b9 b3 6e 1e ba 5a 9b a9 3a
       -0.000818588 -0.0004735352 -0.0006043717 0.0012939975

feature_gat.conv1.Ws.3.bias f4 [32]
000000 2d e9 ee 3a 47 56 bf 3a 7f 06 e0 3a e6 17 00 3b
       0.0018227451 0.0014597856 0.001709178 0.0019545495
000010 df bf 02 3b 34 2b d2 3a 33 82 c3 3a af 73 eb 3a
       0.001995079 0.0016034604 0.0014916122 0.0017963554
000020 d2 dd 06 3b 58 41 fc 3a 44 a4 03 3b 3c ef ef 3a
       0.0020578993 0.0019245548 0.0020086924 0.001830555
000030 15 47 04 3b 14 3d ba 3a e3 8d 11 3b e0 98 06 3b
       0.002018397 0.0014208877 0.0022209815 0.0020537898
000040 fc 08 0a 3b a0 53 e7 3a 8c e1 06 3b 3e 5f d6 3a
       0.0021062484 0.0017648824 0.0020581214 0.0016355289
000050 16 e3 cc 3a 36 bf da 3a f9 8f 07 3b 8c 50 f4 3a
       0.0015631642 0.0016689065 0.002068518 0.0018639727
000060 f9 38 05 3b 31 62 17 3b e5 a9 ef 3a a6 16 f6 3a
       0.0020328148 0.0023099298 0.0018284885 0.001877506
000070 a9 cc 09 3b e6 98 ca 3a 1f a9 e8 3a 56 77 13 3b
       0.0021026528 0.0015456944 0.0017750597 0.002250155

feature_gat.conv1.Ws.4.weight f4 [32, 30]
000000 e7 bf 69 39 97 8b 0a 3a 55 bf 5d 3a cd e2 24 3d
       0.00022292101 0.0005285083 0.00084589917 0.040255357
000010 44 2f 6b 3a e4 0f 16 3c e4 cf 54 bd 17 64 7c bd
       0.00089715817 0.009159062 -0.051956072 -0.06161889
000020 4d 37 6b bd 2a 0b d5 ba 86 61 67 3b 2a c4 6d bc
       -0.057425786 -0.0016253938 0.0035305931 -0.014512101
000030 f0 96 1c ba 6d 09 01 3d e5 96 21 bd 66 82 b7 bc
       -0.0005973419 0.03150313 -0.039450545 -0.022401046
000040 bb 01 6f 39 79 75 01 bd f7 1d 8c 39 b3 56 2f ba
       0.00022793461 -0.03160617 0.00026725206 -0.00066886394
000050 c5 d4 04 3a ec 42 5b b9 03 c1 73 3d 11 34 0d 3a
       0.00050671055 -0.00020910398 0.059510242 0.00053864816
000060 8e cb 5c 3c 46 b0 a7 b9 55 7c f2 b8 ab 63 69 b9
       0.013476266 -0.00031984056 -0.00011562618 -0.00022257741
000070 ee b0 7e 3c d3 19 80 bc 81 6e fe b9 74 cf 85 bb
       0.015545113 -0.015637314 -0.00048528987 -0.004083568
000080 4f 0a 3e 3a cd 94 81 3c 1f ac b3 ba a8 02 c8 bc
       0.0007249461 0.015818024 -0.0013707912 -0.02441533
000090 30 3b 82 3d f6 17 6f 3b f5 3d 90 3c d8 29 7d 39
       0.06358945 0.0036482788 0.017607668 0.00024143548
0000a0 9e 8b 2f 3d 42 b2 d3 39 f9 d1 3f ba 23 68 e3 b9
       0.04285776 0.0004037787 -0.000731736 -0.00043374402
0000b0 2e cf 75 bd 6f 73 17 ba a3 3f 0d 3a 7d 55 01 3a
       -0.060012035 -0.0005777394 0.0005388206 0.0004933698
0000c0 1f 25 4d 39 be d4 45 3a 0d 54 2b 3a 02 99 e8 36
       0.00019564152 0.00075466547 0.0006535657 6.9319512e-06
0000d0 a3 ba 7f b8 05 78 f7 39 f8 ab 07 39 1f e3 03 ba
       -6.0970557e-05 0.00047200933 0.00012938667 -0.0005031097
0000e0 14 c4 b0 bc 9c f0 30 b9 30 40 83 b9 31 8e 99 b8
       -0.021577872 -0.00016874302 -0.0002503409 -7.322094e-05
0000f0 ab 23 83 bc de 1c 26 3a 69 b9 6a bd f1 d6 d6 39
       -0.016008219 0.0006336699 -0.057305727 0.00040977405
000100 2c 1f 2b 3a ea f5 3e b9 95 6c d0 39 88 9f be 3a
       0.00065277773 -0.00018211422 0.00039753751 0.0014543394
000110 01 c2 2b bc 47 0c 83 bd be 6b 00 3a 8a 47 05 3a
       -0.010483266 -0.06398826 0.00048988673 0.00050842075
000120 c6 eb f9 b9 f4 e9 4d b9 31 4c 8e 3b ee df d7 3c
       -0.00047668646 -0.00019637478 0.004342579 0.026351895
000130 f0 46 b6 39 c3 70 0e bd ba a8 26 b9 1a c0 37 3b
       0.00034766598 -0.034775507 -0.00015893849 0.0028038085
000140 59 52 d2 3c f2 2f e0 b8 79 b3 24 b9 a6 d0 32 39
       0.025674032 -0.00010690083 -0.00015707118 0.0001705313
000150 94 8e b7 37 3e 4b 01 bd 16 b6 19 3a ac 92 9a 39
       2.1881693e-05 -0.031565897 0.000586362 0.00029482448
000160 9d 3b f0 b8 a4 df 19 bb d5 61 ca bc 4c 40 2e 3a
       -0.000114551956 -0.0023479247 -0.024704853 0.0006647154
000170 ed 49 12 3a 9d f4 c1 3c 99 9d 7d 3a d2 66 1f 3d
       0.0005580474 0.023676211 0.0009674668 0.038916416
000180 ff 29 a5 38 be 84 76 bc 87 18 44 ba c3 54 aa ba
       7.8756355e-05 -0.015046297 -0.00074804615 -0.0012995232
000190 c1 47 19 3b b0 3e 13 bd 08 51 51 3a c0 92 cd b9
       0.0023388716 -0.035948455 0.0007984792 -0.00039209984
0001a0 2d 29 07 ba 96 25 c8 b9 9b 62 82 bc 6b 86 d8 39
       -0.0005155977 -0.00038174976 -0.01591616 0.0004129888
0001b0 25 54 26 3d 86 e0 9b b9 a4 bd 5b bd d7 19 1e 39
       0.04060759 -0.00029731187 -0.053647652 0.0001507768
0001c0 36 f9 9f bc 5b 2f 2a 39 45 16 24 39 23 82 33 b8
       -0.019528013 0.00016230105 0.00015648555 -4.2798125e-05
0001d0 65 49 15 b8 6f 7a af b8 59 40 1e b9 e6 06 7e 36
       -3.5592722e-05 -8.367455e-05 -0.00015092026 3.7852965e-06
0001e0 d7 0f 20 38 a5 05 12 3a 79 9d 0c 3d 35 ca 29 3a
       3.8161725e-05 0.0005570299 0.034329865 0.00064769696
0001f0 d3 b2 43 3d 64 40 12 3d 44 6a b1 39 f3 09 62 bb
       0.047777962 0.03570594 0.00033839245 -0.0034490793
000200 8a b9 74 bd 56 4c c4 3c ea 76 b1 3a ae fb d7 39
       -0.059747256 0.023962181 0.0013539467 0.00041195512
000210 ed 2c 1d bd 47 ea 58 3d ac dc 1d bc f4 bc bd ba
       -0.038372923 0.0529578 -0.009635132 -0.0014475868
000220 96 1e 37 bd 09 10 be 39 89 29 d3 39 92 cf 6b 3d
       -0.044706903 0.0003625157 0.00040276002 0.057571
000230 fb 2e 34 3a 26 07 37 3d 86 a6 a0 b8 51 f7 d2 bb
       0.0006873456 0.04468455 -7.660412e-05 -0.006438174
000240 03 6c 3a b7 a7 96 f6 b8 3c 6e b0 39 db d2 01 bd
       -1.1111612e-05 -0.00011758255 0.00033651467 -0.031695228
000250 1b 83 0a bc d1 8c 0d 3c 18 db b5 38 e1 c4 1a 3a
       -0.00845411 0.00863953 8.671562e-05 0.0005903971
000260 f8 f0 8e 38 34 50 c8 39 9d 92 05 3a b5 9f 00 b9
       6.8159716e-05 0.0003820673 0.00050953944 -0.00012266527
000270 b3 e7 a2 39 cb 73 d2 39 1f ae b1 37 71 8d 09 39
       0.00031071677 0.00040140594 2.1181126e-05 0.00013118029
000280 83 a5 e3 39 dc a7 86 bd e4 9d 1f 3d 28 e1 49 b8
       0.0004342013 -0.065749854 0.038968936 -4.8131827e-05
000290 a7 e2 d3 b9 fe ef 52 b9 9a db 78 3d 55 76 46 bd
       -0.00040413925 -0.00020116565 0.060756303 -0.048452694
0002a0 33 d0 e4 3a 71 97 58 bb 7f c0 e3 3c 89 18 ad 38
       0.0017457068 -0.003304925 0.02780175 8.253853e-05
0002b0 c6 75 2d 3b 7e 72 6a 39 81 5b 32 3d 0c 9e 03 bc
       0.0026467904 0.0002235863 0.043544296 -0.008033287
0002c0 46 19 18 3a 1f 63 26 3d ce 53 f6 b8 3c 73 d8 3c
       0.0005802106 0.040621873 -0.00011745804 0.026422136
0002d0 d0 7d 8c bc a9 e2 37 39 d3 c6 c0 bb c6 70 3c 3d
       -0.017149836 0.00017536677 -0.0058830767 0.046005987
0002e0 9c 48 dd 37 2c ea 9b 3b 87 84 e5 3c 0d 0e 93 bb
       2.6379064e-05 0.00475814 0.028017296 -0.004487759
0002f0 d7 f1 f4 39 e0 33 88 bc 1e 2d 2f bb 0c be ce 3c
       0.0004671949 -0.016626298 -0.0026729773 0.025237106
000300 7c fa f0 3c 7e 15 97 3c 0d bb 7d b9 a2 f6 45 3d
       0.029416315 0.018442865 -0.00024197642 0.04833091
000310 bb 51 35 ba e4 d6 da 39 96 49 80 ba b0 89 82 3b
       -0.0006916781 0.00041740306 -0.0009787555 0.003983699
000320 9c 53 22 3a 1c b9 73 bb 0e 60 1d b9 c2 8a 0b ba
       0.00061922683 -0.0037189191 -0.0001500847 -0.0005323106
000330 37 22 8c b7 13 0b 97 b7 4a 72 85 b7 7e 42 0f 38
       -1.6705233e-05 -1.800576e-05 -1.5908056e-05 3.4155782e-05
000340 95 6d a4 3a bf e6 78 38 43 85 4d 3d 03 55 15 3b
       0.0012544865 5.9342707e-05 0.050175916 0.0022786267
000350 ea 26 6c bb 4d f4 17 bd 1b 75 18 3a 5a 52 fd b8
       -0.0036033937 -0.037098218 0.000581579 -0.00012079319
000360 ce c7 36 3d 9c 27 a0 39 2c 98 6f 39 84 a9 0f 39
       0.044624142 0.0003054709 0.00022849505 0.00013700692
000370 41 af 91 bc 2a c0 4e bc 8c 75 d1 38 fd d6 14 bd
       -0.017783763 -0.012619058 9.9877914e-05 -0.03633784
000380 b1 c3 28 ba 97 0f a3 b9 bc 0e 12 3c 2e 9c ad 39
       -0.00064378517 -0.00031101398 0.008914646 0.00033113494
000390 ae d6 04 3d fe 31 da b8 37 c3 c3 3a 9a 84 09 b9
       0.032431297 -0.00010404362 0.0014935498 -0.00013114736
0003a0 0a 26 43 b9 45 a9 80 3b eb 0b f5 37 b8 a8 6d 38
       -0.0001861082 0.0039264285 2.9211826e-05 5.6662335e-05
0003b0 6b 59 c9 3c 14 9b 4a 3c 51 95 93 bb 46 72 fc 3b
       0.02457877 0.012366075 -0.004503884 0.007704052
0003c0 92 b0 74 38 19 91 62 bc d1 28 55 bd e5 3b 38 3a
       5.8338577e-05 -0.013828539 -0.05204088 0.0007027968
0003d0 57 8e 11 3d 3d ca 75 39 c3 0d 85 3c cc c9 83 bd
       0.035536136 0.0002344036 0.016241914 -0.06434974
0003e0 12 dd ad 3a 18 7b c8 39 e6 c8 5d 3a b3 11 86 39
       0.0013264737 0.00038238685 0.0008460417 0.0002557166
0003f0 4d b3 f8 b9 81 4b 70 b9 2a e8 d5 3b ba 6a 04 bd
       -0.00047435836 -0.00022916311 0.0065279203 -0.032328345

feature_gat.conv1.Ws.4.bias f4 [32]
000000 23 fc f6 3a b2 0f 17 3b 5e 09 e0 3a c5 e7 0a 3b
       0.0018843453 0.0023050127 0.0017092635 0.0021195274
000010 2f 10 01 3b 54 2c ed 3a a7 fd 0b 3b 09 6e f9 3a
       0.0019693484 0.0018094876 0.0021360905 0.0019029985
000020 97 ba 00 3b fc 91 04 3b c1 ad 12 3b 03 6f ec 3a
       0.0019642466 0.0020228615 0.0022381397 0.0018038455
000030 b5 63 02 3b 89 c9 fb 3a ba d1 e3 3a 30 37 f9 3a
       0.0019895856 0.0019209842 0.0017381229 0.001901364
000040 38 8f 01 3b e9 b9 ea 3a 6b 0b ff 3a 65 55 fd 3a
       0.0019769203 0.0017908189 0.0019458359 0.0019327818
000050 9c 6d dc 3a 37 5c fc 3a 8c 7f 07 3b de 14 02 3b
       0.0016817334 0.0019253556 0.002067539 0.0019848864
000060 fb 26 f8 3a 75 48 d9 3a 3b 06 09 3b a7 5c 01 3b
       0.0018932516 0.001657738 0.0020908255 0.0019739063
000070 01 34 06 3b 68 a4 ce 3a ee 31 f7 3a 20 d1 03 3b
       0.0020477774 0.001576555 0.0018859485 0.0020113662
