checkpoint/trace_model.pkl (torch, 476975 bytes, 114 tensors)

conv.conv.weight f4 [9, 9, 7]
0	0xbdd60b94	-0.10451427
1	0x3dbcd41e	0.09220146
2	0xbd6cfc5c	-0.057857856
3	0xbe12973b	-0.14315502
4	0xbe590445	-0.21193035
5	0xbdb63cec	-0.08898339
6	0xbe4de145	-0.20105465
7	0x3da915fb	0.082561456
8	0xbd6ee93c	-0.0583279
9	0xbde939cc	-0.11387977
10	0x3d81c0ae	0.06335579
11	0xbda49ca2	-0.08037688
12	0x3d8b0527	0.06788092
13	0x3adc4c8b	0.001680748
14	0x3d44e3bc	0.048068747
15	0x3c0dad6c	0.008647304
16	0xbd4888bf	-0.048958536
17	0x3d502224	0.05081381
18	0xbd82debe	-0.06390141
19	0x3cec4212	0.028840099
20	0xbd9e6f10	-0.07736027
21	0xbc60bb2c	-0.0137165
22	0x3ccceb30	0.02501449
23	0xbdc349e3	-0.09535577
24	0xbba7a2e5	-0.005115854
25	0xbd0f2a30	-0.034952343
26	0xbc1e13e8	-0.009648301
27	0xbda5e75a	-0.081007674
28	0xbe1263c8	-0.14295876
29	0xbe073b46	-0.13206205
30	0xbd784955	-0.06061681
31	0xbd1ec663	-0.038763415
32	0xbcae8149	-0.021301882
33	0xbda144d8	-0.07874459
34	0x3dc18aad	0.094502784
35	0xbddbe3e6	-0.107368276
36	0xbd00f0a0	-0.031479478
37	0xbdbf7050	-0.09347594
38	0x3daa74a0	0.08323026
39	0xbe41f8cf	-0.18942569
40	0xbe169e9c	-0.14708942
41	0xbd7d44e8	-0.061833292
42	0xbddf12ef	-0.10892283
43	0xbd931e7d	-0.071835496
44	0xbdabd317	-0.083898716
45	0xbe5e6296	-0.21717295
46	0xbd9263cc	-0.07147941
47	0xbdf5b2cd	-0.11996994
48	0xbe38355c	-0.17989105
49	0x3dc679da	0.0969121
50	0x3e0c499b	0.13699953
51	0xbd934511	-0.07190908
52	0x3e629a29	0.2212912
53	0x3d86398c	0.06553945
54	0x3df777d6	0.12083404
55	0x3dde37b7	0.108504705
56	0x3c2d667d	0.010583517
57	0xbd9fac34	-0.07796517
58	0xbd52f2e4	-0.05150117
59	0xbe044869	-0.12918247
60	0xbda3a4ed	-0.079904415
61	0xbc294a7a	-0.010332698
62	0xbd578a08	-0.05262187
63	0xbc07bdcc	-0.008284997
64	0x3dca9f01	0.09893609
65	0x3e203329	0.15644516
66	0x3e070ff2	0.13189676
67	0x3dfbf648	0.12302834
68	0xbd10dcf1	-0.035366956
69	0xbd82602c	-0.063659996
70	0x3cfa3189	0.030541198
71	0x3c8af7bd	0.016963834
72	0xbdf41050	-0.11917174
73	0xbd81f062	-0.063446775
74	0xbdb549df	-0.088519804
75	0x3d8875ab	0.066630684
76	0xbd995d91	-0.074885495
77	0xbd5de8be	-0.05417704
78	0x3dc6618d	0.09686575
79	0x3d8f2a06	0.06990437
80	0x3db49147	0.08816772
81	0xbd99b16b	-0.07504543
82	0xbe00cfe8	-0.1257931
83	0xbca018b7	-0.019543035
84	0xbddba85d	-0.10725472
85	0xbd1b2736	-0.03787919
86	0x3dedee41	0.11617709
87	0xbd31888a	-0.043343104
88	0x3c0375b3	0.008023667
89	0x3ce87ed4	0.028380789
90	0x3bad9a1d	0.0052979128
91	0x3e02591f	0.1272931
92	0xbd109ab1	-0.035303775
93	0x3d953330	0.07285154
94	0x3db00361	0.085943945
95	0x3d420f30	0.047377765
96	0x3b1d56aa	0.0024007955
97	0xbc995cb3	-0.01872096
98	0x3da076f3	0.07835188
99	0x3da82a04	0.08211139
100	0x3dcbe0c8	0.09954983
101	0x3e2324bc	0.15931982
102	0x3dca03fd	0.09864042
103	0x3dedc305	0.11609463
104	0x3dc9e43b	0.09857985
105	0x3d352794	0.044227198
106	0xbd03343e	-0.032032244
107	0x3d7189dd	0.058969367
108	0x3dab5149	0.08365113
109	0xbd5f1703	-0.054465305
110	0xbd41ee2c	-0.04734628
111	0xbddb7ffc	-0.107177705
112	0x3e1915b7	0.1494969
113	0x3d97e240	0.07416201
114	0xbd8ccbd7	-0.06874817
115	0x3da25afd	0.07927511
116	0x3ce9a71a	0.028522063
117	0xbcc637fc	-0.024196617
118	0x3e3070c7	0.17230521
119	0x3e238c6f	0.1597154
120	0x3ce2acc7	0.027670277
121	0x3e165892	0.14682224
122	0x3db503ad	0.08838592
123	0x3e28bfe8	0.16479456
124	0x3e174be5	0.14775045
125	0x3e6d09df	0.23148297
126	0x3e2ba86e	0.1676347
127	0x3e0b8e24	0.13628441
128	0x3dd1b0ee	0.10238825
129	0xbe09363a	-0.13399592
130	0x3d103ce1	0.03521431
131	0xbc9a131d	-0.018807942
132	0x3d2a9426	0.04164519
133	0x3e143917	0.14474903
134	0xbe11fe3b	-0.14257137
135	0x3d896c7b	0.06710144
136	0xbcbe24a6	-0.023210835
137	0xbe24e039	-0.16101159
138	0x3d7c8a87	0.061655547
139	0x3d830c2a	0.063988045
140	0x3dd1eb4b	0.10249957
141	0xbdc154e5	-0.094400205
142	0xbc4a98d0	-0.012365535
143	0x3db1a80c	0.086746305
144	0xbdb0ec08	-0.086387694
145	0xbd88922c	-0.06668505
146	0xbd9961b9	-0.07489342
147	0x3de11ceb	0.10991844
148	0x3d360e3d	0.044447172
149	0x3dc157d1	0.09440578
150	0xbd8896a4	-0.066693574
151	0xbda184b8	-0.07886642
152	0xbd0513f4	-0.032489732
153	0xbc9377eb	-0.018001517
154	0x3e1aa257	0.1510099
155	0xbca8949a	-0.020578671
156	0x3e027439	0.12739648
157	0xbde1050e	-0.10987292
158	0x3b18cad9	0.0023314266
159	0xbd67d850	-0.056602776
160	0x3d052c00	0.032512665
161	0x3de27191	0.11056817
162	0xbdabc1fe	-0.083866104
163	0x3dae8599	0.085215755
164	0x3ccb726c	0.024834834
165	0x3ce049fe	0.027379032
166	0xbd119c55	-0.03554948
167	0xbca34a87	-0.019932998
168	0x3d2ab827	0.041679528
169	0x3d2898e5	0.041161437
170	0x3e204211	0.15650202
171	0xbd3de3a1	-0.046359662
172	0xbe06bd87	-0.13158236
173	0x3c84e156	0.01622073
174	0x3d581204	0.052751556
175	0x3dbfbdde	0.09362386
176	0xbddcf486	-0.10788827
177	0xbda4c6cc	-0.0804573
178	0x3dbe5e02	0.09295274
179	0x3ded10a4	0.115754396
180	0x3c8080a0	0.015686333
181	0x3de60589	0.112315245
182	0xbda460f5	-0.080263056
183	0x3dc4e844	0.09614614
184	0x3d60c3a6	0.054874085
185	0xbc514d62	-0.012774797
186	0x3d0b454a	0.034001626
187	0x3d069ee0	0.03286636
188	0x3da522ab	0.08063253
189	0x3e543a71	0.20725419
190	0x3d5d4780	0.054023266
191	0xbcecc615	-0.028903047
192	0xbe34677e	-0.17617604
193	0xb80f1fd6	-3.4123506e-05
194	0x3d93610b	0.07196244
195	0x3cc1f918	0.023678347
196	0xbe0a2233	-0.13489608
197	0x3d838221	0.064213045
198	0xbaa9c833	-0.0012953341
199	0xbdbc22a7	-0.09186297
200	0x3b538258	0.0032273736
201	0x3d8c9782	0.06864835
202	0xbc75ad32	-0.014994906
203	0x3d98688a	0.07441814
204	0x3cbf0889	0.0233195
205	0x3d8e872a	0.06959374
206	0x3d60b536	0.054860316
207	0xbdc6f318	-0.09714335
208	0xbdb9d934	-0.09074631
209	0xbc594e7d	-0.013263342
210	0x3d41342d	0.0471689
211	0x3cbe2fca	0.023216147
212	0x3cb40d90	0.021979123
213	0x3d5c174d	0.05373316
214	0xbd913d01	-0.07091714
215	0x3dd74a5d	0.105122305
216	0xbd3cc68a	-0.04608778
217	0x3def04c3	0.1167083
218	0x3ba6cd52	0.005090394
219	0x3dfbe8ee	0.12300287
220	0xbd5ec240	-0.05438447
221	0xbe29a4b0	-0.1656673
222	0xbd7cc43f	-0.061710592
223	0xbd17f16f	-0.037095483
224	0x3dbc50b7	0.09195083
225	0xbdd66702	-0.10468866
226	0x3e183bea	0.14866605
227	0xbe3caee8	-0.18426096
228	0xbc8a8a7f	-0.016911743
229	0xbd11604e	-0.035492234
230	0xbd4b8b2f	-0.049693283
231	0x3d429de4	0.047513857
232	0xbc621837	-0.013799719
233	0x3da30f73	0.07961931
234	0xbe05ba9b	-0.13059466
235	0x3d478a93	0.04871614
236	0xbc4c26be	-0.012460409
237	0x3ca873de	0.020563062
238	0xbd038172	-0.03210587
239	0xbe276939	-0.16348733
240	0xbd54eeb9	-0.051985476
241	0xbd0fc3df	-0.035098907
242	0xbc1646a0	-0.009172112
243	0xbe45ce69	-0.1931702
244	0xbd4009b1	-0.046884242
245	0xbd370538	-0.04468271
246	0xbdabb0e1	-0.08383346
247	0xbdca467c	-0.09876725
248	0x3ce7f75e	0.028316196
249	0xbe3eb355	-0.18623097
250	0xbbf817ae	-0.007571182
251	0xbe05de50	-0.13073087
252	0x3c71a27a	0.01474821
253	0x3d8fd768	0.07023507
254	0x3dc09b82	0.09404661
255	0xbcea2c2e	-0.02858552

conv.conv.bias f4 [9]
0	0x3d80ad14	0.06283012
1	0x3d85049c	0.0649502
2	0x3da6c60d	0.08143244
3	0x3db77147	0.08957153
4	0xbd1a94bc	-0.0377395
5	0xbd3c93b4	-0.0460393
6	0xbd28f080	-0.041244984
7	0xbd384507	-0.044987705
8	0xbdab1096	-0.08352773

feature_gat.conv1.Ws.0.weight f4 [32, 30]
0	0xbca1eec0	-0.019767165
1	0xb9e159ca	-0.00042982242
2	0x3a586d9e	0.00082560803
3	0x3a81a986	0.0009892441
4	0x3cd79b28	0.026319101
5	0x3a11a446	0.00055557897
6	0x3d44eb24	0.04807581
7	0x3b6a7a06	0.0035778298
8	0x3a6dec12	0.000907601
9	0x3a0f8c20	0.00054758973
10	0x3a8aec74	0.0010599033
11	0x399b07d0	0.00029569725
12	0x3d030abd	0.031992663
13	0xbd6d639f	-0.057956334
14	0xba26e018	-0.000636579
15	0xba0d5240	-0.00053909793
16	0x3c8d786f	0.017269341
17	0x3a151d79	0.00056882907
18	0x38925bd1	6.978925e-05
19	0xba2412e7	-0.000625892
20	0x3ca20605	0.019778261
21	0x3819c3d2	3.6660414e-05
22	0xbc81b297	-0.015832229
23	0x3abfd06d	0.0014634259
24	0xbc56630c	-0.013085138
25	0xb9db0590	-0.0004177508
26	0x395ac0a6	0.00020861867
27	0x3cb89ac7	0.022534741
28	0x3b63ea65	0.0034777161
29	0x392008dc	0.0001526209
30	0x3cba38e5	0.022732208
31	0x3d1121c9	0.03543261
32	0x3867e55e	5.5288307e-05
33	0x39c77c68	0.00038048928
34	0x3a0d7e1f	0.00053975167
35	0x3b30971f	0.0026945544
36	0x3a068897	0.0005132048
37	0xbc269130	-0.010166451
38	0x39870883	0.00025755548
39	0xbb161af0	-0.002290424
40	0x3c94b31a	0.018151809
41	0x39ffb8ad	0.00048774984
42	0xbc459b1e	-0.012060909
43	0xb90748b6	-0.0001290169
44	0xb997dccd	-0.00028965474
45	0x3b6d3bd2	0.0036198986
46	0xbb2a6c4c	-0.0026004491
47	0x3b7e38a4	0.0038791085
48	0x39176d8a	0.00014441289
49	0x3977fd4a	0.00023650113
50	0x3b1f42b2	0.0024301228
51	0xbc18ebbe	-0.009333549
52	0xb997c081	-0.0002894439
53	0xbca974b5	-0.020685533
54	0x3a16fd4d	0.00057597907
55	0x38af2c65	8.3529194e-05
56	0xbd66f46b	-0.05638544
57	0x3d637247	0.055528905
58	0x3a525250	0.000802313
59	0x3ce4d131	0.027931781
60	0x3d1a3510	0.03764826
61	0x3a4517ec	0.0007518518
62	0xb9c33def	-0.00037239442
63	0x39dd6182	0.00042225054
64	0xbd0cf72a	-0.0344154
65	0xb90e714c	-0.00013584382
66	0x3d856a99	0.065144725
67	0xbd7d373a	-0.061820246
68	0x3a9e7749	0.0012089993
69	0x39afedb5	0.00033555707
70	0x3d28e114	0.041230276
71	0xbcf4ce8b	-0.029883644
72	0xb9033151	-0.00012511505
73	0x3cf834f3	0.030298686
74	0x3cb77354	0.02239386
75	0x3bab612b	0.005230089
76	0x39fe08d0	0.0004845322
77	0x3a02e3de	0.00049930613
78	0xb9275736	-0.0001595885
79	0xba0da054	-0.0005402614
80	0xbb123bb0	-0.0022313409
81	0x3901bfb8	0.0001237382
82	0xbd2937f7	-0.041313138
83	0x3b1d9cdd	0.0024049797
84	0xbd82d377	-0.0638799
85	0xbce0a442	-0.027422074
86	0x3b4764d0	0.003042508
87	0xbd77f8bd	-0.06053995
88	0xbce09b91	-0.02741793
89	0xb7c4aa83	-2.3444421e-05
90	0xbcdbed59	-0.026846575
91	0x3a496119	0.000768201
92	0xb83edbf3	-4.5504374e-05
93	0x397d5c28	0.00024162291
94	0x3904df77	0.00012671748
95	0xb9424744	-0.0001852783
96	0x3a1b6b5a	0.00059287774
97	0xba6ad6dd	-0.0008958409
98	0xbcea5300	-0.02860403
99	0xbcb27635	-0.021784881
100	0xbcbb3363	-0.022851652
101	0x3d72794c	0.05919771
102	0x3ac817f3	0.0015265926
103	0xbc2a9ade	-0.0104129
104	0xbc62c1b2	-0.013840126
105	0xb9258c66	-0.00015787929
106	0x3a0d0252	0.0005379069
107	0x39fcf49c	0.00048247434
108	0x367268d9	3.612184e-06
109	0xbca1a60a	-0.019732494
110	0x3c87a82e	0.016559687
111	0x3d668bf0	0.0562858
112	0x3ca87c2c	0.020567022
113	0xb8091b0d	-3.268854e-05
114	0xbcbcab7a	-0.023030985
115	0xbb8668aa	-0.0041018324
116	0x3a507f52	0.00079535425
117	0xba9e8a86	-0.0012095727
118	0xb8531485	-5.032543e-05
119	0xba54445d	-0.0008097345
120	0xbd6b8599	-0.057500456
121	0x3a193319	0.0005844101
122	0x3d69d9d8	0.057092518
123	0x3a652d95	0.0008742449
124	0x3a837b37	0.0010031228
125	0x39ae1a30	0.00033207377
126	0x3cb130ce	0.021629717
127	0x3a591e91	0.0008282448
128	0x3d5856ce	0.05281716
129	0xbd21a9b7	-0.039468493
130	0x3c82dc93	0.015974319
131	0xbd109d7d	-0.035306443
132	0xba2e032d	-0.00066380465
133	0x3b3e0e49	0.0029000214
134	0xbc786eed	-0.0151631655
135	0xba111bf5	-0.0005535477
136	0xbac4e255	-0.0015021065
137	0x3a2f7167	0.00066926185
138	0x388ff119	6.863679e-05
139	0xba164a2f	-0.00057331
140	0x3a5ba162	0.0008378235
141	0x38b11818	8.4445055e-05
142	0xb923ede5	-0.00015633514
143	0x3a17686f	0.00057757547
144	0xb9954142	-0.00028468115
145	0x3caf2fd9	0.02138512
146	0x3c6a8b44	0.01431543
147	0xb879329a	-5.9413353e-05
148	0x3c87c8e8	0.016575292
149	0x38d29e92	0.00010043116
150	0x39609279	0.0002141687
151	0x3a0b52e7	0.00053147826
152	0x3a63c10c	0.0008688129
153	0x3a41e843	0.00073969754
154	0x3b9b1f1b	0.0047339327
155	0x3c706387	0.014672167
156	0xbb2dfcb3	-0.0026548326
157	0xbca1d8bd	-0.01975667
158	0x3a9735a2	0.001153637
159	0x3a2d5a17	0.00066128507
160	0x3a939c68	0.0011261823
161	0x3b5444e1	0.0032389688
162	0x3b0a1ee8	0.002107555
163	0xba2341f3	-0.0006227784
164	0xba2bc63c	-0.00065526715
165	0xbd18962a	-0.037252583
166	0x39949bfa	0.0002834497
167	0x3a2c719c	0.00065782084
168	0x38ccf720	9.773509e-05
169	0xba1d1e38	-0.00059935777
170	0x3ab8c3c4	0.0014096429
171	0x38c59337	9.421113e-05
172	0xbc8400a7	-0.016113592
173	0x3c8e8ed3	0.017402088
174	0xb9194c50	-0.00014619646
175	0xb9f29439	-0.0004626827
176	0xba385f16	-0.0007033212
177	0x38df6485	0.00010652192
178	0xbd4b3eb3	-0.04962034
179	0x38d5b631	0.00010190567
180	0x39898fe8	0.00026237895
181	0x3a23e92d	0.00062527024
182	0x39bc91e6	0.00035966857
183	0x3be0502a	0.006845494
184	0x3a026bf4	0.0004975193
185	0xbb02c2f2	-0.0019952622
186	0xbba29299	-0.0049613235
187	0x3a479a27	0.0007614218
188	0x3a05fb09	0.00051109545
189	0x39b785e5	0.0003500424
190	0x3a2d8378	0.00066190166
191	0x39d1644e	0.0003993832
192	0xba24edb9	-0.0006291527
193	0x3c863f38	0.016387567
194	0xb9b33cf5	-0.00034186957
195	0xb9cd04ed	-0.00039104317
196	0x3a1399a6	0.00056305004
197	0x3bbf5b56	0.0058397455
198	0x3896037b	7.153206e-05
199	0x3d7a5f8a	0.06112627
200	0x3a39f4b1	0.0007093652
201	0x3b4411d4	0.0029917853
202	0xb947c588	-0.00019051705
203	0x3a3abcce	0.0007123471
204	0xbcc3d451	-0.023904951
205	0x3d2c1ba9	0.042018566
206	0xbb851d76	-0.00406235
207	0x3c4e977b	0.012609358
208	0x3a56edab	0.00081988674
209	0x39a81f77	0.000320669
210	0xbc59272b	-0.013253967
211	0x3a322f09	0.000679717
212	0x3a2a3a28	0.00064936513
213	0x3a47dd14	0.0007624191
214	0x3d291985	0.041284103
215	0x39825c60	0.00024864357
216	0xbd70ede3	-0.058820616
217	0x3a401e80	0.00073287636
218	0x3a5ce563	0.0008426515
219	0x39f83c4d	0.00047347174
220	0x3a488c8a	0.00076503365
221	0x391616e6	0.00014313645
222	0xba495704	-0.0007680508
223	0x3cd0e25e	0.025498565
224	0xba41dff1	-0.00073957356
225	0xb9cff684	-0.00039665785
226	0xbb318d02	-0.0027092104
227	0x3a14a28a	0.0005669972
228	0xbc31ef3c	-0.010860261
229	0xbd473b57	-0.048640575
230	0x3b58a894	0.0033059465
231	0xb9bd3459	-0.0003608789
232	0xb85b8056	-5.233319e-05
233	0x3a0c08c9	0.0005341885
234	0x3d2a492a	0.04157368
235	0x3bccd769	0.006251265
236	0xb6b0873b	-5.2609516e-06
237	0xb892c47f	-6.998423e-05
238	0xbcd0f987	-0.025509609
239	0x38a8b761	8.045021e-05
240	0x394573a3	0.00018830462
241	0x3a3aa384	0.00071197026
242	0x3d3b195d	0.045678485
243	0xbb181d42	-0.0023210798
244	0x39f6f271	0.0004710141
245	0xb8d96471	-0.00010366075
246	0xbc2d8877	-0.010591618
247	0xbd1bd9cf	-0.038049515
248	0xbd44112d	-0.047867943
249	0x3987c7b7	0.00025898006
250	0xbc838741	-0.016055705
251	0xbce60d0b	-0.028082391
252	0xba0a5ac8	-0.00052778097
253	0xb868c55c	-5.5496916e-05
254	0xb994a123	-0.00028348816
255	0x3a736ad3	0.00092856324

feature_gat.conv1.Ws.0.bias f4 [32]
0	0x3b1a3228	0.002352843
1	0x3ada1b33	0.0016640186
2	0x3ae665ed	0.0017577984
3	0x3acdd094	0.001570242
4	0x3b1020f0	0.0021992289
5	0x3b0af601	0.0021203759
6	0x3af2dced	0.0018528976
7	0x3b0b7810	0.002128128
8	0x3ab7c708	0.0014021108
9	0x3b24131d	0.0025035806
10	0x3ae6e25a	0.0017615065
11	0x3b003894	0.0019564973
12	0x3b011bb7	0.0019700357
13	0x3b12b03e	0.002238288
14	0x3aedfbd4	0.0018156716
15	0x3ae5aee7	0.0017523438
16	0x3b0ff9c6	0.0021968945
17	0x3ac87e1d	0.0015296374
18	0x3b04a37d	0.0020239048
19	0x3afcefeb	0.0019297575
20	0x3b036a8f	0.0020052528
21	0x3ad5e8f4	0.0016320036
22	0x3ad67842	0.0016362744
23	0x3b104edd	0.0022019662
24	0x3aff81ac	0.0019493601
25	0x3b051826	0.0020308583
26	0x3b084e34	0.0020798566
27	0x3b0ea8bd	0.0021768056
28	0x3b08c2c1	0.0020868035
29	0x3ad69811	0.0016372224
30	0x3b11a599	0.0022223948
31	0x3b11c384	0.002224178

feature_gat.conv1.Ws.1.weight f4 [32, 30]
0	0x390f1c3f	0.00013648065
1	0x3a22b0d2	0.0006206158
2	0x39f94bf8	0.00047549582
3	0xbcf01f3d	-0.02931177
4	0xbd4b0b99	-0.049571607
5	0x3bce443d	0.0062947557
6	0xb885613d	-6.360046e-05
7	0x3a165854	0.0005735208
8	0x3d885c54	0.06658235
9	0x3ce1b685	0.027552852
10	0x3a259835	0.0006316931
11	0x3d6cc032	0.05780048
12	0xba3ed7a0	-0.00072800554
13	0xb99d8634	-0.00030045363
14	0xba1a5b7a	-0.0005888265
15	0xb9c40219	-0.00037385596
16	0x3c795def	0.015220149
17	0x3a1e82f3	0.00060467346
18	0x3b0a8e1d	0.0021141835
19	0xb990288b	-0.00027496027
20	0x39bed7cd	0.00036400408
21	0xb8178c6c	-3.6131984e-05
22	0xb987a640	-0.00025873072
23	0x397d724c	0.00024170539
24	0x3c1781a6	0.009247219
25	0xb9c7321d	-0.00037993575
26	0x3962a612	0.00021614906
27	0xb92b8876	-0.00016358666
28	0xbcb54550	-0.022127777
29	0x3889d3c7	6.572116e-05
30	0x394fdd37	0.00019823467
31	0xbc40dcf9	-0.011771434
32	0x3a571fd2	0.0008206341
33	0x3b3808cb	0.0028081413
34	0x3aa1aebc	0.00123354
35	0xbc8a0785	-0.016849289
36	0xbd225f6d	-0.039641786
37	0x3a508a59	0.0007955186
38	0x3adfda0f	0.0017078536
39	0x3c486e21	0.012233288
40	0xbbbb7c5a	-0.005721611
41	0x3ce6c377	0.028169377
42	0x3a556963	0.0008141009
43	0x3d203a7d	0.03911828
44	0x3bbec370	0.005821638
45	0xb9728dd0	-0.00023131748
46	0x39a46ec1	0.00031363036
47	0xbd56b4e7	-0.052418616
48	0xbbaa276a	-0.005192687
49	0x3a9b6a69	0.0011857274
50	0x39d21723	0.0004007156
51	0x385c6fc1	5.2556166e-05
52	0x3d837b30	0.064199805
53	0x39d5fb1c	0.00040813617
54	0xb58ea4fe	-1.0627843e-06
55	0x3c021a93	0.007940906
56	0x3c5c44d7	0.013444147
57	0x3c263012	0.010143297
58	0xb932b182	-0.0001704153
59	0x39aaeeb7	0.00032602783
60	0x38d442cc	0.0001012139
61	0x39f05ae2	0.0004584408
62	0xbd2b0606	-0.04175379
63	0x3bbee218	0.0058252923
64	0x3ce348d6	0.027744692
65	0xbc8910ae	-0.016731586
66	0x3a015978	0.00049342914
67	0x3d861525	0.06547002
68	0x39141301	0.0001412146
69	0xbb610deb	-0.003434057
70	0x3a0f55da	0.000546781
71	0x3d0d379c	0.03447686
72	0xbd5e786f	-0.054314073
73	0xb895d1fa	-7.143985e-05
74	0xb96afefb	-0.00022410967
75	0xb98c528f	-0.00026764392
76	0x3a4d3523	0.00078280474
77	0x38d06abd	9.9380944e-05
78	0xbb12ed43	-0.002241925
79	0x39fbd258	0.0004803117
80	0xbcda41c3	-0.026642686
81	0xb90e6333	-0.0001357913
82	0xba77398f	-0.0009430879
83	0xb95fca3b	-0.00021342274
84	0xb82f79b7	-4.1836607e-05
85	0x38c2cae4	9.288432e-05
86	0x3a8770f4	0.0010333345
87	0x3a196ac5	0.0005852397
88	0x3c015a7a	0.007895106
89	0xb80acea9	-3.309423e-05
90	0x3929d2b3	0.00016195588
91	0x39c834f5	0.0003818643
92	0x3a9e62cb	0.0012083886
93	0x3bed4fee	0.0072421944
94	0x3cd63398	0.026147649
95	0x3919376b	0.00014611862
96	0xbb7366d5	-0.003714015
97	0xbd0996b1	-0.033590976
98	0x3c7c2b82	0.015391232
99	0x3c41b41e	0.011822728
100	0x3aad006a	0.0013198976
101	0x3938d45d	0.00017626719
102	0xba65f285	-0.0008771795
103	0xba036ceb	-0.00050134835
104	0xbad1acca	-0.001599693
105	0xbb891cd1	-0.0041843434
106	0x3a31e8a9	0.0006786683
107	0x3a020cf3	0.0004961036
108	0x39cf2424	0.00039509044
109	0xbbf32e4b	-0.00742129
110	0x3a69a413	0.00089126936
111	0x39ce8729	0.00039392084
112	0x392653d2	0.00015862219
113	0x3a7b286d	0.0009580914
114	0x37946c45	1.7693392e-05
115	0xbd6f36ef	-0.058401998
116	0x3d017187	0.03160241
117	0xbc9ee783	-0.019397503
118	0xba2e99d0	-0.0006660493
119	0xb8cf75d7	-9.8924786e-05
120	0x38b0f716	8.438357e-05
121	0x3a5a5d09	0.00083299034
122	0x39aef022	0.0003336678
123	0x3a1aa499	0.0005899161
124	0xbcfc3010	-0.030784637
125	0xbc154e14	-0.009112854
126	0x3b8dba8a	0.0043252157
127	0x3a151b3d	0.0005687958
128	0x39d02e81	0.000397075
129	0xbd5ca6a8	-0.053869873
130	0x3a164f26	0.000573384
131	0xbbc83e1a	-0.0061109187
132	0xbd352d2c	-0.044232532
133	0xb98164c0	-0.00024679862
134	0x3baefaf3	0.005339974
135	0xb9927255	-0.00027932474
136	0x3a3a134d	0.0007098213
137	0x3c0ac678	0.00847017
138	0x3901b103	0.0001236834
139	0xb891abed	-6.9461625e-05
140	0xbcccc59d	-0.024996573
141	0xb8b8c99d	-8.811357e-05
142	0xb969acac	-0.00022284937
143	0x37e0d28e	2.6800928e-05
144	0xb9626b86	-0.00021593095
145	0xb86d6642	-5.660044e-05
146	0x3c824765	0.015903184
147	0xbcf86419	-0.030321168
148	0xbd087293	-0.03331239
149	0xbd388cc2	-0.045056112
150	0x3913d658	0.00014098862
151	0x3c30c8a1	0.010790021
152	0x3a301006	0.0006716255
153	0xbc023916	-0.007948181
154	0xbd2fa247	-0.04287937
155	0xbd806da6	-0.06270914
156	0x3b9a22a5	0.004703837
157	0x3a66a42a	0.0008798266
158	0x3a47f2a2	0.00076274027
159	0x3a0f0888	0.00054562883
160	0x3cd52459	0.026018308
161	0x39c50d32	0.000375846
162	0xbc9ea146	-0.01936401
163	0xb9a2e3cc	-0.0003106877
164	0xb9d16460	-0.00039938372
165	0x3cabc5d9	0.020968365
166	0x3d367755	0.044547398
167	0x3d400aeb	0.046885412
168	0x39171c6e	0.00014411073
169	0xb9be06b6	-0.00036244624
170	0x3a4cc1e7	0.0007810876
171	0xbd00867a	-0.031378247
172	0xb8a5841c	-7.8924204e-05
173	0x3d818fa3	0.06326225
174	0xb82d8f52	-4.137989e-05
175	0xb97ca833	-0.00024095252
176	0x39e898fe	0.00044364476
177	0x372d2ff7	1.0322771e-05
178	0xb9997e18	-0.0002927638
179	0xbd1880f3	-0.03723235
180	0x39a86439	0.0003211813
181	0x3a21860c	0.0006161637
182	0x3a903a2c	0.0011003665
183	0x3a731eb1	0.0009274288
184	0x3aad0e4c	0.0013203113
185	0x39abe3e9	0.00032785468
186	0x3997a10a	0.00028920948
187	0xbc109873	-0.008825409
188	0xbcce7e4d	-0.02520671
189	0xbc48266e	-0.012216194
190	0xbcc3deb7	-0.02390991
191	0xb8367c22	-4.350779e-05
192	0x398e85fd	0.0002718418
193	0x3c2e0b36	0.01062279
194	0x3beca840	0.0072222054
195	0xba05ad0c	-0.00050993334
196	0x3930b516	0.00016852128
197	0xbca40205	-0.020020494
198	0x39ec1974	0.00045032392
199	0xbd4fab0c	-0.050700232
200	0xbd477d53	-0.048703503
201	0xbb069252	-0.002053399
202	0x3d285b01	0.041102413
203	0x3c8e4870	0.017368525
204	0xb88939ce	-6.543436e-05
205	0xb9695a70	-0.00022254302
206	0x3834e741	4.3130716e-05
207	0xb9cb1cfa	-0.00038740766
208	0xb98878c2	-0.00026029913
209	0x393b49fa	0.00017861268
210	0x394bc392	0.00019432444
211	0xbd59b7a6	-0.053153656
212	0x3a21fe54	0.00061795604
213	0x3d810e43	0.06301548
214	0x3ae38d62	0.0017360861
215	0xbce2e54d	-0.02769723
216	0x39c57a9a	0.00037666113
217	0x3a2af7ac	0.00065218913
218	0xb9f13f2c	-0.0004601417
219	0xbcbd3641	-0.02309716
220	0xbd478ca6	-0.048718117
221	0x38cabbaf	9.6670694e-05
222	0xbcdb8e97	-0.02680139
223	0xb98120f1	-0.0002462934
224	0xba11b995	-0.0005558965
225	0xb9b1cfe7	-0.0003391497
226	0x3d440544	0.047856584
227	0xbc5d7166	-0.013515806
228	0x3a6d4a82	0.0009051935
229	0xb9d72576	-0.00041035906
230	0x39e0287a	0.00042754767
231	0xb9613ece	-0.00021481069
232	0xb8bf520f	-9.122874e-05
233	0xb8fbfc42	-0.00012015599
234	0xb85836bb	-5.1549385e-05
235	0x3d5b3f7f	0.05352735
236	0xb8dd3ca0	-0.000105493935
237	0xb7912e90	-1.730703e-05
238	0xb8f03c14	-0.00011455282
239	0x3814054d	3.5290886e-05
240	0xbbd9ffaf	-0.0066527943
241	0xbc194aaf	-0.009356185
242	0xbd574596	-0.052556597
243	0x3a79fc59	0.0009536199
244	0x3a727e00	0.0009250343
245	0x3986004e	0.000255587
246	0x3a14ba44	0.00056735077
247	0x3a164467	0.00057322386
248	0xbcc21ff8	-0.023696885
249	0x39f59da1	0.00046847484
250	0x3c4f4482	0.012650611
251	0xbc048275	-0.008087744
252	0x3d8704f4	0.065927416
253	0xb9938559	-0.00028137377
254	0xba020ba6	-0.0004960842
255	0xb9b7877e	-0.0003500543

feature_gat.conv1.Ws.1.bias f4 [32]
0	0x3af6304f	0.0018782708
1	0x3b01858b	0.0019763436
2	0x3ae4aa0c	0.0017445697
3	0x3b0f2fa7	0.0021848471
4	0x3ad6e9d2	0.0016396588
5	0x3b006cd0	0.0019596107
6	0x3afa7264	0.0019107577
7	0x3b0492d0	0.0020229109
8	0x3ae65513	0.0017572962
9	0x3aff69a9	0.0019486445
10	0x3a9cdac5	0.0011967054
11	0x3acbfe95	0.0015563542
12	0x3b1e921d	0.0024195977
13	0x3ad4c5fe	0.0016233323
14	0x3b098d36	0.002098871
15	0x3b034ff6	0.0020036674
16	0x3b0ba7fa	0.0021309839
17	0x3b068c6c	0.0020530475
18	0x3ae3ce21	0.0017380157
19	0x3ae1bc27	0.0017222211
20	0x3aed446f	0.001810206
21	0x3ae723e8	0.0017634602
22	0x3b06a0da	0.0020542652
23	0x3b03e7d3	0.0020127192
24	0x3b011398	0.0019695517
25	0x3ad96d1a	0.0016588301
26	0x3af38c30	0.0018581208
27	0x3b000f6a	0.0019540437
28	0x3afdbb6e	0.0019358227
29	0x3afdadf9	0.0019354216
30	0x3b0de62a	0.002165208
31	0x3b00ba9c	0.0019642478

feature_gat.conv1.Ws.2.weight f4 [32, 30]
0	0x39145354	0.00014145422
1	0x3a676709	0.0008827304
2	0x39d38539	0.00040344315
3	0xbd5f57a1	-0.05452693
4	0xbc83bc42	-0.01608098
5	0x3938cc64	0.00017623749
6	0x38cab793	9.666304e-05
7	0x3af80dac	0.0018924973
8	0x3a9cf696	0.0011975344
9	0x3987ab33	0.0002587676
10	0x3bae6864	0.005322503
11	0x3b0756c7	0.0020651089
12	0xba57bf3f	-0.0008230097
13	0xb9bf2d9d	-0.00036464343
14	0x3c6c68fb	0.014429326
15	0xbb649dae	-0.0034884023
16	0x39fb8f0a	0.00047981023
17	0xb9a0d4f9	-0.00030676255
18	0x3cae13e0	0.021249712
19	0xb9842be2	-0.00025209697
20	0x3d56ebe2	0.05247105
21	0x3d285f40	0.041106462
22	0xb955544c	-0.00020344666
23	0x39acd4c1	0.0003296491
24	0xbd37b320	-0.04484856
25	0xbc180438	-0.00927835
26	0x39a2efa2	0.00031077588
27	0x3917d989	0.0001448152
28	0xba065d4c	-0.00051255967
29	0xb82001b8	-3.8148573e-05
30	0x395dc032	0.000211478
31	0xbd572ab8	-0.052530974
32	0x3d2ef858	0.042717308
33	0x3d364771	0.044501726
34	0x3d686ec6	0.056746267
35	0x39a74b02	0.00031908607
36	0xb8a79a24	-7.9918915e-05
37	0x3a4eace3	0.00078840385
38	0x3a39bffd	0.00070857984
39	0xb8d26fee	-0.00010034429
40	0xbc02eea8	-0.00799147
41	0xbd31ab26	-0.04337611
42	0xba3f4f54	-0.00072978926
43	0xba1764ed	-0.0005775232
44	0xbc55391a	-0.013014102
45	0x3bd33514	0.0064455364
46	0x3a0afad4	0.00053016585
47	0x3a75bd82	0.0009374247
48	0x39aa41ed	0.00032474045
49	0x3bb9263f	0.0056503112
50	0x3a65e29d	0.0008769425
51	0x3b8d5c8b	0.0043140105
52	0xb79d9bda	-1.8788432e-05
53	0xba9276d2	-0.0011174327
54	0xb9790c9c	-0.00023751188
55	0xbcc2a6bd	-0.023761148
56	0xb92072dd	-0.00015301579
57	0xb9d5ec77	-0.00040802706
58	0xb821b3cc	-3.855284e-05
59	0xb90a4ddd	-0.00013189712
60	0x390476fe	0.00012632829
61	0x3a1636e6	0.00057302264
62	0x39e3ec58	0.00043472904
63	0x399ed19d	0.00030292282
64	0x3a3a9985	0.0007118213
65	0xb8b11c06	-8.4452375e-05
66	0x3cf94107	0.030426515
67	0x3a1f78a3	0.0006083345
68	0x38fa8ab7	0.000119467666
69	0x3d7cfd04	0.061764732
70	0x3a133373	0.00056152715
71	0xb9d208f2	-0.00040060986
72	0xba019167	-0.0004942626
73	0xb984a455	-0.0002529944
74	0x3a98998f	0.0011642444
75	0xb99c0b1d	-0.0002976292
76	0x39f2c52d	0.00046304744
77	0xbd43ca7e	-0.047800533
78	0xba9dd156	-0.0012040536
79	0x3bf8ca3b	0.007592467
80	0x3ca03321	0.01955563
81	0x3d88d8f2	0.06682004
82	0x3d2da992	0.042398043
83	0x3d46fcfd	0.048581112
84	0x3a152cf3	0.0005690597
85	0xb990e7fe	-0.00027638668
86	0x39037fec	0.00012540788
87	0xbcb44c20	-0.022008955
88	0xb99883b6	-0.00029089832
89	0x384de587	4.9089573e-05
90	0x3ce7091d	0.028202588
91	0x3d2eef27	0.042708542
92	0x3a979516	0.0011564817
93	0x3a55409d	0.00081349333
94	0x3aa8dd8e	0.0012883411
95	0x3a0897b0	0.00052105915
96	0x3aa3fb42	0.0012510794
97	0x3a2ef6e0	0.00066743605
98	0x3cbdeb19	0.023183392
99	0x398672a9	0.000256439
100	0x3cfd368f	0.030909805
101	0xbd5a9658	-0.053366035
102	0xbd72e32c	-0.05929868
103	0x3d2255b7	0.039632525
104	0xba1a46f1	-0.0005885205
105	0xba0dd4ef	-0.0005410453
106	0xbc2455b4	-0.010030199
107	0x3d244749	0.040107045
108	0x39e95178	0.00044501922
109	0x3ce26872	0.027637694
110	0x3b8ae83a	0.0042391093
111	0x3d4ccca7	0.04999986
112	0xb889affa	-6.565447e-05
113	0xbd63e597	-0.055638876
114	0xb995e0c3	-0.00028586955
115	0xba2fece7	-0.00067110214
116	0xbb891b2b	-0.004184147
117	0xbd2c7f83	-0.042113792
118	0xb9c9ccc7	-0.00038490279
119	0x3d5f3b23	0.054499757
120	0x3d05f2d9	0.0327023
121	0x3a441875	0.0007480451
122	0x3d38d522	0.045125134
123	0x3a4a82f9	0.0007725205
124	0xbafd57d5	-0.0019328544
125	0x3c07872a	0.008271972
126	0x3923245e	0.00015558439
127	0xb9e9d95a	-0.00044603163
128	0x3a4b8061	0.00077629654
129	0x3a5530be	0.00081325683
130	0x3d6c56e0	0.057700038
131	0x3950c00f	0.00019907973
132	0xbd876596	-0.06611173
133	0xbcd5e42d	-0.02610978
134	0xba12c7b5	-0.00055992167
135	0xba00d68c	-0.00049147825
136	0xba3b66f3	-0.00071488245
137	0x3a251a4a	0.0006298168
138	0x3d83b62d	0.06431232
139	0x3d02fedf	0.031981345
140	0xbaa6008c	-0.0012664958
141	0xb902f88f	-0.00012490361
142	0xbd0f9976	-0.03505846
143	0x39d41919	0.0004045449
144	0xb9cfd6cb	-0.0003964215
145	0xba403952	-0.000733276
146	0xbce0ebd6	-0.027456205
147	0xbd5fef45	-0.054671545
148	0x3afff650	0.0019528363
149	0xb925ab2f	-0.00015799397
150	0x39707f2c	0.00022935559
151	0x3cbc7989	0.023007171
152	0xbc9615dc	-0.01832097
153	0x3a301648	0.00067171874
154	0x3b0bd735	0.002133799
155	0x3d1cb74a	0.038260736
156	0x3cf2ba39	0.029629814
157	0x3a14f524	0.0005682281
158	0x3a00894c	0.00049032713
159	0xbd34bdb2	-0.04412622
160	0x3c343b69	0.011000493
161	0xbd10786f	-0.035271104
162	0xbb76eb54	-0.0037676888
163	0x3c9337d4	0.017970957
164	0xbd427100	-0.047471046
165	0xbc844448	-0.01614584
166	0x3a2507dc	0.00062954216
167	0xbd833d70	-0.06408203
168	0x3cea862b	0.02862843
169	0xbcd5452d	-0.026033962
170	0xbd057860	-0.0325855
171	0x3a34a4ea	0.0006891029
172	0x3a964bf0	0.0011466723
173	0x39bbc661	0.00035815223
174	0xbc8ea8d7	-0.017414493
175	0x3ac25f7b	0.0014829481
176	0x39ad56f0	0.00033061905
177	0x38e2985a	0.000108048975
178	0x3d23745d	0.039905895
179	0x3c3c355c	0.011487331
180	0x391a56c9	0.00014718914
181	0xbc7b2df4	-0.01533078
182	0x398b24a5	0.00026539448
183	0x39e8ebd4	0.00044426194
184	0x3b3de2f7	0.0028974393
185	0xb9032ed6	-0.00012510581
186	0x39e8f27d	0.00044431156
187	0x3c39780d	0.011320126
188	0xbce0b427	-0.027429653
189	0x3b8e92b8	0.0043509863
190	0x3d043fcc	0.032287404
191	0xbb122150	-0.0022297688
192	0xbc6aa236	-0.014320901
193	0x3d29b8ff	0.04143619
194	0x3c73ae37	0.014873079
195	0xbd6c8076	-0.057739697
196	0x3d6b1104	0.057389274
197	0x39920a9a	0.0002785519
198	0x391c40b7	0.00014901427
199	0x3d0ee74d	0.034888554
200	0x3a2ee269	0.0006671311
201	0xbd7b6bf8	-0.061382264
202	0x3928944c	0.00016076973
203	0x3a33cab2	0.0006858512
204	0x3b814357	0.003944795
205	0xbc12c90c	-0.008959066
206	0x39a4f224	0.00031460926
207	0x3d1d0863	0.038338076
208	0x3be0e211	0.0068628867
209	0xb6c56813	-5.8831733e-06
210	0x3a8b37a2	0.0010621438
211	0xbab1bf6e	-0.0013561079
212	0x3c03db8b	0.008047949
213	0xbb52e2c8	-0.003217863
214	0x3a209ab1	0.00061265664
215	0xb8e8f349	-0.000111079375
216	0x39c03e02	0.00036667293
217	0xbd610b34	-0.054942325
218	0x39bc32dc	0.00035896047
219	0x3d042706	0.03226378
220	0x3a5d2ab9	0.0008436847
221	0x3984a624	0.00025300786
222	0xba182e73	-0.00058052613
223	0xba0cddcf	-0.0005373628
224	0xb9a3f178	-0.0003126969
225	0xbd6c343d	-0.057667006
226	0x39ff2993	0.00048668365
227	0x39cbe6b2	0.0003889106
228	0x3c9f8b9d	0.019475752
229	0xbd2ccf5a	-0.042189933
230	0x3d81aa58	0.063313186
231	0x3a93f7fa	0.0011289113
232	0xbd291826	-0.041282795
233	0x372b8705	1.0223831e-05
234	0x3b312065	0.0027027365
235	0x3d6c040f	0.057621058
236	0xbd7b2181	-0.06131125
237	0x3ce6312f	0.028099624
238	0xbd039724	-0.03212656
239	0xb7f19ae1	-2.880156e-05
240	0x37fa2947	2.9821544e-05
241	0xbb868532	-0.0041052336
242	0x3a2a1d19	0.0006489321
243	0x3a242d84	0.0006262886
244	0xba8bfe59	-0.001068066
245	0x3a343d39	0.0006875578
246	0x3a04d1c5	0.00050666585
247	0xbcd3c5bb	-0.025851121
248	0x3627d1b6	2.5007007e-06
249	0x3c8084d7	0.015688343
250	0xbaa7457f	-0.00127618
251	0x3928b3a3	0.00016088648
252	0x3c262ad3	0.010142046
253	0xb9c14e20	-0.00036870036
254	0x3cbc1e1c	0.022963576
255	0xb9a8a8b4	-0.0003216915

feature_gat.conv1.Ws.2.bias f4 [32]
0	0x3afae8d2	0.0019142872
1	0x3b24796f	0.0025096794
2	0x3b012469	0.001970554
3	0x3b197289	0.0023414216
4	0x3b2c022f	0.0026246419
5	0x3b1d535d	0.0024005987
6	0x3b008a4e	0.0019613686
7	0x3b00b06b	0.0019636403
8	0x3aedabfc	0.001813292
9	0x3afc0838	0.0019228524
10	0x3b102d7c	0.0021999767
11	0x3aff3d22	0.0019473175
12	0x3b0c93c7	0.0021450387
13	0x3b07d5cd	0.00207268
14	0x3b07dc4d	0.0020730675
15	0x3b1a2016	0.002351766
16	0x3af317ec	0.0018546558
17	0x3aecf0a0	0.0018077083
18	0x3b05550b	0.002034488
19	0x3af1da11	0.001845183
20	0x3ae977b8	0.0017812168
21	0x3affa06c	0.0019502765
22	0x3acdb872	0.0015695228
23	0x3b041654	0.002015491
24	0x3b28f794	0.0025782334
25	0x3b0189ff	0.001976609
26	0x3ae1e5ad	0.0017234586
27	0x3b03e098	0.0020122882
28	0x3b0f0198	0.0021821018
29	0x3b0ddb44	0.0021645585
30	0x3b081b54	0.0020768242
31	0x3af69c00	0.0018814802

feature_gat.conv1.Ws.3.weight f4 [32, 30]
0	0xb933763e	-0.00017114819
1	0x3a5e3005	0.00084757834
2	0x38842e04	6.3028216e-05
3	0x39b6378f	0.0003475514
4	0x3a13cc25	0.0005638025
5	0xba1d784b	-0.0006007
6	0xbd3fe27c	-0.04684685
7	0x3bf76183	0.007549466
8	0x3b9f6703	0.004864575
9	0xbd031dce	-0.032010846
10	0x39ec4114	0.00045061915
11	0x39c6a14f	0.00037885687
12	0xbd6a4cfc	-0.057202324
13	0xb9742d15	-0.00023286448
14	0xb9718eaf	-0.00023036705
15	0xbd2df714	-0.04247196
16	0xbccfbdb4	-0.025359012
17	0x3d1ea4cc	0.03873138
18	0xbd4202cc	-0.04736595
19	0x389717b8	7.204659e-05
20	0x3a244a6c	0.0006267193
21	0x39030270	0.00012494042
22	0xb8ccb454	-9.761067e-05
23	0x3c2c86b7	0.010530165
24	0x39f15c9d	0.00046036104
25	0xb800a15c	-3.0667856e-05
26	0x3a31e05a	0.0006785445
27	0x3992ead1	0.00028022242
28	0xb9add7fe	-0.00033158058
29	0x38d3b7f9	0.000100955316
30	0xbc9ffa9d	-0.019528681
31	0xbd6b6dfc	-0.057477936
32	0xbd3be531	-0.04587287
33	0xbcc855f1	-0.024455043
34	0x3a14cdd8	0.0005676425
35	0xb87ca857	-6.023826e-05
36	0x3d68bd44	0.056821123
37	0xbd1cbecd	-0.0382679
38	0x39815c56	0.00024673593
39	0x3b9afdca	0.004729961
40	0x3c90148b	0.01758792
41	0xbbbd74e0	-0.005781755
42	0xb9f9353a	-0.00047532638
43	0xba4483a8	-0.0007496425
44	0xb9521576	-0.00020035155
45	0xb907b616	-0.00012942436
46	0x3a1e259e	0.0006032827
47	0x3b7e74a2	0.0038826843
48	0xbb841202	-0.004030467
49	0x396770c1	0.00022071881
50	0xbcc53672	-0.024073813
51	0x38ef2c46	0.00011404655
52	0xb967d9c9	-0.00022111008
53	0xb88c208d	-6.681783e-05
54	0x38e7cdc9	0.00011053269
55	0xbd7c96d4	-0.06166728
56	0x3a579754	0.0008224149
57	0xbd415182	-0.047196873
58	0x3aef4722	0.0018255452
59	0xbd691a47	-0.056909826
60	0x3b59b14b	0.0033217247
61	0x3a30a884	0.0006738978
62	0xbd2a7125	-0.04161181
63	0x39232573	0.00015558842
64	0x39bc38a0	0.00035900343
65	0x39b4a2d6	0.00034453598
66	0xbb83d3e8	-0.004023064
67	0x3a01d298	0.00049523404
68	0x38107488	3.4440804e-05
69	0xbd7ee637	-0.06223127
70	0x394e9e2b	0.00019704613
71	0xb9958cdc	-0.00028524443
72	0xb98065f3	-0.0002449002
73	0xb8cf496c	-9.884205e-05
74	0x3c8f8328	0.017518595
75	0xbcaffb00	-0.02148199
76	0xbca2c73c	-0.019870393
77	0xbd6b8bc7	-0.05750635
78	0xb841c43c	-4.6197543e-05
79	0xb702a4bf	-7.786962e-06
80	0x39c09506	0.00036732125
81	0x38befdde	9.1071925e-05
82	0xbc0e1bba	-0.008673603
83	0xb893ca42	-7.04718e-05
84	0xb760e318	-1.3404315e-05
85	0x39cfe939	0.0003965588
86	0xbb16122e	-0.002289902
87	0xb934e105	-0.00017249964
88	0xbc721284	-0.014774922
89	0x3c96d691	0.01841286
90	0x3a7c86b9	0.00096331123
91	0x39d060c6	0.00039744953
92	0x3ce1658c	0.027514242
93	0x3a3c50d2	0.0007183674
94	0xbb17f3fa	-0.0023186193
95	0x3c356572	0.01107155
96	0xbcafeb76	-0.021474581
97	0x3a193c6d	0.0005845491
98	0x3d41088b	0.047127288
99	0x3b9377ca	0.004500364
100	0x3a211e40	0.000614617
101	0xb9fef7a6	-0.00048631168
102	0xbcf51bd8	-0.029920503
103	0xba57de0f	-0.00082346884
104	0xba2c2825	-0.00065672613
105	0xbd0aa2bc	-0.0338466
106	0xb97b2a0a	-0.00023952886
107	0x3ccdbbd1	0.025113972
108	0x3a66b387	0.00088005554
109	0x3d63e249	0.055635724
110	0x3bc8d7c7	0.0061292383
111	0xb992b1b9	-0.00027979704
112	0xba83bf54	-0.0010051527
113	0xb929f828	-0.00016209541
114	0xbae55342	-0.0017496126
115	0xb9a68119	-0.00031758173
116	0xbbd18742	-0.006394298
117	0xb93d635b	-0.00018061457
118	0x3be041cb	0.0068437806
119	0x3bb264be	0.0054441383
120	0x3966fcda	0.00022028704
121	0x3a0cb194	0.00053670374
122	0x39e74abd	0.00044115438
123	0x3c2b3130	0.010448739
124	0xbc11f5c3	-0.008908692
125	0x39510168	0.00019932317
126	0x39e3dbe1	0.00043460637
127	0x39a1d5f4	0.0003086772
128	0xbc33d4f9	-0.01097607
129	0x3d207919	0.039177988
130	0x3ac73ab9	0.0015199996
131	0x3d17dc31	0.037075225
132	0xbbf24f1b	-0.007394684
133	0xb9b45e5d	-0.00034402582
134	0xb9d8023c	-0.00041200395
135	0xb9b604f2	-0.0003471743
136	0x3d449ef4	0.048003152
137	0x398a4ac7	0.00026377125
138	0x3944d38d	0.00018770825
139	0xbacdd0a7	-0.0015702442
140	0x3c77ca54	0.015123922
141	0xb972215d	-0.00023091347
142	0xbaf99503	-0.0019041601
143	0x393e3f0d	0.000181433
144	0xbca1cdeb	-0.01975151
145	0x3b84ff0e	0.004058725
146	0x3b9a9796	0.0047177775
147	0x3ae37548	0.0017353678
148	0xb974fa49	-0.00023362892
149	0x3912d6dc	0.00014003686
150	0x3c3db155	0.011577924
151	0x3b7e95ac	0.0038846536
152	0x3d6887a6	0.05676999
153	0x3c4b7c52	0.012419777
154	0xbc6cd4e1	-0.014455051
155	0xbd239b7f	-0.039943215
156	0x3d181ec7	0.037138727
157	0x39f76fc0	0.00047194771
158	0x3944a119	0.0001875203
159	0xbd0f4b24	-0.03498377
160	0x396816a1	0.00022133674
161	0x3cebf7a0	0.0288046
162	0xb9af954d	-0.0003348984
163	0xb79712a9	-1.8009292e-05
164	0x3c75e6b8	0.015008621
165	0xb885bd39	-6.37718e-05
166	0xba4ea925	-0.0007883481
167	0x39651873	0.0002184825
168	0x3799369f	1.8264456e-05
169	0x3bd2d299	0.0064337966
170	0x3a03f7d0	0.00050341804
171	0x38d46d9a	0.000101293626
172	0xb91f146b	-0.00015171028
173	0x3cee7dc3	0.029112702
174	0xbbed50e2	-0.007242308
175	0x3c4d29b4	0.01252215
176	0xbcddc776	-0.02707265
177	0x3a12525f	0.0005581732
178	0x3b08a419	0.0020849763
179	0x38fcf062	0.00012061071
180	0x3b92ea13	0.00448347
181	0x3a29b787	0.0006474186
182	0x3971a53a	0.00023045103
183	0x39d2aaa0	0.00040181447
184	0xbd833b2d	-0.06407771
185	0xb74e4f19	-1.2296973e-05
186	0xbcc3d873	-0.023906922
187	0x39fc8420	0.00048163626
188	0x39b5eca9	0.00034699336
189	0x39960b1d	0.0002861851
190	0xbd7ecead	-0.06220882
191	0x3a808ea1	0.0009808132
192	0xb9b08bbc	-0.00033673446
193	0xb88cf0cc	-6.720572e-05
194	0xba178dcf	-0.0005781324
195	0x3d289c3a	0.041164614
196	0x39bf46b4	0.00036483037
197	0xb9594810	-0.00020721578
198	0x38b5dbbd	8.671682e-05
199	0xb8bd9af5	-9.041085e-05
200	0xb992fa05	-0.0002803357
201	0xb82dd266	-4.1442363e-05
202	0xbb4fffd5	-0.003173818
203	0xbd50b431	-0.050953094
204	0xb9a78af1	-0.00031956242
205	0xb9137795	-0.0001406356
206	0x3a07f1ab	0.00051858526
207	0x39ae24d4	0.00033215305
208	0xbc123eb7	-0.008926085
209	0xbd11c361	-0.03558672
210	0x3ad1809d	0.0015983764
211	0x3a4e75e6	0.00078758446
212	0x38f1738e	0.00011513299
213	0x3a1446bd	0.0005656293
214	0x3d72815d	0.0592054
215	0xbb3e7e47	-0.0029066966
216	0xbd1599d4	-0.036523655
217	0x3a102713	0.00054989866
218	0x39a7bac0	0.00031991862
219	0xbbd5f125	-0.006528991
220	0xbbdad97e	-0.006678759
221	0x39af3195	0.00033415543
222	0xbabf9af0	-0.0014618319
223	0xb988be50	-0.00026081735
224	0xb9e6de17	-0.00044034488
225	0xbccf1cf7	-0.025282366
226	0x39c1f38c	0.00036993285
227	0x39904dae	0.00027523696
228	0xba3d12a4	-0.00072125555
229	0xbc2401ab	-0.010010163
230	0x3a0bf476	0.0005338857
231	0x3bf0f406	0.0073533086
232	0x3d514187	0.051087882
233	0x388afbe4	6.627271e-05
234	0xbd7c9f01	-0.061675075
235	0x3aa5f8ea	0.0012662683
236	0x3a265a96	0.0006345896
237	0x36c0bde3	5.7441516e-06
238	0xb8ca70a9	-9.653095e-05
239	0x38e48885	0.00010897316
240	0x3cc02507	0.023455156
241	0xbcd23d02	-0.025663856
242	0x3a083d8c	0.00051971595
243	0x3a0937d9	0.0005234457
244	0x3a84b097	0.0010123429
245	0x38d30ffa	0.0001006424
246	0x39694273	0.00022245366
247	0xbb9d66b7	-0.0048035043
248	0x3c552742	0.013009848
249	0x39cafe53	0.0003871793
250	0x3a01895e	0.0004941429
251	0x38812a81	6.159116e-05
252	0xba567f54	-0.00081824255
253	0xb9f78026	-0.0004720699
254	0xba1e11b2	-0.00060298585
255	0x3aa98c80	0.0012935549

feature_gat.conv1.Ws.3.bias f4 [32]
0	0x3aef4319	0.001825425
1	0x3abf924c	0.0014615743
2	0x3ae0354d	0.0017105729
3	0x3b002ea1	0.0019559043
4	0x3b02d915	0.0019965817
5	0x3ad2be33	0.0016078412
6	0x3ac3b7d0	0.00149321
7	0x3aebc5f1	0.0017988068
8	0x3b06dea0	0.0020579472
9	0x3afc4827	0.0019247577
10	0x3b03a771	0.0020088817
11	0x3af0053b	0.0018312106
12	0x3b044784	0.0020184228
13	0x3abac22d	0.0014248543
14	0x3b11908c	0.00222114
15	0x3b06a926	0.0020547598
16	0x3b0a34f0	0.0021088682
17	0x3ae7717a	0.001765772
18	0x3b06f54d	0.0020592988
19	0x3ad6bdbe	0.0016383452
20	0x3acd673e	0.0015671027
21	0x3adb20a3	0.00167181
22	0x3b078665	0.002067947
23	0x3af44211	0.0018635412
24	0x3b0528be	0.0020318474
25	0x3b17672e	0.0023102271
26	0x3af01cb6	0.0018319103
27	0x3af63f0e	0.0018787102
28	0x3b09d70c	0.002103272
29	0x3acb2b6f	0.0015500615
30	0x3ae8e114	0.0017767274
31	0x3b136c54	0.0022494989

feature_gat.conv1.Ws.4.weight f4 [32, 30]
0	0x3968a749	0.00022187563
1	0x3a0aa5d6	0.00052889937
2	0x3a5ce03a	0.00084257463
3	0x3d24e572	0.04025788
4	0x3a6ace8e	0.00089571706
5	0x3c162c7e	0.009165881
6	0xbd54bddd	-0.05193888
7	0xbd7c6db3	-0.061628055
8	0xbd6b39b2	-0.05742807
9	0xbad4bc11	-0.0016230365
10	0x3b67241c	0.0035269326
11	0xbc6d9cfd	-0.014502761
12	0xba1c655f	-0.0005966033
13	0x3d010bbe	0.03150534
14	0xbd21938b	-0.03944735
15	0xbcb772c7	-0.022393597
16	0x396f6936	0.0002283201
17	0xbd01753c	-0.031605944
18	0x398bd708	0.00026672357
19	0xba2e8cf5	-0.00066585775
20	0x3a047db0	0.0005054129
21	0xb95d62c9	-0.00021113003
22	0x3d73d31b	0.059527498
23	0x3a0cb5a6	0.0005367644
24	0x3c5cc0ef	0.013473733
25	0xb9a70f9f	-0.0003186436
26	0xb8f23459	-0.0001154921
27	0xb966f201	-0.00022024663
28	0x3c7eaad3	0.015543657
29	0xbc8017b0	-0.015636295
30	0xb9ff0ece	-0.0004864842
31	0xbb85cfbd	-0.004083602
32	0x3a3d8306	0.0007229302
33	0x3c818e5a	0.015814949
34	0xbab370b8	-0.0013690209
35	0xbcc7f47d	-0.024408573
36	0x3d824606	0.06361012
37	0x3b6ef167	0.0036459805
38	0x3c9023e3	0.017595237
39	0x397c17b8	0.00024041429
40	0x3d2f8803	0.04285432
41	0x39d3f454	0.00040427095
42	0xba3fbcaa	-0.0007314185
43	0xb9e31704	-0.00043313962
44	0xbd75c524	-0.06000246
45	0xba177d42	-0.0005778858
46	0x3a0d21e1	0.00053837715
47	0x3a012fcd	0.00049280823
48	0x394d4938	0.000195776
49	0x3a4635b0	0.00075611006
50	0x3a2b5fd2	0.00065374107
51	0x37030765	7.80993e-06
52	0xb8809900	-6.132014e-05
53	0x39f722d8	0.00047137472
54	0x39094efe	0.00013094765
55	0xba03996e	-0.0005020116
56	0xbcb0bf6e	-0.021575656
57	0xb92f43e1	-0.00016714587
58	0xb9831976	-0.00025005237
59	0xb897d262	-7.239428e-05
60	0xbc8316e2	-0.016002122
61	0x3a260872	0.0006333656
62	0xbd6ac17f	-0.05731344
63	0x39d72647	0.00041036514
64	0x3a2b3019	0.00065302994
65	0xb93ea11d	-0.00018179831
66	0x39cffe6f	0.00039671684
67	0x3abeba7a	0.0014551424
68	0xbc2ba60e	-0.010476602
69	0xbd83141a	-0.064003184
70	0x3a009ec2	0.0004906469
71	0x3a05414a	0.0005083276
72	0xb9f9bc3d	-0.0004763323
73	0xb94d8dbb	-0.00019603122
74	0x3b8e5fb9	0.004344907
75	0x3cd7e3cc	0.02635374
76	0x39b667b6	0.00034791016
77	0xbd0e7d7b	-0.034787636
78	0xb9255948	-0.00015768886
79	0x3b379705	0.0028013599
80	0x3cd24600	0.025668144
81	0xb8dde200	-0.00010580197
82	0xb9244aff	-0.00015668197
83	0x39337c0d	0.00017116983
84	0x37bf72db	2.2822458e-05
85	0xbd015405	-0.031574268
86	0x3a199a29	0.00058594585
87	0x399afd21	0.00029561765
88	0xb8efb792	-0.00011430601
89	0xbb19ba8f	-0.0023457145
90	0xbcca7aeb	-0.024716815
91	0x3a2e4c87	0.00066489767
92	0x3a11a950	0.00055565406
93	0x3cc1e424	0.023668356
94	0x3a7d6894	0.00096667674
95	0x3d1f6817	0.038917627
96	0x38a3ae5b	7.804922e-05
97	0xbc7674d1	-0.0150425
98	0xba44dfd0	-0.00075101573
99	0xbaa9e888	-0.0012962976
100	0x3b193a60	0.0023380741
101	0xbd132f06	-0.035933517
102	0x3a50d638	0.00079664914
103	0xb9cd1f75	-0.00039124084
104	0xba0701cf	-0.0005150111
105	0xb9c86e94	-0.0003822936
106	0xbc824b97	-0.015905185
107	0x39d84b0d	0.00041254648
108	0x3d264e9c	0.04060231
109	0xb99aedfb	-0.00029550478
110	0xbd5bb3c1	-0.053638224
111	0x391f07b9	0.00015166299
112	0xbc9ff6e1	-0.0195269
113	0x3926a345	0.00015891816
114	0x3925596f	0.00015768943
115	0xb831de1d	-4.2406948e-05
116	0xb81ba7b8	-3.711108e-05
117	0xb8aca9b0	-8.233206e-05
118	0xb91e46db	-0.0001509445
119	0x369001f0	4.29176e-06
120	0x382028f6	3.818512e-05
121	0x3a1203b3	0.0005570009
122	0x3d0caaf4	0.03434272
123	0x3a29b78b	0.00064741884
124	0x3d43b738	0.047782153
125	0x3d125119	0.035721872
126	0x39b11f29	0.00033783287
127	0xbb62262e	-0.003450762
128	0xbd74d38b	-0.059772056
129	0x3cc487aa	0.02399047
130	0x3ab131d9	0.0013518884
131	0x39d806ec	0.00041203888
132	0xbd1d2f80	-0.038375378
133	0x3d58dc54	0.052944496
134	0xbc1dcb00	-0.0096309185
135	0xbabd65c1	-0.0014449881
136	0xbd36fb1d	-0.044673074
137	0x39bddb4d	0.0003621228
138	0x39d39b41	0.0004036073
139	0x3d6bd28e	0.057573847
140	0x3a342bb1	0.00068729656
141	0x3d371816	0.044700705
142	0xb8a06ca7	-7.6496326e-05
143	0xbbd2c673	-0.0064323484
144	0xb730966d	-1.0525441e-05
145	0xb8f57c62	-0.000117056785
146	0x39b0a3d9	0.00033691412
147	0xbd01d9d2	-0.03170187
148	0xbc0a8961	-0.008455605
149	0x3c0d748f	0.008633747
150	0x38b6201d	8.684418e-05
151	0x3a1ae206	0.0005908314
152	0x388cb876	6.710079e-05
153	0x39c83539	0.00038186627
154	0x3a059ad4	0.00050966186
155	0xb900ee00	-0.00012295693
156	0x39a2bed0	0.00031041214
157	0x39d2ae72	0.00040184293
158	0x37b830b2	2.1957185e-05
159	0x390a1ca0	0.00013171369
160	0x39e3627e	0.00043370196
161	0xbd86ac3c	-0.0657582
162	0x3d1fa122	0.038972028
163	0xb848bc4d	-4.7859085e-05
164	0xb9d3fdb6	-0.00040434086
165	0xb9536ea8	-0.00020163751
166	0x3d78ca82	0.06074
167	0xbd467128	-0.048447758
168	0x3ae5090b	0.0017474008
169	0xbb5880d4	-0.0033035772
170	0x3ce3bbd6	0.027799528
171	0x38ae5923	8.3135696e-05
172	0x3b2d69e2	0.0026460816
173	0x396a0dc9	0.00022321114
174	0x3d324725	0.04352488
175	0xbc039aae	-0.008032484
176	0x3a1814a7	0.0005801417
177	0x3d2669ac	0.04062812
178	0xb8f6ad28	-0.00011762447
179	0x3cd88290	0.026429445
180	0xbc8c927c	-0.017159693
181	0x39392390	0.00017656223
182	0xbbc0cf4e	-0.0058840876
183	0x3d3c6916	0.045998655
184	0x37d08fb4	2.486245e-05
185	0x3b9be302	0.004757286
186	0x3ce5a0b0	0.028030723
187	0xbb9301f6	-0.0044863177
188	0x39f40887	0.0004654566
189	0xbc882c3a	-0.016622651
190	0xbb2f6e34	-0.0026768567
191	0x3ccecad8	0.025243208
192	0x3cf0f84d	0.029415274
193	0x3c971135	0.018440822
194	0xb97d3986	-0.0002414939
195	0x3d45f1d3	0.048326325
196	0xba35018b	-0.0006904832
197	0x39da5564	0.0004164382
198	0xba8084f2	-0.0009805246
199	0x3b829b47	0.0039857957
200	0x3a222d4f	0.0006186561
201	0xbb737687	-0.0037149505
202	0xb91dccff	-0.00015049054
203	0xba0ba8b8	-0.000532757
204	0xb78b4d8e	-1.6606205e-05
205	0xb7919f27	-1.7359458e-05
206	0xb7732165	-1.4491704e-05
207	0x38169db9	3.5909678e-05
208	0x3aa452d0	0.0012536887
209	0x3879a2e1	5.951792e-05
210	0x3d4d7a23	0.050165307
211	0x3b1512d3	0.0022746816
212	0xbb6c9dc4	-0.0036104778
213	0xbd17ff7d	-0.037108887
214	0x3a188f5a	0.0005819701
215	0xb8fcd3f0	-0.00012055773
216	0x3d36b698	0.04460773
217	0x39a0bfda	0.0003066052
218	0x39702746	0.00022902814
219	0x39102d5a	0.00013749805
220	0xbc91bd84	-0.017790563
221	0xbc4eb20d	-0.012615693
222	0x38d1d03a	0.00010004682
223	0xbd14e1b5	-0.036348063
224	0xba288f61	-0.00064300565
225	0xb9a32d9f	-0.00031123773
226	0x3c120cd9	0.008914196
227	0x39ad6c57	0.0003307785
228	0x3d04d0e5	0.03242578
229	0xb8d917c0	-0.0001035179
230	0x3ac3a5cc	0.0014926731
231	0xb90a0a7e	-0.00013164614
232	0xb94305c5	-0.00018598798
233	0x3b8091a0	0.00392361
234	0x37f33de6	2.8996681e-05
235	0x386ff765	5.7212445e-05
236	0x3cc95ba4	0.02457983
237	0x3c4a9a4a	0.012365887
238	0xbb93a49d	-0.0045057074
239	0x3bfc2879	0.0076952544
240	0x38734396	5.799866e-05
241	0xbc629cc7	-0.013831324
242	0xbd552b6d	-0.052043367
243	0x3a3817cc	0.0007022589
244	0x3d118b57	0.035533275
245	0x39747215	0.00023312152
246	0x3c8505a8	0.016238049
247	0xbd83cb40	-0.06435251
248	0x3aadcc60	0.0013259761
249	0x39c869fc	0.00038225937
250	0x3a5d89b1	0.00084509986
251	0x39864990	0.0002561328
252	0xb9f89443	-0.0004741271
253	0xb970141d	-0.00022895676
254	0x3bd5e0d2	0.006527045
255	0xbd046bb2	-0.03232927

feature_gat.conv1.Ws.4.bias f4 [32]
0	0x3af70f1b	0.0018849106
1	0x3b17087f	0.0023045836
2	0x3ae064b5	0.0017119857
3	0x3b0aed7f	0.0021198688
4	0x3b0124c9	0.0019705764
5	0x3aed562b	0.0018107345
6	0x3b0bf537	0.0021355876
7	0x3af9a62d	0.0019046717
8	0x3b00ce1d	0.0019654103
9	0x3b047a55	0.0020214517
10	0x3b12b305	0.0022384536
11	0x3aecaf33	0.0018057585
12	0x3b026d2d	0.00199015
13	0x3afbea7f	0.0019219666
14	0x3ae437e6	0.0017411679
15	0x3af96fa0	0.0019030459
16	0x3b01a78d	0.0019783706
17	0x3aeb1033	0.0017933905
18	0x3afeff96	0.0019454833
19	0x3afd3bb1	0.0019320158
20	0x3adcccea	0.0016845737
21	0x3afc6247	0.0019255363
22	0x3b07805b	0.002067587
23	0x3b021d14	0.0019853758
24	0x3af83b0d	0.0018938497
25	0x3ad9c114	0.0016613328
26	0x3b091971	0.0020919705
27	0x3b019904	0.0019775042
28	0x3b06388d	0.0020480484
29	0x3acf20f1	0.0015802664
30	0x3af74a98	0.0018866835
31	0x3b03cb8e	0.0020110342
